models/AmazonComputers_gcn_model.pth (torch, 53948 bytes, 6 tensors)

conv1.bias f4 [16]
000000 3b 00 21 bd e7 70 4d bd da d9 67 bd 22 fa d4 bd
       -0.03930686 -0.0501565 -0.056604244 -0.103992715
000010 05 0a 68 bd f8 1e 23 3e 7a c5 83 3e 2a 23 c0 bc
       -0.05665018 0.15929782 0.257366 -0.023454268
000020 20 7c 12 be fa 3b 4c 3e 74 1d 25 bd 0f 22 43 bd
       -0.14305162 0.19944754 -0.04031129 -0.047639903
000030 88 af 5e bd da 33 5d bd 12 cf 3c be 33 21 b1 bd
       -0.05436662 -0.054004528 -0.18438366 -0.086489104

conv1.lin.weight f4 [16, 767]
000000 18 3d 28 bd 08 f2 22 bd 0d 15 8f 39 e6 93 94 bb
       -0.04107389 -0.0397816 0.0002729077 -0.0045342324
000010 82 dd ce bc 15 c1 13 bc 11 00 41 bd 9e fe ce bc
       -0.025252108 -0.009018202 -0.047119204 -0.025267895
000020 1b 2c e1 bc 3f 34 22 b9 eb 41 11 bc 22 f6 08 bd
       -0.027486851 -0.00015468987 -0.008865814 -0.033437856
000030 a6 20 bc bb c1 ce 2e bc 99 6b f2 bb 78 3a 17 bd
       -0.0057411967 -0.010669411 -0.0073980805 -0.036920995
000040 45 71 a4 bc f0 f1 4c bc 81 74 6b bd 6b b0 ce bc
       -0.020073542 -0.012508854 -0.057484154 -0.025230607
000050 e8 87 3a bd ac e4 4e bd af 72 c8 bb 63 4f 0d bd
       -0.045539767 -0.050511047 -0.006117187 -0.034499537
000060 88 e0 27 bd 58 95 96 bc a6 6b 4e bb 5c e5 e3 ba
       -0.040985614 -0.01838176 -0.003149727 -0.001738708
000070 15 2d 05 bd fc 60 49 bd 28 fe 02 bd 64 00 9a bb
       -0.032513697 -0.049164757 -0.031980664 -0.0046997536
000080 c4 9b 4e 39 1f 5c b8 bb 08 1f 53 bc 32 65 a3 bc
       0.00019703718 -0.005626216 -0.012885816 -0.019945715
000090 f7 ed ab 37 b9 fa 2f bd c8 14 64 bc 45 ef 77 3b
       2.04956e-05 -0.042963717 -0.01392097 0.0037831825
0000a0 6e 30 1f bc ed 04 ad 3a 45 c4 15 bc 20 5c 5b 3a
       -0.009716136 0.001320032 -0.009141033 0.00083679147
0000b0 68 40 2f ba a1 f3 91 bc c4 d8 2c bd 36 9e 2d bc
       -0.00066853175 -0.017816367 -0.04219891 -0.010596802
0000c0 a1 ac e1 bb 5c 99 09 bd 7b 15 47 bd 9a b0 5f bb
       -0.006887034 -0.03359352 -0.04860447 -0.0034132362
0000d0 d0 5b 15 bc 9f ad e7 39 14 e5 30 bd 2a da 8b 36
       -0.009116128 0.0004418911 -0.043187216 4.1679205e-06
0000e0 b9 9e e7 bc ce d6 04 bb 7c dc 7b bc 73 7d 44 bc
       -0.028273927 -0.0020269635 -0.015372392 -0.0119928
0000f0 d9 5a 45 bc 7b 02 11 bd 29 b7 62 bc b5 68 ea bc
       -0.012045586 -0.035402756 -0.013837614 -0.028614381
000100 41 8d 0e bd fa 12 3a bd 15 6b d0 bc 45 86 d2 bc
       -0.03480268 -0.045428254 -0.025441686 -0.02569879
000110 66 f8 a6 bc 1b 74 f8 bb 6a 6f 04 ba fc 8c a4 bc
       -0.020382117 -0.0075822 -0.00050520024 -0.020086758
000120 52 de a9 3b a0 1c c8 bc 47 e7 48 bd 3d d1 07 ba
       0.0051839733 -0.024427712 -0.04904869 -0.000518102
000130 46 b9 fa bb 7b 1f 2e bb a8 72 19 3b 48 28 33 bb
       -0.007651481 -0.0026569057 0.0023414288 -0.0027337242
000140 63 04 90 bb d2 d6 95 3b 01 af 28 bc 73 74 83 bc
       -0.004395054 0.0045727277 -0.01029563 -0.016046738
000150 62 ee eb bb 70 33 d9 3a 1a 49 96 bc 01 14 0e bd
       -0.0072000483 0.0016571116 -0.018345404 -0.034687046
000160 58 2b 72 b4 4c 5e c6 3b 73 1a 83 bb 55 b3 e2 bb
       -2.2553775e-07 0.0060537215 -0.0040009557 -0.0069183507
000170 a2 36 f3 b9 e6 4c c7 bc 7c 9a 90 bc 28 37 bb bb
       -0.00046389276 -0.02432866 -0.017651789 -0.0057133622
000180 b8 8b 27 bc ac 24 26 bc 07 4a 24 bc be c4 cd bb
       -0.010226183 -0.010140579 -0.010027415 -0.006279557
000190 7e 29 33 bb 8a 0b 6b bd e6 72 45 bd 31 47 dc 3b
       -0.0027337964 -0.05738405 -0.04820528 0.006722354
0001a0 49 cd ea bb f9 9f 48 bb 07 4c 87 bc 6d 77 21 bb
       -0.007165585 -0.003061293 -0.016515745 -0.0024637834
0001b0 03 0d 82 bb 22 46 1a ba 7a 73 9a bc 69 1d e4 3a
       -0.0039688363 -0.00058850844 -0.018853892 0.0017403784
0001c0 76 4e ef bc 58 08 83 3b 4f 80 78 3b c5 a9 9e bc
       -0.029212218 0.0039987974 0.0037918275 -0.019368062
0001d0 34 0c 0e bd 33 53 92 bc 42 c9 e9 3a a0 02 35 bd
       -0.034679607 -0.017861938 0.0017836469 -0.044191957
0001e0 68 c2 06 bd ad da 2d bc a6 44 78 bc bc f7 79 3b
       -0.032900244 -0.010611218 -0.015153086 0.0038142046
0001f0 e6 fd f2 bb dc 6e 8e bc 89 e5 9a bc de f0 f7 bb
       -0.007415521 -0.017386846 -0.018908279 -0.0075665554
000200 cb 8f 91 bc fa 50 39 bc 6f c2 b3 bb d6 f7 cd 39
       -0.017768761 -0.01131081 -0.005485825 0.000392853
000210 bb 2c 1c bc f1 2c 9f bc 06 ec b6 ba 42 a2 6b bd
       -0.009532149 -0.01943061 -0.0013955839 -0.057527788
000220 76 ce 2a bc 68 c2 f5 bc 33 ff 83 bb c1 e4 02 bd
       -0.010425201 -0.029999927 -0.004028225 -0.031956438
000230 fe 8f 47 bd d5 fc e9 ba 2e 9b af bc 72 b2 71 bb
       -0.048721306 -0.0017851839 -0.0214363 -0.0036880043
000240 eb 0d 38 3c 7d 47 0b 3b 13 2c ba bc 0f 1c ab bc
       0.011233787 0.0021252327 -0.022726094 -0.020887403
000250 7a 97 50 bd 29 33 63 bc f5 72 1e bc 93 1e c4 bc
       -0.05092571 -0.013867178 -0.009670963 -0.02394036
000260 76 c8 0a bc e6 49 19 bd 62 49 94 bb 0a 2e d1 bc
       -0.008470645 -0.03742399 -0.0045253495 -0.025534648
000270 1a 97 8e b9 79 22 1d ba f5 e6 90 bc b8 a0 87 bc
       -0.0002719693 -0.00059942115 -0.017688254 -0.016556129
000280 8d 1c 43 bc a6 4a c4 bc 8d f0 50 ba 8b ca c6 ba
       -0.0119086625 -0.023961376 -0.0007970415 -0.0015166564
000290 ea 9c 8d bb 21 a3 95 3b 00 2a 09 bb 57 b1 7f ba
       -0.004321684 0.0045665656 -0.0020929575 -0.0009753904
0002a0 30 c1 b6 bb c0 54 6c bc 14 9d 92 bc 62 27 df bc
       -0.005577229 -0.014424503 -0.017897166 -0.027240459
0002b0 f4 5b 3f bb 9c 4c 14 bd 76 62 f8 38 b0 68 34 bd
       -0.0029199095 -0.036205873 0.00011843901 -0.04404515
0002c0 e8 5e 1d bb ea 7c 90 bc af ee 7a ba 8f f7 ee bb
       -0.0024012867 -0.017637689 -0.000957231 -0.007292695
0002d0 06 e6 4c bd bf d9 b6 bb 99 0a f8 bc 48 75 bb bc
       -0.050024055 -0.0055801566 -0.03027849 -0.022883072
0002e0 0e e1 f0 b8 53 2b 0c 3a 6d 37 52 3b 62 77 1c bb
       -0.000114860115 0.0005347032 0.0032076493 -0.0023874869
0002f0 90 fc 2c bd 4a 3e ca bc a6 8c ee bc 46 4d f4 bc
       -0.04223305 -0.024687905 -0.0291198 -0.029822003
000300 ad c6 67 b9 71 0d f3 bc 8b d4 02 bc d5 06 b5 bc
       -0.00022103889 -0.029669495 -0.0079852445 -0.022097984
000310 19 97 d3 3b e7 ef 29 b9 ee 2a ac b9 28 4b e2 bb
       0.006457221 -0.00016206467 -0.00032838382 -0.006905932
000320 87 3d 65 3a 64 0c 9d bb 1b 91 b6 bc f5 3a 27 bc
       0.0008744825 -0.004792737 -0.022285989 -0.010206928
000330 11 74 ef 3a 50 f2 4f bc 26 09 a0 38 95 61 b8 bc
       0.0018268843 -0.012692049 7.6310986e-05 -0.022507468
000340 b5 bc c7 bc d6 fb 42 bd c6 e9 66 bc e9 89 0a bc
       -0.024381975 -0.04760345 -0.014093822 -0.008455732
000350 eb 83 21 bd eb 38 d9 ba e9 8e 80 bc c4 d9 7f bd
       -0.039432447 -0.0016572749 -0.015693145 -0.062463537
000360 12 4d 13 bb 69 f3 20 bc 8b b3 00 bd 6f 34 17 bd
       -0.0022476357 -0.0098236585 -0.031421226 -0.03691524
000370 23 6b bc bb 5d 26 b9 bc 66 7b 5e bd fa c4 35 bc
       -0.0057500764 -0.0226013 -0.0543169 -0.011094326
000380 0a 4b f3 bb 2e 8e 0b bd 91 11 53 bd da 4e 8e bc
       -0.007424717 -0.03407114 -0.051530425 -0.017371584
000390 70 22 da ba 69 66 73 bb de 57 ec bc 88 46 63 bc
       -0.0016642343 -0.0037139899 -0.028850492 -0.013871796
0003a0 65 2a 70 bc 93 7b 45 3b f7 f5 78 bc 5d 31 ec ba
       -0.014658545 0.003013347 -0.015195361 -0.0018020082
0003b0 31 f9 90 bc bd 19 a5 bc f6 3a 9c bb 7f d9 78 bc
       -0.017696949 -0.020153875 -0.004767771 -0.015188574
0003c0 cb 95 af bc c2 ce c5 3a 76 c2 d6 38 5a ee a2 bb
       -0.021433732 0.0015091526 0.00010240536 -0.0049722614
0003d0 ac 55 fa bc 08 1b e7 bb c2 93 92 bc 28 80 0a bd
       -0.03055843 -0.007052783 -0.017892722 -0.033813626
0003e0 45 d9 f1 b9 b5 fe 38 bc 74 36 06 3c c1 04 05 bc
       -0.0004612898 -0.011291196 0.008191694 -0.008118809
0003f0 97 b3 22 bd e2 96 1f ba b5 57 b9 bb 38 71 f6 bc
       -0.03972205 -0.0006087852 -0.0056562074 -0.030083284

conv2.bias f4 [16]
000000 f2 d2 fc 3e ee 00 76 bd 87 e4 9e 3b 91 fa 8f 3e
       0.49379689 -0.06005948 0.00484902 0.28120854
000010 be 49 ee bc 22 14 ae 3d 44 7d d2 3e 3d 5d 02 be
       -0.029087897 0.08499934 0.41111195 -0.1273088
000020 e6 37 19 3d cb 47 2c be af d0 3e bb 1e 48 02 be
       0.037406825 -0.16824262 -0.0029116084 -0.12722823
000030 5b 48 ed bb d4 20 5e 3e 9c 3a 46 3d d2 b6 8a bd
       -0.0072412915 0.2169221 0.048395738 -0.067731515

conv2.lin.weight f4 [16, 16]
000000 90 3b 0c 36 ff 05 dd 35 22 44 21 b7 49 5d cc be
       2.0896296e-06 1.6467528e-06 -9.612211e-06 -0.3991492
000010 dd 9b ba b6 4e 4b a4 3e 10 ac 0d 3f ee 72 07 be
       -5.561377e-06 0.32088703 0.5534067 -0.13227436
000020 f6 44 e5 be 52 b0 e0 bc e9 07 60 36 24 6b e9 b6
       -0.44779176 -0.027427826 3.3383205e-06 -6.956414e-06
000030 ca 36 56 36 81 20 69 35 26 de 44 3e 35 53 b4 3e
       3.1920376e-06 8.6846563e-07 0.19225368 0.35219732
000040 47 b8 f1 3a 0b b5 74 3d 02 97 b1 3d 6f 84 66 bc
       0.001844176 0.05974297 0.086713806 -0.014069661
000050 03 30 93 3d cc 8c bf bc bc 00 2e be 8e de 0b be
       0.07186892 -0.023382567 -0.16992468 -0.13659117
000060 42 5d 85 bd e8 5e 88 39 9d 5c cb 3d 74 72 6c 3c
       -0.06511928 0.00026010652 0.09929774 0.014431585
000070 1d 66 61 bc 74 d8 e9 3d bf d6 16 bd ef 6d 3f be
       -0.013757256 0.11418238 -0.03682589 -0.1869428
000080 01 f1 5d 36 af fe fb b6 65 b2 b9 3d b3 83 21 bf
       3.307185e-06 -7.510032e-06 0.09067229 -0.6309158
000090 bc 30 59 3e 36 b3 49 3f 54 ea 91 3e 0c 69 8c 3e
       0.21209997 0.7878908 0.2849909 0.27423894
0000a0 48 c4 49 be 40 4e 8e be 7c df ba 38 40 ca 2d bb
       -0.19703782 -0.27794075 8.910798e-05 -0.0026518255
0000b0 96 5d 31 bd 88 21 e8 bd f9 a8 8c 3e dd 17 76 3e
       -0.04330214 -0.113345206 0.27472666 0.2403254
0000c0 ff 04 30 b7 6e 6b 8b b7 ae 07 80 b7 fa 9a 3a be
       -1.0491581e-05 -1.6620117e-05 -1.5262365e-05 -0.18223181
0000d0 c6 50 99 35 da c8 b3 3d 41 d9 45 3f 2a 14 83 3d
       1.1422896e-06 0.08778544 0.7728463 0.0640033
0000e0 b4 5c ee be 59 f0 a6 3e 0f 7d 16 b6 64 7d bb 35
       -0.46555102 0.32605246 -2.2424535e-06 1.3969079e-06
0000f0 de 16 42 35 60 55 30 b4 82 66 52 be 04 da d8 be
       7.230391e-07 -1.6422337e-07 -0.20546916 -0.42353833
000100 fc d1 e5 b7 05 29 2b 3c c0 e3 21 b5 10 72 06 3f
       -2.7396709e-05 0.010446792 -6.0308594e-07 0.52517796
000110 a1 71 22 3d ad 72 85 3e ec 23 37 3d 80 ba 80 be
       0.039659146 0.26064053 0.044711992 -0.25142288
000120 c6 32 01 bf d8 58 e7 be d4 61 b5 3c 86 ad 22 3d
       -0.504681 -0.4518497 0.022141375 0.039716266
000130 98 53 bf 3c 1d c8 77 3e 48 3d 03 3e b3 0a 03 3f
       0.02335529 0.24197431 0.12816346 0.511882
000140 2e 88 cd b5 86 0a 10 37 d6 31 b9 b6 fa 1e 2e 3e
       -1.5313324e-06 8.585519e-06 -5.5192313e-06 0.17004004
000150 5c e6 0c 37 dd 20 f3 be 7e ec d4 3d 3d 12 10 3e
       8.398285e-06 -0.4748601 0.1039667 0.14069457
000160 5b ab bc bc d5 55 32 3e b1 2f f8 35 76 73 c5 34
       -0.023030927 0.17415555 1.849132e-06 3.6778118e-07
000170 55 b8 34 37 e1 8d 93 b6 69 51 41 3e 49 2c 19 3f
       1.0771754e-05 -4.3974583e-06 0.18878712 0.598332
000180 55 99 28 b9 79 d6 9b b6 68 4a 82 3e 9e 6c 3f bf
       -0.00016078849 -4.644328e-06 0.25447392 -0.7477511
000190 2b 7b d9 3c d3 d4 17 bf f6 54 15 3f d0 fa 95 3d
       0.026547989 -0.5930912 0.58332765 0.07323229
0001a0 b8 b0 8d 3e 0a 2f c3 3e 58 ca 19 bd 41 a3 72 3d
       0.27673888 0.38121825 -0.037546486 0.059237722
0001b0 19 04 94 3e 82 9d 90 bd 72 f4 95 3e 94 e3 d6 3e
       0.28909376 -0.07061292 0.2928806 0.41970503
0001c0 c9 95 57 3a 38 93 23 3c e7 03 5f 3e 08 5c 6a 3e
       0.0008223919 0.00998383 0.21778832 0.2288667
0001d0 3f d2 05 3e 6a 7b c0 3c 74 e0 7f 3e 37 a5 48 be
       0.13068484 0.023496348 0.24987966 -0.19594274
0001e0 cb f9 67 3d c4 3d b6 be 30 67 de bc 6e a8 4b be
       0.056634706 -0.35593998 -0.027148813 -0.1988847
0001f0 cc 06 a2 bd a1 e6 f1 3d 96 44 a1 3e 03 29 ef be
       -0.07911453 0.11811567 0.3149764 -0.46710977
000200 ca 9d aa 37 10 40 2b 3b 04 f2 74 3d c6 9a c1 be
       2.0339055e-05 0.0026130714 0.059801117 -0.37813395
000210 74 f8 cb 3d 96 b8 75 3e a2 5b b6 3e 74 b2 7e 3d
       0.09959498 0.23996195 0.35616785 0.062181905
000220 12 88 06 3f b8 8f 90 3e a3 71 6a 3d ca b8 ef bd
       0.52551377 0.2823465 0.05723728 -0.117051676
000230 44 58 01 3d 0d 31 47 be 44 27 ea be 61 59 8e 3c
       0.031578317 -0.19452305 -0.45733082 0.017376604
000240 18 1f 1d 36 86 98 ae 3b ad fd c0 bb d7 d1 2e bd
       2.3412922e-06 0.005328241 -0.0058896155 -0.042680588
000250 9e 90 84 bd b7 7f 58 3f 64 28 b0 be c6 37 f4 3c
       -0.06472896 0.8456988 -0.34405816 0.029811751
000260 d8 7e cd 3e ea f0 54 be 62 ca 12 3a 9a ed da 3c
       0.40135837 -0.20795026 0.00055996154 0.026724625
000270 31 e9 8a 3d 5b c3 ae bd 9f ee 63 bd 6e 22 a6 be
       0.06782759 -0.08533355 -0.05564749 -0.32448143
000280 be 99 54 35 30 4b 7a 36 d2 c2 1d bc ad ec aa ba
       7.919988e-07 3.7296668e-06 -0.009628968 -0.0013040506
000290 f5 df 1b b7 53 94 42 ba 9a c8 90 bb ae ed 1b b7
       -9.290864e-06 -0.0007422615 -0.004418445 -9.294059e-06
0002a0 5d 4c 1d bb b2 b4 80 bb 48 8c 4b 38 54 26 ee 37
       -0.0024001815 -0.0039277906 4.852962e-05 2.8389659e-05
0002b0 52 d9 67 3c d6 ab f9 36 d5 eb 43 bc 48 be 8f bd
       0.014150934 7.4407826e-06 -0.011958082 -0.07018715
0002c0 0e 69 82 3c e3 e4 f6 3c 51 62 9e 3e db 47 56 3e
       0.015919235 0.030138439 0.30934384 0.20925848
0002d0 42 1f 8d 3e 9d 7a 98 3d 5e 51 7a be 6c fa bf be
       0.2756291 0.074452616 -0.24445102 -0.37495744
0002e0 10 14 0a 3e 86 0e 1d bf 2b 9c 6f bd ed 6b 8c 3e
       0.13484216 -0.61350286 -0.058498543 0.2742609
0002f0 d7 ee b2 3e fd a6 90 3d 39 26 5b 3f 3a d2 1f 3e
       0.34947845 0.070631005 0.856052 0.15607539
000300 cc 39 c7 b8 14 6f b1 ba f6 ef e8 3d 91 2e 16 bf
       -9.499825e-05 -0.0013537132 0.11373894 -0.58664805
000310 e5 0d 84 3e 50 c8 d4 be 82 d3 87 be 45 d6 c0 3b
       0.2579185 -0.41559076 -0.26528555 0.005884918
000320 9d 21 94 3e aa 55 5c 3d f5 d5 29 b8 55 71 b7 bd
       0.28931895 0.053792633 -4.0492003e-05 -0.08957163
000330 3a dd 49 3e 44 c6 77 3e 88 7c a6 bd 8d c2 0e be
       0.19713297 0.24196726 -0.08129221 -0.13941403
000340 98 b6 13 b7 62 4c 8a 37 e2 cf 98 36 85 d4 ac 3d
       -8.804396e-06 1.648645e-05 4.5541537e-06 0.084389724
000350 fc bf f2 b5 c8 0a 09 bb 64 a1 3f 3f a0 32 5d be
       -1.808628e-06 -0.0020910967 0.7485564 -0.21601343
000360 3e 33 74 bd 80 6b a7 3e 2a 33 a7 b6 73 99 8a 35
       -0.05961918 0.32699203 -4.982944e-06 1.0326461e-06
000370 a4 a9 27 37 61 a8 2b 38 eb 4f b4 be 02 15 90 be
       9.993473e-06 4.0926392e-05 -0.35217223 -0.28141028
000380 25 df dd b5 09 0a 07 37 0b 52 0a be f0 a7 85 be
       -1.6530727e-06 8.0489635e-06 -0.1350786 -0.2610469
000390 54 a4 6c 3e 1b 57 22 bf 99 8a 73 3e 8c 00 58 bd
       0.23109561 -0.6341416 0.2378334 -0.052734897
0003a0 42 7a 6b 3d a7 13 95 bd c6 88 03 39 52 c7 fb b7
       0.05748964 -0.07279139 0.00012544086 -3.0014347e-05
0003b0 ed d5 b1 3e a9 7a 55 be f5 d0 42 3e 64 56 46 3f
       0.34733525 -0.20847572 0.19025023 0.7747557
0003c0 77 dc 7d 37 d9 f9 89 35 ee a0 fd 35 98 4e a6 3e
       1.5131306e-05 1.0280011e-06 1.8896806e-06 0.32481837
0003d0 28 e7 80 37 a8 4e 1f 3e b5 4e 5b be dc 24 1d 3e
       1.536643e-05 0.15557349 -0.21416743 0.15346092
0003e0 8c 01 47 3e 2a 20 0f bf 09 68 c8 b5 42 21 55 36
       0.19434184 -0.55908453 -1.4931439e-06 3.1758832e-06
0003f0 3c 36 ef 36 34 8c c8 b6 7a 0e f6 3d 9c 93 39 bf
       7.1290688e-06 -5.9767863e-06 0.1201448 -0.7249086

conv3.bias f4 [10]
000000 fb 3a d5 be 58 8f a8 be 34 db 52 3c 77 23 b4 be
       -0.4164656 -0.32921863 0.012869645 -0.35183308
000010 43 d3 03 3f d0 5f 36 be ad 87 29 bf c9 74 11 be
       0.51494235 -0.17809987 -0.6622265 -0.14204706
000020 0c 4d 33 3e 89 23 ba bd
       0.1750986 -0.09088809

conv3.lin.weight f4 [10, 16]
000000 58 6f 17 3d be 43 a2 3e 3f ac 1f 3f 10 a9 c9 bc
       0.03697142 0.31692308 0.623722 -0.024616748
000010 7f db 26 bf 35 4f 2c be 7e e8 19 be c2 6e 71 bd
       -0.65178674 -0.1682709 -0.15030095 -0.058943518
000020 a2 95 3f 3d 6e cb d0 3e a5 8c 01 bd b7 a2 d7 3e
       0.04677356 0.40780205 -0.03162827 0.4211633
000030 12 e7 0d 3e dd b8 b7 be 02 61 2a bf f0 a2 39 bf
       0.13857678 -0.35883227 -0.6655427 -0.7251425
000040 31 a4 1a 3f c5 02 90 3a b3 ae 06 3f 6a 76 98 3e
       0.60406786 0.0010987154 0.5261032 0.29777843
000050 e7 0d 21 3f ae d2 d4 3e e0 f7 74 3e a8 f4 ba 3d
       0.6291184 0.41566986 0.23922682 0.09128696
000060 d5 a4 21 bf db ec a7 bf f6 ec 9a bb 1e 02 5d 3e
       -0.6314214 -1.3119158 -0.004727955 0.21582839
000070 1e ac 08 3d f1 1e bf bb d1 7b 12 3f 89 fc 01 bf
       0.03336727 -0.005832546 0.5722018 -0.50775963
000080 f6 91 66 3e d9 80 5b 3c 07 6a e5 3e 44 67 04 bf
       0.22516617 0.013397419 0.44807455 -0.5172007
000090 24 bb 76 3f 39 2d ff 3d 89 e7 93 bf 68 aa b2 bd
       0.96379304 0.124597974 -1.1555034 -0.08723909
0000a0 27 dd 27 bf a6 e0 11 3e 68 44 95 3d 5a 05 b3 3e
       -0.65571827 0.14245853 0.07288438 0.3496502
0000b0 b3 44 5a bc 4d 96 05 be 7d 75 06 bf 30 f0 40 bf
       -0.013322043 -0.13045616 -0.5252302 -0.753665
0000c0 b8 1a 53 3d b7 62 1a bd 3c ff e3 3e 12 78 02 bc
       0.051539153 -0.037691798 0.44530666 -0.007963197
0000d0 a3 16 e5 be 00 9b 9b be 9d 98 a0 3d aa e4 f3 bd
       -0.44743833 -0.30391693 0.07841609 -0.119088486
0000e0 cd 80 f6 3e eb 6f 07 3f 7b fd 04 38 ac 95 19 bf
       0.48145142 0.5290515 3.1707325e-05 -0.59994006
0000f0 a7 a2 01 bf 52 97 03 3f 07 9d f3 be cc 95 83 bf
       -0.5063881 0.5140277 -0.4758074 -1.0280089
000100 70 68 fb 3e e4 ce 81 be b9 8c 5d 3e 58 4f 58 3f
       0.49103117 -0.25353158 0.21635713 0.8449607
000110 1d 58 84 3d 3a e3 a8 3d 7e 5f 83 3e 83 97 8e bc
       0.06462119 0.08246465 0.25658792 -0.01740623
000120 4b 22 55 3d 82 2f 06 be 02 09 0e bb e8 98 dc be
       0.052034657 -0.1310406 -0.002167285 -0.43085408
000130 64 3f 92 3c 62 fd 47 3f ff a2 00 be b9 af 97 3e
       0.017852493 0.78121006 -0.12562178 0.29626253
000140 0d 10 42 bf 37 c9 a6 3d 10 7f f1 3d 90 16 dc be
       -0.7580574 0.081438474 0.117918134 -0.42985964
000150 19 60 34 bf a9 8b 05 3e 04 4a d4 bf d1 76 91 be
       -0.70459133 0.13041557 -1.6585088 -0.28410962
000160 95 82 fd 3e 81 31 4a 3f 1b 81 6a b7 fc 49 84 bf
       0.4951369 0.78981787 -1.3977547e-05 -1.0335078
000170 9d 5d 92 be 9b a4 85 be 71 5c b7 3c 5f da ab 3c
       -0.28587046 -0.26102147 0.022382947 0.02097815
000180 56 4f 94 bf b5 c7 78 3a f9 3d 3c bf 8b 7c d1 be
       -1.1586711 0.0009490208 -0.7353206 -0.4091533
000190 90 f6 ab be 53 c7 03 3f df dd 13 3f 18 91 2d 3e
       -0.3358655 0.5147602 0.57760423 0.1694988
0001a0 f0 93 03 3e a8 00 03 bf 58 1f fe b7 fe f8 5e 3e
       0.12849402 -0.51172876 -3.0293755e-05 0.2177467
0001b0 d2 2c 24 be 8d 94 de be fc 55 58 3f e9 42 e4 be
       -0.16032723 -0.4347271 0.845062 -0.44582298
0001c0 eb 67 9b bf ec d3 28 bc 0f 8b d7 bd 3a 4b cf be
       -1.2141088 -0.010304432 -0.1052457 -0.4048708
0001d0 1e ef db 3e 09 50 1f 3e 40 28 05 bf 9b b4 44 3e
       0.4295587 0.15557875 -0.5201454 0.1920952
0001e0 38 d9 1a bf df b5 f4 3e 77 1e a6 b4 5b ff 07 3f
       -0.604877 0.47795007 -3.0942076e-07 0.53124017
0001f0 78 ec 23 be 1c 12 ef be 8c f0 da be 92 cd 16 3f
       -0.16008174 -0.46693504 -0.42761648 0.58907425
000200 32 74 37 3d 25 51 87 bd 57 e0 9f be bc a2 e1 bd
       0.044788547 -0.06607274 -0.31225845 -0.11017367
000210 e2 aa 8c be 89 05 1c 3f d5 d3 05 3f d1 f2 28 3e
       -0.27474123 0.60945946 0.52276355 0.16498877
000220 82 e9 74 3e ff 14 ea be b7 8e 2a ba 2b 27 47 bf
       0.23917201 -0.45719144 -0.00065062515 -0.7779414
000230 8f 1d a9 3e 38 78 b2 3e b5 36 43 3f fc 9d b0 be
       0.33030364 0.34857345 0.7625535 -0.34495533
000240 79 fa 97 bf a2 05 0e 3e 28 d0 5d bf 5d 49 92 be
       -1.1873313 0.13869336 -0.86645746 -0.28571597
000250 63 58 9e be f3 03 12 bf b8 6c 12 3f 06 e8 ea bb
       -0.3092681 -0.57037276 0.5719714 -0.0071687726
000260 e6 e2 bf 3e f9 9e d2 3e 80 58 f9 3c cf 54 57 3c
       0.37477797 0.41136912 0.030437708 0.013142779
000270 a0 9f b7 3e e8 e1 48 bf 04 25 15 bf 08 84 c0 be
       0.35863972 -0.78469706 -0.58259606 -0.37600732
