models/aml_gcn_model.pth (torch, 4484 bytes, 6 tensors)

conv1.bias f4 [16]
000000 f0 67 94 be ee d4 3f 3b a4 f9 e9 b4 0b fb 21 b5
       -0.28985548 0.0029271203 -4.358127e-07 -6.034249e-07
000010 d2 43 4a bb e8 fc 32 b6 68 d2 56 bd f3 23 9e bd
       -0.0030863178 -2.6671278e-06 -0.052446753 -0.077217005
000020 5f ea 00 be 22 0d e2 bd 91 b8 13 bd f1 c9 da bc
       -0.12589405 -0.11037661 -0.036064688 -0.026707621
000030 88 59 22 bd 73 0a 23 3c 4b 09 57 bc 25 3f c7 bd
       -0.039636165 0.009951222 -0.013124774 -0.09728841

conv1.lin.weight f4 [16, 6]
000000 8d ef 3f 3c 23 2a f0 be a0 b3 d6 be 1d fe 4b bf
       0.011714828 -0.46907148 -0.41933918 -0.7968462
000010 16 fc 05 bf f5 01 8f be b6 63 bd 3d 28 1c d5 bd
       -0.5233778 -0.2793118 0.09247534 -0.10405761
000020 97 f7 d4 3b c2 76 a3 bd ac 2e 68 be d5 94 99 bd
       0.0064992416 -0.07981636 -0.22674054 -0.074990906
000030 7d 95 21 bd 2d b3 ad bd 50 9d 84 37 8c 2a 5c bd
       -0.039449204 -0.08481441 1.580888e-05 -0.053751513
000040 14 8d 3d b6 6a ac b3 37 99 f5 cf bd e1 3e 51 bd
       -2.8245313e-06 2.141875e-05 -0.10154266 -0.051085357
000050 68 86 93 b5 51 05 12 be fe e8 e1 36 78 96 35 37
       -1.0991471e-06 -0.1425984 6.7326464e-06 1.0823474e-05
000060 72 0e 70 bd c4 b2 81 be ca a5 95 bd 94 0c d3 be
       -0.058607526 -0.253317 -0.073070124 -0.41220534
000070 47 16 a2 be f5 d3 4a be c8 3d 62 bd 1d 84 73 be
       -0.3165762 -0.19807418 -0.0552347 -0.23780866
000080 1f b4 c2 b7 e3 25 d0 bc 39 ff a7 b7 19 c7 88 b5
       -2.3210478e-05 -0.02540869 -2.0026799e-05 -1.0190735e-06
000090 7d ee 0f bf 58 2a 62 3e 8b 27 62 be ca cb ad be
       -0.5622328 0.22086465 -0.22085397 -0.3394454
0000a0 44 ba ee be 73 69 8f be af 03 75 bd 3e 8a 8d be
       -0.46626484 -0.2801014 -0.059817966 -0.27644533
0000b0 a6 6d 9a 3d ba 58 18 bf 14 dd 70 3e d3 58 d8 be
       0.07540445 -0.59510386 0.23521835 -0.42255268
0000c0 10 29 86 be e5 eb 42 be d8 02 b3 3d e7 df ee 3d
       -0.26203203 -0.19035299 0.08740777 0.116638
0000d0 2d 0b 8f 3e 67 37 eb be f1 b7 aa bc b5 24 b2 be
       0.27938214 -0.45940706 -0.020839663 -0.3479363
0000e0 7a fc 29 be 02 a3 03 bf 3c 72 ac 3e 33 45 f2 be
       -0.16600218 -0.51420605 0.33680904 -0.4731842
0000f0 a3 4a 14 3e 2f 9a 83 3e 42 f7 40 3e cf 6c 4e be
       0.14481597 0.2570357 0.18844321 -0.20158695
000100 1c d6 dc 3e 51 8f e8 3c 28 0e 40 bc 9b a9 04 bf
       0.43132102 0.028388651 -0.011722125 -0.518213
000110 af 3a fb 3d 03 c0 0a be 2c 69 8f be 9f 1b 86 3e
       0.122670524 -0.13549809 -0.28009927 0.26192948
000120 38 ac 22 3d b4 04 b0 be 6f c9 62 be c0 9a 89 bd
       0.03971502 -0.34378588 -0.22147153 -0.06718969
000130 e5 84 8b 3e f0 54 34 be 07 bd 56 be 31 25 b9 bd
       0.27249828 -0.17610526 -0.20970546 -0.09040297
000140 61 76 54 be 3e 9d 8a 3e f9 12 b1 3e f0 1a fb bd
       -0.20748283 0.2707309 0.34584787 -0.12260997
000150 ed 91 00 3d de 2d 5a 3e 5c 4b cd 3d c8 7f 79 be
       0.031389166 0.2130656 0.10024139 -0.24365151
000160 ee 3c 6b 3e 0a 99 b0 3d 17 e1 a2 bc e6 ff 22 be
       0.22972462 0.0862294 -0.019882722 -0.1591793
000170 7a b2 48 be 7e 26 41 bc 1a af 24 be 88 b9 8a be
       -0.19599333 -0.011788962 -0.16082421 -0.27094674

conv2.bias f4 [16]
000000 45 93 05 be e0 35 17 be 6a 6f ed bd 40 ff 20 3f
       -0.1304446 -0.14766645 -0.11593516 0.6288948
000010 f1 ca 8a 3e 16 69 55 bd d0 f5 32 3f ec 28 b9 bc
       0.27107957 -0.05210217 0.6990633 -0.02260252
000020 8d 93 df bd ea 5e b4 b9 f3 c2 1b 3f 96 36 15 ba
       -0.10916815 -0.00034402992 0.60844344 -0.0005692033
000030 f9 1c 0a 3e 4a 76 d5 3e c3 83 37 3e 96 0f 38 3f
       0.13487615 0.4169181 0.17921357 0.7189878

conv2.lin.weight f4 [16, 16]
000000 9a b5 58 3e e7 11 cf be 35 04 8b 3d 4c 80 e4 bc
       0.21163025 -0.40443346 0.06787912 -0.027893208
000010 e0 76 d3 be 94 1c 5d bd 19 55 de bb da 42 d2 bc
       -0.41301632 -0.053982332 -0.006785047 -0.025666643
000020 27 77 7f be 70 a3 91 3e 20 d6 32 be e0 76 ba be
       -0.24947797 0.28445005 -0.17464495 -0.3641882
000030 b7 e3 21 be eb 0c 8c bd 92 45 8f 3d 6c f9 d8 be
       -0.15809523 -0.068384014 0.06995691 -0.42377794
000040 23 2a 52 3d 92 19 e6 be 67 ef d8 bd 75 d7 c1 36
       0.051309716 -0.44941384 -0.105925374 5.7769307e-06
000050 dc ba b6 3e 9d b0 d3 3d 3c 37 88 3e 95 4b 1a 3e
       0.35689437 0.10336421 0.2660464 0.15067895
000060 7f 9b 49 3e cd dc 20 be e6 55 bb be 4c fd f5 3d
       0.19688223 -0.15709229 -0.36588973 0.12011203
000070 8d 5a a4 be a0 65 bb be d3 15 5d be 25 ee 67 bc
       -0.32100335 -0.3660097 -0.21590357 -0.014155899
000080 cc 7e e0 3d c9 9c 55 be 23 75 b4 3d e8 b5 82 3c
       0.109616846 -0.2086059 0.088114046 0.01595588
000090 da 19 a1 be 0a d4 16 bd 64 a3 e2 3d d6 56 3a be
       -0.31465036 -0.03682331 0.110663205 -0.18197188
0000a0 b9 37 87 3e 9a 0e 9f 3e 18 b6 80 bd 99 d8 46 3d
       0.264097 0.31065828 -0.062847316 0.048546407
0000b0 ec b2 e2 bc 16 54 2d be db a6 2b be 08 63 da bd
       -0.027673207 -0.16926607 -0.16762869 -0.1066342
0000c0 90 1f 34 3e 6a 86 2d be b5 af 02 37 90 03 c5 b3
       0.17590165 -0.16945806 7.789514e-06 -9.1741754e-08
0000d0 2c aa 36 bd 08 4a 85 bd bc ec 9b 3d 8a 08 c2 3e
       -0.044595882 -0.06508261 0.07613513 0.3789714
0000e0 bd a5 4a 3e 2b cc 8b 3e fd 1a b5 be ee c4 20 be
       0.19789787 0.27304205 -0.35372153 -0.15700123
0000f0 af 2c 41 be 9e 0d 49 be 11 f1 8b bd 03 10 ad be
       -0.18864702 -0.19634101 -0.06833089 -0.33801278
000100 9b 71 11 3e a8 1c 15 bf 3c a3 84 3d ea 8c d8 3c
       0.14203493 -0.5824685 0.06476447 0.02643438
000110 60 db de 3e 1e 23 77 be 32 3b bf 3e 51 ac 42 3d
       0.43526745 -0.2413449 0.3734985 0.047527615
000120 3e e9 ae 3c 7d 8c aa 3e bd 80 ad 3c 24 2a ac 3e
       0.021351453 0.3331031 0.021179551 0.336259
000130 ea 74 a7 3d 42 95 dd be 3d 01 d6 3d 28 53 cf 3d
       0.081765965 -0.43277937 0.10449455 0.10123283
000140 a2 88 3a bc 59 65 87 bc 44 03 5d 37 12 26 08 b6
       -0.011385115 -0.016527819 1.3173387e-05 -2.028774e-06
000150 b0 29 ea bd 65 1b b0 3d 1c d7 3b 3e 60 3a e9 bd
       -0.114337325 0.08598975 0.18343776 -0.11388087
000160 83 8e f7 be d2 6b 9b bd 04 7b ad be 36 e5 83 3e
       -0.48350915 -0.075889245 -0.33882916 0.25760812
000170 77 f0 b1 be be 9b f7 bd a1 41 35 be 30 87 bd bc
       -0.34753773 -0.12090252 -0.17700817 -0.023135751
000180 22 ab f4 3c 25 8e 52 be 60 d8 11 33 b0 50 fc b6
       0.029866759 -0.20562036 3.3957235e-08 -7.5195785e-06
000190 c6 40 cc 3e 13 e5 05 bd e8 88 d9 bc 92 06 3e 3c
       0.39893168 -0.032689165 -0.02655454 0.011598246
0001a0 17 1f c5 bd 82 92 31 3e d5 34 3e be 45 0f a7 be
       -0.096250705 0.17341045 -0.18574841 -0.32628837
0001b0 93 d3 06 be 7f 5f a1 bd 06 e4 44 3d b0 a2 49 3e
       -0.13166647 -0.078795426 0.048069023 0.19690967
0001c0 a8 d3 f7 3d f1 db ab 3d df c3 92 bd d4 b0 73 b7
       0.12100917 0.0839156 -0.07166266 -1.45251e-05
0001d0 94 ef a0 be 3e ef b0 bd d7 24 ef be f7 19 ba be
       -0.31432784 -0.08639382 -0.46707794 -0.36347935
0001e0 fa 57 1f bf 9d a8 0b bf e9 d7 da be 80 1c 11 bf
       -0.62243617 -0.5455416 -0.4274285 -0.5668411
0001f0 c6 62 b2 be fd a2 db bd 03 6a 40 3e 81 21 8a be
       -0.34840983 -0.10724447 0.1879044 -0.26978686
000200 19 94 68 be a2 5e 3f 3e e7 e0 c1 3d 2b aa 00 3b
       -0.22712745 0.18688443 0.09466725 0.0019632678
000210 e3 03 52 3e 74 32 06 bd 3f 1d e9 bc b1 e2 96 3e
       0.20509295 -0.03276296 -0.028456328 0.29469827
000220 a6 8e 16 bd 92 10 e6 3c 23 f1 dc be 15 0c b8 bd
       -0.036757134 0.028084073 -0.43152723 -0.089866795
000230 d4 fa 26 be c9 cf 8c bc e2 99 01 bd a2 46 94 3e
       -0.16306621 -0.017188923 -0.031640895 0.2896014
000240 18 e3 c6 be e5 ee 99 bd ba 32 4e b7 fb c5 7d 36
       -0.38845134 -0.07516269 -1.22903675e-05 3.7815178e-06
000250 d4 b3 ac bd a0 67 78 bd 58 42 59 3e c5 03 37 bd
       -0.08432737 -0.0606457 0.21216714 -0.04468133
000260 65 62 a3 be ce 92 08 3e 5e ec e9 be f7 0c 82 be
       -0.31911007 0.13337252 -0.45688146 -0.25400516
000270 a1 11 40 be a8 d4 d7 be 0d eb 89 be 3a b0 22 be
       -0.18756725 -0.4215443 -0.26937142 -0.15887538
000280 40 54 a2 3e cb 11 5f be f9 31 61 3d a3 df e0 b6
       0.31704903 -0.21784131 0.0549793 -6.701755e-06
000290 b0 7e 63 be d9 b0 bd 3d ce 4a 3f 3e 58 d0 96 3d
       -0.22216296 0.09262247 0.1868088 0.07363957
0002a0 c8 f2 ba 3d 59 11 8a be ff df 36 be 62 bf f9 3e
       0.09128338 -0.2696636 -0.17858885 0.48778826
0002b0 df 79 61 be 63 3b f2 bd d4 3e 89 be c9 aa 4c be
       -0.22019146 -0.11827733 -0.26805747 -0.19987024
0002c0 0d f4 8f bd d7 b9 c9 be 65 02 86 bd 06 71 82 b6
       -0.07028971 -0.39399597 -0.065434255 -3.8874596e-06
0002d0 76 52 66 be 36 70 38 b6 c9 f9 b3 be 3d 76 89 be
       -0.22492394 -2.7483452e-06 -0.35151508 -0.2684802
0002e0 3e 3b 18 3d 4b 0a 91 3e 24 fa 21 be 14 9c 72 be
       0.037165873 0.28328165 -0.15818077 -0.23692352
0002f0 87 55 f1 be 09 d0 a4 be c9 53 fc be 3c eb 22 be
       -0.47135565 -0.32189968 -0.49282673 -0.15910047
000300 6b c1 15 3e ca c3 1b bf 72 16 b1 bc 7d 04 a7 bd
       0.14624564 -0.60845625 -0.021617148 -0.08155153
000310 3e 83 b9 be 82 c8 7f bd 46 a3 41 3e 3d f9 58 bc
       -0.36232942 -0.06244708 0.1890994 -0.013243017
000320 58 b2 9d bd a7 72 eb bd 16 d8 39 3e e9 86 25 be
       -0.07700032 -0.114964776 0.18148836 -0.16164745
000330 2b bd 77 3e 02 e8 f4 bd b5 79 18 3d 15 a4 c0 3e
       0.24193256 -0.119583145 0.037225444 0.37625185
000340 92 01 57 3a bf 35 93 be e5 10 8c bd 66 bc 0b 36
       0.0008201833 -0.28751943 -0.0683916 2.0822276e-06
000350 ab b4 84 be d7 71 aa bd 8b b0 a0 be d8 0c 9f 3e
       -0.2591909 -0.083224945 -0.31384692 0.31064487
000360 be de 43 3e 36 ba e9 3d 7a 1a 9a bc 99 71 ba 3d
       0.19127938 0.1141247 -0.018811453 0.09103698
000370 b6 18 fc 3d 69 ae ae be 36 fe 0a be c7 69 81 3e
       0.12309401 -0.3411744 -0.13573536 0.25276014
000380 75 52 f4 3e 21 fe 61 be cb ab 6d 3d 06 db 16 b7
       0.4771916 -0.22069599 0.058025163 -8.991692e-06
000390 9e 39 10 bd 9e 0e 03 bd c9 5a c0 be 16 0f 23 3d
       -0.035211198 -0.031996362 -0.37569264 0.03980931
0003a0 32 d3 83 3e b0 55 3c 3e 36 aa be be 9d 65 7b 3e
       0.25747067 0.18392062 -0.37239236 0.24550481
0003b0 7f 3c 27 be d2 bb 28 bd 99 0f cd be 25 92 79 bd
       -0.16331671 -0.041194744 -0.40050963 -0.06093039
0003c0 69 a7 bc be 99 c0 aa be 2b b0 8d 3d f2 e0 28 36
       -0.36846474 -0.33350065 0.06918367 2.5164886e-06
0003d0 96 28 06 3e 40 83 02 3e 07 e2 60 3d 3e 96 99 3e
       0.1310142 0.1274538 0.054903056 0.29997438
0003e0 57 b9 3e 3e 77 8d e4 3e 08 a7 9e be b6 6c f8 3e
       0.18625389 0.4463918 -0.3098681 0.4852044
0003f0 c2 35 de 3c 4e c5 97 be c8 de 94 be 80 c8 95 be
       0.027125243 -0.2964272 -0.2907622 -0.29254532

conv3.bias f4 [2]
000000 34 74 bb 3f 34 74 bb bf
       1.4644837 -1.4644837

conv3.lin.weight f4 [2, 16]
000000 20 23 96 be af e7 8d be 92 eb d3 3e 76 52 c2 3e
       -0.29323673 -0.27715823 0.41390663 0.37953538
000010 b6 ee 36 3e 60 1a 53 3e b7 57 c1 3d 0d 0a 0f 3f
       0.17864498 0.2061553 0.094405584 0.5587471
000020 05 15 a3 be 47 be 1d be a7 4f cd 3e 6f 6a c8 be
       -0.31851974 -0.15404616 0.40099832 -0.39143702
000030 23 49 e1 be 50 52 de 3e 25 5d 4d 3e a3 fd 3d 3d
       -0.4400111 0.43422174 0.20055063 0.046384465
000040 54 50 c6 be 82 0d 1d be 28 44 d2 3e fe 5d 65 be
       -0.3873316 -0.15337184 0.41067624 -0.22399136
000050 1c 75 2f 3e 2d b0 22 3e e0 fb 9a be e9 c8 0c 3f
       0.17134517 0.15887518 -0.3027029 0.54994065
000060 35 54 af be 26 a4 7c be 50 0e 1d be f2 7a c2 be
       -0.34243932 -0.24671993 -0.15337491 -0.37984425
000070 60 c7 e3 be 86 24 a0 3e 43 3e 0a 3e 43 1c cd be
       -0.4448805 0.31277865 0.13500313 -0.40060624
