models/arxiv_gcn_model.pth (torch, 14936 bytes, 6 tensors)

conv1.bias f4 [16]
000000 bc 12 c3 bd ea da 46 bd d5 26 2f bd cc 89 6d bd
       -0.09525058 -0.048548616 -0.042761642 -0.05799274
000010 0a 8e 05 be 10 88 e3 bc 72 ac 0f bd ac 64 7f bc
       -0.13042465 -0.02777484 -0.035076566 -0.015587967
000020 7f ba bb be ac 07 12 3d 68 02 60 bf c9 5c 30 bd
       -0.36665723 0.035651848 -0.8750367 -0.043057237
000030 8d 84 4d bd 7a 0e d7 bb d7 97 c7 3c 8e 9c 74 be
       -0.05017524 -0.006563005 0.024364395 -0.23887846

conv1.lin.weight f4 [16, 128]
000000 fd 87 6e 3d 90 7e e2 37 3d eb f5 3c de 4c c9 3c
       0.058235157 2.7000235e-05 0.030019397 0.024572786
000010 8d f7 15 bc 0f ae 69 bc 1a 74 c1 bb 2c 99 81 3c
       -0.009153259 -0.01426269 -0.005903733 0.015820108
000020 9c 99 8d bc ed e1 31 38 a3 93 0a b6 3d 13 8c bd
       -0.01728516 4.24105e-05 -2.0649538e-06 -0.06839607
000030 df 4f 15 bd 47 b0 54 bc 1f 4d d5 3d 0c f7 96 b7
       -0.036453124 -0.012981481 0.104151 -1.7996434e-05
000040 53 5d 91 39 5d 9c 9b bd 93 c2 6e 3a 70 4f 6c bc
       0.00027726087 -0.07598183 0.00091079733 -0.014423236
000050 ae e4 eb 3d fa ae f3 bc db 0c db 3b 5e 8d 8b ba
       0.115182266 -0.029746521 0.006684882 -0.0010646989
000060 13 e8 f5 bc 61 50 26 3d f1 7d cd bc 30 2b bb 3d
       -0.030017888 0.040604 -0.025084468 0.09139097
000070 15 0c a6 3b 29 0c 10 bc 30 7f 98 3d c2 09 75 3a
       0.0050673583 -0.008791962 0.07446134 0.00093474623
000080 73 1a 1b 38 ef 4a e1 3b d6 cf 05 bd da a3 16 3d
       3.6979513e-05 0.006875388 -0.03266891 0.036777355
000090 97 ae 86 3d 54 15 c1 3b e3 54 18 bd fc c8 04 be
       0.06576269 0.005892435 -0.03719033 -0.12967294
0000a0 12 35 2f 3c 17 b2 ae 39 ae 74 b3 bc ed 58 c1 3c
       0.010693805 0.00033320553 -0.021906223 0.023601973
0000b0 88 2d 84 bc d2 7a 3f 3c 72 67 cc bd 77 d7 a5 39
       -0.016134992 0.0116869975 -0.09980668 0.00031631786
0000c0 f3 e1 e0 bb 65 8f d7 bc 37 2b a4 bd b7 13 98 bd
       -0.0068628727 -0.026313493 -0.08016055 -0.07425635
0000d0 95 4e 66 3d f8 5c b6 3c ff 91 eb 3c 60 4e 88 bc
       0.056227285 0.022261128 0.02875614 -0.016638935
0000e0 fb d8 b9 3c f2 6d b0 3d dd 1c 58 37 a6 94 c2 b6
       0.022686472 0.086147204 1.28813235e-05 -5.7989555e-06
0000f0 e1 c4 ae bd fc 43 d0 34 d2 8c f5 39 5c d4 c5 3c
       -0.085336454 3.8792484e-07 0.0004683496 0.024149112
000100 0b 7e 57 b7 77 1a cf bc 62 d3 0c 3e d7 24 7d 35
       -1.2844345e-05 -0.025281174 0.13752511 9.4303454e-07
000110 55 90 c4 3c 47 e2 2e 3e 44 bd 98 3c 2e e3 6e 3d
       0.023994604 0.17078505 0.018644936 0.058322124
000120 bb 2b 84 bb 1b 7b 93 3d a1 58 51 3c be a9 42 3e
       -0.0040335334 0.07201215 0.012777478 0.19010064
000130 9b 29 63 bc 2e 99 33 bd 3a 3b 97 37 97 43 a0 bc
       -0.0138649 -0.043847255 1.8028182e-05 -0.01956348
000140 27 e4 3f 3d 0c e0 5d ba b6 70 94 3c a5 1d 82 3d
       0.046848442 -0.00084638665 0.018120151 0.063533105
000150 6f 40 90 bd ba 80 3d 3b cb 3c 88 3c 6b f3 85 bb
       -0.0704354 0.0028915838 0.01663055 -0.0040878556
000160 be a7 a5 3b 33 d8 29 bd d1 1b 7b bd 0d 65 06 39
       0.005055397 -0.04146595 -0.061305825 0.0001281688
000170 ca a0 ff 3b f1 21 2c bb 29 3b 29 3d fe 36 b5 37
       0.00780115 -0.0026265348 0.041316185 2.160249e-05
000180 b8 bf 85 3c 05 c1 c5 3c 0f 68 0b bc bd 0a cf bc
       0.01632677 0.02413989 -0.008508696 -0.025273675
000190 ba 36 f6 3c 32 e8 97 bd 57 52 2a 3d 20 9d 4f bd
       0.030055393 -0.074173346 0.04158243 -0.050686955
0001a0 c2 ce ad bd 21 39 49 bd eb d5 da 3d 93 bf f9 3b
       -0.084867015 -0.049126748 0.10685333 0.0076217144
0001b0 cc d1 01 b8 b2 7b 69 3c eb 17 30 bc 34 2a 59 3c
       -3.0951385e-05 0.014250683 -0.01074789 0.013254691
0001c0 dc ff ce bc 61 43 2a bd b0 38 dd 3c 82 67 5a bc
       -0.025268488 -0.041568164 0.02700457 -0.013330342
0001d0 f4 0e c2 3c 08 04 dc 37 20 8d 7e 37 96 ff 98 3a
       0.02368877 2.622792e-05 1.5172438e-05 0.001167285
0001e0 b3 bc 12 3e f9 c2 6d 3d e4 98 03 bd df 28 38 3c
       0.14329796 0.05804727 -0.03212823 0.011240213
0001f0 5e 9e c9 bd cf df f3 bc 58 97 e3 3c 54 92 4f 3c
       -0.09844659 -0.029769806 0.027782127 0.012669165
000200 64 7a 37 bd a1 7c 93 3e 01 26 9e bd 49 a3 30 3f
       -0.044794455 0.28806022 -0.077220924 0.68999153
000210 7b 3d 25 3e c0 61 54 be 83 81 b8 be a8 98 1d 3d
       0.16136734 -0.20740414 -0.3603631 0.038475662
000220 70 5c db 3d af 9c 85 be 16 b9 f8 3d a1 8b a9 3e
       0.107109904 -0.26096103 0.12144677 0.3311434
000230 5e 7b c7 3e fd bb cb 3c fe 75 05 bf 43 dd 86 3d
       0.3896131 0.024869913 -0.52133167 0.06585171
000240 cc b5 f6 be 5c 19 f0 3d b7 77 96 be 88 c9 6d be
       -0.48185575 0.11723587 -0.2938821 -0.2322141
000250 dc 4b 4c be 3a a0 1b bf c4 10 53 3e e2 b7 09 be
       -0.19950813 -0.6079136 0.20611864 -0.13449052
000260 c3 01 8e 3e c0 68 c3 be 18 6b e9 ba b9 53 c2 bd
       0.2773572 -0.38165855 -0.0017808406 -0.09488625
000270 74 00 23 bf cb 9a ff 3e b6 f0 bf 3d d0 88 1d 3f
       -0.63672566 0.49922785 0.09372084 0.61536884
000280 51 a7 50 3e 83 5d 6f be 04 e6 4d 3e c7 61 a9 3d
       0.20376326 -0.23375516 0.20107275 0.08270603
000290 22 67 b2 be eb 86 82 be 80 7c 26 bd 4f f1 92 be
       -0.3484431 -0.2549356 -0.040646076 -0.2869973
0002a0 3a 97 44 3e e5 cf 68 3e fc 9f e5 3d 5b 15 0f bd
       0.19198313 0.22735555 0.11212155 -0.034932476
0002b0 af f5 17 3e ee f7 8d be 9a d2 0c 3e 6a cd 63 3e
       0.14839815 -0.27728218 0.13752213 0.22246328
0002c0 61 4f 74 3c 7b 21 2b be de 15 ce be 30 fd 35 3e
       0.0149115035 -0.1671199 -0.40251058 0.17772365
0002d0 99 eb 12 be 05 a6 8c bd 38 bd 58 3e b1 b9 10 be
       -0.14347686 -0.06867603 0.21165931 -0.14133336
0002e0 92 a0 26 3d 94 c4 a4 3e f9 69 95 3d 67 72 24 bd
       0.040680476 0.32181227 0.07295603 -0.040148165
0002f0 d3 ff f2 3d 85 5b 4b 3c be e5 cb 3e fa 5a bd bd
       0.11865201 0.012411957 0.39823717 -0.09245868
000300 04 a9 5a be 94 ab 90 be b2 d8 ff 3a 74 ce 2d be
       -0.21353537 -0.28255904 0.0019519536 -0.16973287
000310 bd 8d 6c be c1 6c ba 3e 7a ed 1d be 9d 46 c6 be
       -0.23100944 0.36411098 -0.15422621 -0.3872575
000320 8a 2e c6 3e 58 90 dd be 8d d7 de bd 06 5e 39 bb
       0.3870738 -0.43274188 -0.10880957 -0.0028284802
000330 ed a0 ff bd e8 e4 5a be af 25 3d bd 6e 20 10 be
       -0.12481866 -0.21376383 -0.046178516 -0.14074871
000340 86 5a ed 3c 42 5a 93 ba a0 7d 41 be 7e 97 1e be
       0.028973829 -0.0011242109 -0.18895578 -0.15487477
000350 c5 da 0c 3e c0 65 87 bc 3d 8f 17 be 9c c4 90 3e
       0.13755329 -0.01652801 -0.14800735 0.28275
000360 e2 77 33 3e a4 f1 70 3d c8 06 c0 bd 04 14 e5 3e
       0.175262 0.058824196 -0.093762934 0.44741833
000370 ad 8f 5d bd da b7 8f be c5 81 5a bd 74 39 bb 3e
       -0.054092098 -0.28069955 -0.053346414 0.3656727
000380 a7 d4 61 3e 24 ce e1 3d 0d 01 47 bf c3 c3 af 3d
       0.22053777 0.11025646 -0.7773598 0.085822605
000390 1b 0c 3e bf fc 55 d0 3d ea e3 a1 3d c6 b6 d3 bd
       -0.7423722 0.1017265 0.07904799 -0.10337596
0003a0 7c e0 bb 3d ce 7d b4 be 5b 61 e7 be bf e3 19 bf
       0.09173676 -0.3525223 -0.45191464 -0.6011314
0003b0 83 9f 8f 3e b2 3b f7 bd 5e 6e 30 3e 8c d2 2d be
       0.28051385 -0.12071933 0.17229602 -0.16974849
0003c0 af 6a f1 bd 0d 6f 8c 3d 06 8c 52 3e 31 b9 8f 3d
       -0.117879264 0.06857119 0.20561227 0.07017744
0003d0 10 9b 39 3e e6 7e 52 3e 22 7e 5f 3e 44 ec 79 3d
       0.18125558 0.2055622 0.2182546 0.061016336
0003e0 0d 04 ca 3e 4d 05 74 bd 8c 80 43 be 35 e7 d2 3e
       0.39456216 -0.059575368 -0.19092005 0.41192022
0003f0 da 29 5e bd 30 69 df 3d 61 f1 63 3e 83 6e 27 3e
       -0.05423913 0.10908735 0.22260047 0.1635075

conv2.bias f4 [16]
000000 c8 29 ec 3e af f1 b8 3e a3 0f 3a 3e 44 85 fc 3e
       0.46125627 0.3612189 0.18170027 0.49320424
000010 0a de 90 3a a0 13 82 3a 34 65 88 3b 99 49 fb ba
       0.0011052501 0.0009924062 0.004162455 -0.0019171714
000020 0f 05 86 ba 1f 45 24 3f f2 9f 85 3e 75 03 98 3b
       -0.0010224896 0.6416797 0.2609859 0.004639084
000030 1e 67 92 bd d8 ce b2 ba 2c 9a 74 3d cf ed b2 3e
       -0.07148574 -0.0013641967 0.059717342 0.3494706

conv2.lin.weight f4 [16, 16]
000000 88 99 dc b9 80 66 48 3f 38 36 19 37 84 17 90 3a
       -0.0004207606 0.782814 9.132134e-06 0.0010993336
000010 ea a6 9c 3e 55 60 07 37 aa cf 6c b8 7b 4a 20 bb
       0.30596095 8.069056e-06 -5.6460187e-05 -0.0024458456
000020 65 5e 1c bf 37 da 9d bd 7b a4 f9 be dd 93 56 38
       -0.61081535 -0.07707637 -0.487583 5.1159284e-05
000030 10 ec bb 36 96 a6 ba b7 82 61 b7 3e c5 73 65 be
       5.6005156e-06 -2.22505e-05 0.3581658 -0.22407444
000040 56 68 69 36 3b 17 09 bf 27 e0 23 b7 ef 9a 8a bb
       3.4780437e-06 -0.5355107 -9.767747e-06 -0.0042298953
000050 c6 df 0a be 30 83 51 b4 d2 fa ce 37 c0 12 af ba
       -0.13561925 -1.9512368e-07 2.4673911e-05 -0.0013357028
000060 f4 0f 35 3f 5d e5 5f be ea 65 38 3f ae 86 4e 38
       0.7072747 -0.21864839 0.7203051 4.9239658e-05
000070 75 dc d8 36 7b d6 f8 38 72 dd 03 bf 49 c4 c6 3e
       6.462966e-06 0.000118655116 -0.51509774 0.3882163
000080 de e7 c9 3d 30 bf f7 be d2 5e 3c 38 00 ff 17 be
       0.09858678 -0.48388052 4.4911e-05 -0.14843369
000090 53 29 0a be d4 d3 bc 3a 50 bc 9c 38 5c 2d 2e 3a
       -0.13492326 0.0014406391 7.4737356e-05 0.00066443323
0000a0 dc b2 51 3f f5 40 b3 be d3 0d 52 3f 5a b3 fa 3a
       0.8191354 -0.35010496 0.82052344 0.0019126937
0000b0 5c a2 3e 3e ba 75 fa b8 dd 20 dd be 51 37 88 3e
       0.18616623 -0.00011942857 -0.43189135 0.26604703
0000c0 0e 89 0f ba 4e 47 2e 3f fe 24 2d b6 a3 28 43 3b
       -0.000547544 0.6807755 -2.5800541e-06 0.002977886
0000d0 d6 b9 fa 3d 44 d7 6f b6 82 2e 52 b8 86 8c 5e 3c
       0.12242477 -3.5739076e-06 -5.0111215e-05 0.013583308
0000e0 98 8f ec bd 79 11 dc bd 0d da 29 bf 5d 7b 83 b8
       -0.11550826 -0.1074552 -0.66348344 -6.269545e-05
0000f0 6a a6 ab 3a 35 a3 96 b7 1f b3 14 3f f1 02 73 be
       0.001309586 -1.7957393e-05 0.5808582 -0.23731591
000100 ac d5 37 3d 6a ac 49 be 2e c9 6f 35 d0 53 a2 ba
       0.044881508 -0.19694677 8.9327193e-07 -0.0012384597
000110 e5 46 0b 3d 76 f2 fe 36 8c 9b fe b6 ec 11 66 3a
       0.034003157 7.598016e-06 -7.587898e-06 0.0008776474
000120 ac 1c c0 bd f2 65 9a 3f 53 01 91 3f 4d c1 d9 38
       -0.09380469 1.2062361 1.1328529 0.000103833714
000130 02 e7 0a 39 b8 cb cc 35 c3 8e 87 3e 50 02 f3 3d
       0.00013246763 1.5258474e-06 0.26476106 0.118656754
000140 3d 5c 0f be ba 5c fe bc 4c 88 91 b7 dc 84 9b bb
       -0.1400003 -0.031050075 -1.7348815e-05 -0.0047460627
000150 17 a9 bf bb 69 f0 03 37 8c dc 55 b7 54 85 8e 3c
       -0.0058490145 7.864183e-06 -1.2747139e-05 0.01739756
000160 b2 14 78 3e 69 b4 42 3f 13 50 47 bd b7 ce fe b8
       0.24226645 0.76056534 -0.04866035 -0.000121501675
000170 a1 9e fc 37 a4 d4 48 b9 71 0f 05 3f e0 48 6a 3f
       3.0114608e-05 -0.00019152701 0.51976687 0.9151745
000180 eb 1b d4 b6 01 6c 52 3f d7 c0 77 37 f8 43 f4 3a
       -6.3213424e-06 0.8219605 1.4767246e-05 0.0018635979
000190 c4 59 9c 3f e0 2c 13 b7 bb eb 0a 36 04 c9 e8 39
       1.2214894 -8.772331e-06 2.0700816e-06 0.00044400257
0001a0 f6 c7 30 be c9 14 91 bd 97 85 61 3d 85 53 03 b8
       -0.17263779 -0.070840426 0.05505904 -3.1310617e-05
0001b0 30 05 00 37 4b 14 b1 b6 b9 ff 88 be 0f 23 38 bc
       7.630602e-06 -5.2773735e-06 -0.267576 -0.011238827
0001c0 1e 85 0f be cd bf 74 3e 4c f4 76 36 71 71 f0 3b
       -0.14015624 0.23901291 3.6799056e-06 0.007337742
0001d0 56 8b 19 3f 7c 6d aa b6 42 2a 7b b6 46 7f ad bd
       0.59978235 -5.0791405e-06 -3.7426512e-06 -0.08471541
0001e0 b2 9e e3 bd 2b 54 64 3d d1 f7 f4 bc e1 15 a5 b6
       -0.11114253 0.05574433 -0.029903324 -4.9199302e-06
0001f0 26 9f 0d 36 e0 b1 44 b4 52 62 23 be d1 9b c5 3e
       2.1103274e-06 -1.8318633e-07 -0.15955475 0.3859544
000200 d4 c9 09 be b8 56 ee bd 4e 6b 89 3c 31 0d 4b 3e
       -0.13455898 -0.11637634 0.0167748 0.19829251
000210 78 68 cf bb ed b6 34 b9 ee 0c 53 3b 3c 68 3f ba
       -0.0063295923 -0.00017234283 0.0032203752 -0.0007301604
000220 f6 2b 43 be e3 1f 98 3f a4 3b 83 3f aa b5 ce 3b
       -0.19059739 1.1884731 1.0252576 0.006308277
000230 49 78 10 be 6f 50 82 37 ee 1c b4 3e aa 95 31 be
       -0.14108385 1.5534662e-05 0.35178322 -0.17342249
000240 cd f4 4a 36 9f 3f 0d be 91 0a 6e 37 ee c7 a0 bb
       3.0242838e-06 -0.13793801 1.4188366e-05 -0.004906646
000250 96 51 c6 3d be 24 0f 34 ed 76 2f 38 ff 94 e5 3b
       0.0968353 1.333128e-07 4.183401e-05 0.007006287
000260 cb f5 ab be d8 ef 10 bf a5 d2 54 3f a8 8e a6 b6
       -0.33585963 -0.5661597 0.8313392 -4.963793e-06
000270 5a 10 78 35 27 f5 06 38 43 3d 66 bf a4 28 6c bf
       9.2410994e-07 3.2176406e-05 -0.8993723 -0.9224951
000280 08 6a 43 bd 53 ac 70 3f 5f 6a 8f b6 a2 17 d5 3a
       -0.04770854 0.94012946 -4.2741153e-06 0.0016257653
000290 13 f9 15 3e 8b b3 37 37 97 c4 db b7 68 2b 40 bb
       0.14645796 1.0949453e-05 -2.6198379e-05 -0.0029322747
0002a0 29 44 9d bd 38 80 1f be 8d 65 2f bf 2d f7 9b 38
       -0.07679016 -0.15576255 -0.6851433 7.437016e-05
0002b0 ba 3e 58 b7 36 da 2e 37 ec 17 cd 3e 9c 1c e3 bd
       -1.2889208e-05 1.0422014e-05 0.40057313 -0.11089441
0002c0 d3 4a f5 bd 20 58 cf ba 0e 66 01 38 0d 50 7b 3e
       -0.11977162 -0.001581911 3.0851043e-05 0.24542256
0002d0 b5 22 7f bd 93 e7 0f 3b 4b c1 3f 3b 62 b5 a1 3b
       -0.06228896 0.0021958097 0.0029259499 0.0049349526
0002e0 d7 06 92 3f e5 39 63 be 3c 82 2c bb a8 cb 04 3c
       1.1408337 -0.22190054 -0.0026322743 0.008105196
0002f0 8e 63 4c 3d 4c d0 ac b8 c8 20 9f 3e 2a 25 d8 3e
       0.04989963 -8.2403974e-05 0.31079698 0.42215854
000300 e4 b8 52 3e 36 60 0d bd 6c 2d 59 3c ed 31 32 be
       0.20578343 -0.034515582 0.013255458 -0.17401858
000310 bb 7c 80 bd 59 2b 93 37 3f 8e 98 37 05 52 d3 37
       -0.062737904 1.754395e-05 1.818605e-05 2.5191353e-05
000320 78 2b dd 36 ad 56 32 b7 e2 6c 54 b6 07 27 5f 3c
       6.5913737e-06 -1.0629808e-05 -3.165384e-06 0.013620145
000330 ea de 07 be 9c 61 8c b7 3b 2f 83 be dd 64 f4 bd
       -0.13268629 -1.6734753e-05 -0.2562197 -0.11933301
000340 43 b9 0c be 71 5c 2d 3f fc b7 cf b6 d6 1e 60 3b
       -0.13742547 0.6771918 -6.1904993e-06 0.0034198067
000350 67 05 20 3f ce 85 6a 36 36 c2 d2 b6 cb 57 86 bc
       0.62508243 3.4946602e-06 -6.281097e-06 -0.016399285
000360 51 5c 8b be 42 f7 03 3f 95 cd db bd 1c f7 9d 38
       -0.2721887 0.5154916 -0.10732571 7.532371e-05
000370 f2 e2 fc 3b ec 83 e3 37 10 1f c4 3e 40 9b 5c ba
       0.0077174837 2.712194e-05 0.3830495 -0.0008415468
000380 8f 25 d3 3c 2b 81 f0 bb 90 d0 25 b7 a8 da 02 bd
       0.025774745 -0.007339617 -9.883326e-06 -0.031946808
000390 21 c0 00 be 54 38 2f b7 1c ce 70 b8 64 72 8e ba
       -0.12573291 -1.0443928e-05 -5.7412413e-05 -0.0010867831
0003a0 95 85 fa 3e 8e 39 8f 3e ab 72 9f be e8 1d 2c b6
       0.4893004 0.27973598 -0.31142172 -2.5647405e-06
0003b0 82 24 6e 3a c5 17 0b b9 56 f2 4c 3f 95 50 9a 3e
       0.00090844196 -0.00013264928 0.80057275 0.30139604
0003c0 d3 49 9a ba b8 08 b1 be 76 14 1f b7 7a 0e 84 ba
       -0.0011771269 -0.34576964 -9.481902e-06 -0.0010075115
0003d0 03 4e fb 3e 7c e5 dc 36 2f ff a5 b8 8f c2 28 3b
       0.49082956 6.5832264e-06 -7.915345e-05 0.0025750732
0003e0 75 24 8f 3e 91 7f 7a be b5 40 1c be 0c 82 ec b8
       0.27957502 -0.24462725 -0.15259059 -0.0001127758
0003f0 fc 73 b0 36 10 39 2a b8 3a 8d 03 bf c1 5c 8b 3e
       5.258711e-06 -4.0584302e-05 -0.5138737 0.27219203

conv3.bias f4 [40]
000000 c3 61 3c bf 20 eb 5a bf ff 22 ab 3e b7 0b ac be
       -0.7358667 -0.8551502 0.33425137 -0.33602688
000010 bb 90 3f 3e d1 45 8e 3e 2a a8 d8 be 17 a1 f4 be
       0.18707554 0.2778764 -0.423158 -0.47779152
000020 5c 0e 6e 3e 44 25 04 bf ad 3c 45 3e 3d 07 32 bf
       0.23247665 -0.5161936 0.19261427 -0.69542295
000030 35 5b 19 bf 42 ba 8b bf 52 b7 1e bf 3c 30 1f bf
       -0.59904796 -1.0916216 -0.61998475 -0.62182975
000040 3f 7c 65 3f 29 13 3e bf d3 a4 03 bf 23 8d e0 bd
       0.8964271 -0.74247986 -0.51423377 -0.1096442
000050 74 fe 0e bf 38 c2 15 bf fc cf c1 be 07 98 e2 3d
       -0.55857015 -0.5849948 -0.37853992 0.11064153
000060 d2 b8 65 3f 55 47 86 bf d6 0e 3f be d9 a6 a1 bd
       0.8973514 -1.0490519 -0.18658003 -0.07893152
000070 14 22 26 3f 06 cd ea be a2 a0 95 3e 49 bd fc be
       0.6489575 -0.45859545 0.29224116 -0.49363163
000080 63 d4 08 bf b8 0d 24 bf 41 b3 5b 3e 30 f4 0a bf
       -0.53449076 -0.64083433 0.21455099 -0.5427885
000090 6e 11 ab be 11 f6 f6 be be f5 04 bf 9f 1d 07 bf
       -0.33411735 -0.4823461 -0.5193747 -0.52779573

conv3.lin.weight f4 [40, 16]
000000 e6 7f 97 be 16 ed b7 3d a5 3a 8e 3d 8f ef c6 be
       -0.29589766 0.089807674 0.06944779 -0.38854644
000010 fd 97 8a 3e 3b fb c0 3e 0c 45 55 3c 86 b3 2e 3d
       0.27069083 0.37691674 0.01301695 0.042651676
000020 9d 45 72 3e 64 60 a2 be ea 06 b6 be 1e b7 05 3e
       0.23659368 -0.31714165 -0.3555215 0.13058135
000030 c6 e8 d0 3c fa 70 a3 bc c4 c4 09 be 6a 21 d2 bd
       0.02550162 -0.019951332 -0.13453966 -0.102602795
000040 a7 6d c0 3d ca 6f 57 be 95 d6 9b bc 6d f3 3d 3e
       0.093959145 -0.21038738 -0.01902322 0.18549891
000050 44 55 2e be 40 22 94 3e 00 fd 5d 3e c9 8c 54 3d
       -0.17024714 0.2893238 0.21678543 0.051892076
000060 7a 6f 3c be 89 35 4e bf 00 47 d1 3e 2f 6a f1 3e
       -0.184019 -0.8055044 0.4087448 0.47151324
000070 a8 47 6b bb 59 d4 89 3e 57 10 67 3e ea 8d d7 be
       -0.0035900865 0.2691982 0.22564827 -0.4210046
000080 cb aa eb 3a f8 2a b7 3e e3 cc e3 3e c0 56 c2 bd
       0.0017979977 0.3577497 0.44492254 -0.094892025
000090 d2 41 92 3e 5d 26 8f bf cc 2f f5 3d 0c 2c b3 be
       0.28565842 -1.1183583 0.11972007 -0.34994543
0000a0 95 41 a0 3e c1 e5 07 3f 85 5e 3f be 17 f0 47 bf
       0.31300035 0.5308495 -0.186884 -0.78100723
0000b0 b0 17 8b 35 93 ff d4 be 20 2f 1f bf 72 36 d9 3d
       1.0363201e-06 -0.41601238 -0.6218128 0.10606088
0000c0 27 83 7b 3e 9b 45 36 3d 08 06 95 bc aa 26 8a 3e
       0.2456175 0.044499975 -0.018191352 0.26982623
0000d0 9d e5 1b bf 56 8f bd be 1e f7 38 3e 08 b4 5e bd
       -0.6089724 -0.3702342 0.18063018 -0.05437091
0000e0 5a 5b 06 bf 44 66 a4 3e 1d 29 9c 3e bc 41 1d 3e
       -0.5248314 0.32109272 0.30500117 0.15357107
0000f0 a0 23 95 b9 26 9a 85 3d 4e a1 00 3c f4 12 37 3e
       -0.00028446037 0.06523542 0.007850958 0.17878324
000100 60 cb 0c 3e eb 46 c0 3e fb b9 d8 3e 4a c5 9a 3e
       0.13749456 0.37554106 0.42329392 0.30228645
000110 be 3b f3 be e6 78 ba 39 8e 8f eb bd 9e 0a bb be
       -0.47506517 0.0003556676 -0.1150199 -0.36531538
000120 b8 70 e2 be 34 bc 96 3e 87 9d 9c 3e f8 61 fb 3e
       -0.44226623 0.29440463 0.30588934 0.49098182
000130 a5 f7 ae b7 f1 59 52 be 5b f6 a1 3e c2 b8 c0 3e
       -2.0857735e-05 -0.20542122 0.31633267 0.3764096
000140 f0 a8 6b 3d d3 cd 9f 3e 42 22 bc 3e 98 6b 37 3e
       0.05753416 0.3121172 0.36744887 0.17912138
000150 6c a8 09 3b 64 d3 59 3c b8 2b ba be fc 91 75 be
       0.0021004928 0.013295028 -0.3636148 -0.2398147
000160 7b b9 8a 3b 2d c0 96 3e 16 29 ac 3c af 11 b2 3e
       0.004233537 0.29443493 0.021015685 0.34779117
000170 62 19 a3 38 e1 ca d7 be 0d 16 a4 3d 2b 3e ae 3e
       7.7771736e-05 -0.42146972 0.08012018 0.34031805
000180 45 35 8d 3e 2a e7 c1 be 42 a8 d1 be 16 e8 93 3e
       0.27579704 -0.37871677 -0.40948683 0.28888005
000190 76 91 43 be ab e1 6f bc b1 e8 10 3e 91 9d 76 bd
       -0.19098458 -0.014641206 0.14151265 -0.06020886
0001a0 ca b6 ac bd 14 0e 99 3d d6 7c bc 3e 6b a4 1d be
       -0.08433302 0.07473388 0.36813992 -0.15394752
0001b0 41 2d 0a bb 00 1d 2a 3e 66 75 6a 3e 61 00 4b be
       -0.0021084102 0.16612625 0.22896346 -0.19824363
0001c0 aa 5b 4e be 41 5a 01 be d8 c4 ca bd 3d 46 15 be
       -0.20152155 -0.12632085 -0.09900826 -0.14577575
0001d0 32 29 8f 3d 80 22 11 3e b3 2b e7 3c dc 0c 95 be
       0.06990279 0.14173317 0.02821908 -0.29111373
0001e0 14 81 86 3d 75 ce 2f be 4c 5d fc bd b7 d0 a1 bd
       0.065675884 -0.17168601 -0.123224825 -0.07901137
0001f0 ce 85 a7 3c cc 43 18 bc 74 92 b2 bc f6 57 36 be
       0.020449545 -0.009293508 -0.02179835 -0.17806992
000200 2b c2 01 be f8 ad d8 3e 2e aa f5 3e 54 3d 02 3e
       -0.12671725 0.42320228 0.479814 0.12718707
000210 94 8a 0e bf d3 e8 b0 3e 11 20 24 bf bf e5 96 bd
       -0.55680203 0.3455263 -0.6411143 -0.07368039
000220 31 ca 33 bf 69 bb 98 bc d0 92 a7 bd 74 ff 04 3f
       -0.70230395 -0.018644052 -0.08182299 0.5195229
000230 8a 15 93 b8 b9 2f 21 bf e5 5c e0 3e 0d c2 fd 3e
       -7.013518e-05 -0.62963444 0.43820873 0.49562111
000240 6b 41 96 be df d0 ce 3e ec f9 e8 3e 8c cc 9c be
       -0.29346785 0.4039373 0.45503175 -0.30624807
000250 51 39 b7 3e fb b8 fa 3d 2e 71 b0 be a6 cb 28 be
       0.35785916 0.122423135 -0.3446135 -0.16483936
000260 ff 9a c5 3e 27 8c d0 3e 74 91 bd be 87 98 eb 3d
       0.38594815 0.40731928 -0.37025034 0.11503702
000270 4c fd b8 36 82 a6 c7 be eb 1d 5d be f0 d4 c8 bc
       5.513115e-06 -0.38994223 -0.21593444 -0.024515599
000280 13 56 6c 3e 93 dd 0d 3e 0c 03 00 3e 21 51 33 3e
       0.2307971 0.13854055 0.12501162 0.17511417
000290 85 79 30 3e 06 8c fb bd d4 2d a2 3e 4c 18 92 3e
       0.17233856 -0.12282567 0.3167559 0.28534162
0002a0 3a 28 4f 3e 2c 3a e3 3e 55 65 53 3e 5c 0d 36 bf
       0.20230189 0.4438032 0.20644124 -0.71114135
0002b0 3a 44 57 3c 52 ac 58 3e d4 29 ef bd d5 58 c6 3e
       0.013138825 0.21159485 -0.116779 0.38739648
0002c0 47 5e 9a bd 2d 3f 8d 3c d1 30 a0 bc 1d 22 22 bd
       -0.07537513 0.017242039 -0.019554527 -0.039583314
0002d0 1c b8 8f 3b f3 72 e8 3d d3 d3 0d 3e 9b b5 58 3c
       0.004385961 0.1135005 0.13850336 0.013226892
0002e0 f4 4f fc 3b 94 3c 6a bc 16 79 b0 bd 8e e4 ea 3d
       0.007699961 -0.0142966695 -0.08616845 0.114693746
0002f0 4d bc 0a 3b 0c 62 74 3c 54 a0 41 bd df c5 12 3e
       0.0021169365 0.014915954 -0.04727204 0.14333294
000300 44 fa 1b bf 37 17 10 bf a3 c2 c6 be a6 e9 19 bf
       -0.6092875 -0.56285423 -0.3882037 -0.60122144
000310 12 61 a4 be 14 77 8a be d4 29 4c be fd 74 0e bf
       -0.3210531 -0.27043974 -0.19937831 -0.5564726
000320 de 81 81 be 02 d1 06 bf 4b c4 c5 be cf 48 78 be
       -0.25294393 -0.5266267 -0.38626322 -0.24246524
000330 2b ac 48 3c 93 72 51 be 5a 3e c1 be 11 34 c5 be
       0.012248079 -0.20453863 -0.37742883 -0.38516286
000340 0f 72 68 3e 3c 48 72 3d 1c 39 4f be 7a 8e 47 3e
       0.2269976 0.05915092 -0.20236629 0.19487944
000350 91 e0 09 3e 7c af a2 3e 9a 5d a0 3e 81 14 e5 3e
       0.13464572 0.3177451 0.31321412 0.44742206
000360 05 2f 0d 3e 3a 24 1c bc e1 c3 7c 3e fd 53 4d be
       0.13787468 -0.009530121 0.24684097 -0.2005157
000370 16 4a ec b7 a0 e8 8c 3e 04 bb 34 3e 99 7a cc 3e
       -2.8167891e-05 0.2752123 0.17649466 0.39937285
000380 99 d3 9e be a9 d9 4f 3e 7d db 88 3e 44 88 2f bf
       -0.3102081 0.20297875 0.26729956 -0.685673
000390 9d c7 ac 3e 79 86 2e 3d 7a 24 fd be c5 96 c5 bd
       0.33746043 0.042608712 -0.49441892 -0.09647898
0003a0 38 08 b7 3e 3e f6 c0 3d 88 8e 18 bf a0 d5 b1 bd
       0.35748458 0.09421967 -0.59592485 -0.08683324
0003b0 fa 0d d6 bb 02 62 92 be 5d c1 fa be be 4b bf be
       -0.006532428 -0.285904 -0.4897565 -0.37362474
0003c0 9f 16 bd be d5 b3 11 3e 19 d0 76 3e 3d d1 78 be
       -0.3693132 0.14228757 0.2410282 -0.24298568
0003d0 19 c7 29 be dc 67 00 3e 32 9d 7a be 22 65 a8 be
       -0.16579856 0.12539619 -0.24474028 -0.32889658
0003e0 a9 68 83 be 1e ea 26 be 01 a3 67 be 2a 4c ad 3e
       -0.25665787 -0.16300246 -0.22620775 0.3384717
0003f0 5c 3b 09 bb 57 1e ed bd 85 10 13 be 8f 93 1e bd
       -0.0020939922 -0.115780525 -0.1436177 -0.03871494
