models/CiteSeer_gcn_model.pth (torch, 241462 bytes, 6 tensors)

conv1.bias f4 [16]
0	0x3e694431	0.22779919
1	0x3cbd3c0c	0.023099922
2	0x3e92cc2f	0.28671405
3	0x3e5c3a87	0.21506701
4	0x3e6c8640	0.23098087
5	0x3db4e15c	0.088320464
6	0x3df386b2	0.118909255
7	0x3e407bc4	0.18797213
8	0x3e5c9172	0.21539858
9	0x3e414fcf	0.18878101
10	0x3e7b96b3	0.24569206
11	0x3e6721ed	0.22571535
12	0x3e0bcb8b	0.13651864
13	0x3e584813	0.21121244
14	0x3dd59130	0.10428083
15	0x3e8c285f	0.2737455

conv1.lin.weight f4 [16, 3703]
0	0xbd2cd4b7	-0.04219505
1	0xbd321b78	-0.043483227
2	0x3d040d4a	0.032239236
3	0x3c38db08	0.01128269
4	0x3b3c16d4	0.002870013
5	0xbbe443b4	-0.0069660787
6	0xbd049c52	-0.03237564
7	0x3cc5141f	0.024057446
8	0xbb0e4fe9	-0.002171511
9	0xbccb6f4e	-0.024833348
10	0x3c1624b1	0.009164021
11	0xbd1f319c	-0.03886567
12	0x3dbac920	0.09120393
13	0x3cc4d73f	0.024028419
14	0xbdab4adc	-0.08363888
15	0xbc75e80c	-0.015008938
16	0xbdf4b22d	-0.11948047
17	0x3a8ce771	0.0010750127
18	0x3cb5dddf	0.022200523
19	0x3e06f158	0.13178003
20	0x3cc97b95	0.024595061
21	0xbddf3b4a	-0.1089998
22	0x3e2d00c0	0.16894817
23	0xbb29c1e1	-0.0025902914
24	0xbc50dd37	-0.012748054
25	0xbda98ad8	-0.082784355
26	0x3d01f85c	0.031730995
27	0xbd0e0861	-0.03467596
28	0xbd4fccb3	-0.050732326
29	0x3da19dbc	0.078914136
30	0x3cc06923	0.023487633
31	0x3cd6a579	0.02620195
32	0x3b0f997a	0.0021911548
33	0x3d6910a3	0.05690063
34	0x3db66d55	0.08907572
35	0x3db9ba3d	0.09068725
36	0xbe03165f	-0.12801503
37	0x3d868e24	0.0657008
38	0x3bc734b3	0.0060792803
39	0xbc0e8979	-0.008699768
40	0x3d5f4a98	0.054514498
41	0x3c979a64	0.018506236
42	0x3cd4e965	0.025990197
43	0x3c486dfd	0.0122332545
44	0xbdc0e35b	-0.094183646
45	0x3da532f1	0.08066357
46	0xbd3317fc	-0.043724045
47	0x3d6261db	0.055269103
48	0x3c687700	0.014188528
49	0x3deef324	0.11667469
50	0x3d001acc	0.031275555
51	0x3d6a3a49	0.05718449
52	0xbcfae634	-0.030627348
53	0xbb3e1d5a	-0.0029009194
54	0x3dfa832b	0.122320496
55	0x3ccb80c2	0.02484167
56	0x3d1fab0d	0.038981486
57	0x3dcf7c72	0.10131158
58	0x3cc4aa5d	0.024007017
59	0x3d02fb34	0.031977847
60	0xb9e4a05e	-0.00043607032
61	0xbd296520	-0.041356206
62	0x34c8d000	3.7404243e-07
63	0x3c9e2a39	0.019307243
64	0x387c17a3	6.0103495e-05
65	0xbedae1b1	-0.42750314
66	0x3c41c0c4	0.011825744
67	0x3d417b0b	0.047236484
68	0x3c5ec665	0.013597106
69	0xbdbd3443	-0.09238484
70	0x3d826549	0.06366975
71	0xbc2f6da0	-0.010707289
72	0x3c8f74c0	0.017511725
73	0x3db26de1	0.08712364
74	0xbdf7b112	-0.1209432
75	0xbcdcbf43	-0.02694667
76	0x3d0a9305	0.033831615
77	0xbe1c14a4	-0.15242249
78	0xbd49e832	-0.049293704
79	0x3c80a87a	0.015705336
80	0xbd0a9913	-0.03383739
81	0x3d09b4f7	0.033619847
82	0xbe286445	-0.164445
83	0x3d3d7fec	0.046264574
84	0xbb7fdf9b	-0.0039043191
85	0xbc9906af	-0.018679945
86	0x3d234446	0.039860032
87	0xbdb8917b	-0.09012123
88	0xbcd4bf2b	-0.025970062
89	0xbb77d002	-0.0037813191
90	0x3e42f600	0.19039154
91	0x3d012636	0.03153058
92	0xbc909a1c	-0.01765161
93	0xbd0d5d31	-0.034512702
94	0x3d0789fd	0.03309058
95	0xbd52f17d	-0.051499832
96	0x3d633119	0.055466745
97	0x3d472f3b	0.048629027
98	0x3d566d09	0.052350078
99	0xbca3c8b0	-0.019993156
100	0xba8fd944	-0.0010974784
101	0x3c5aa7ce	0.013345672
102	0x3e26db5a	0.16294613
103	0xbce5567b	-0.027995339
104	0xbcbc103b	-0.022956958
105	0x3d5e52f9	0.054278348
106	0x3cc48475	0.023988942
107	0x3c20dba9	0.009817996
108	0x3cebabbe	0.028768416
109	0xbcd35848	-0.025798932
110	0x3d8629ca	0.065509394
111	0x3d8f14b1	0.069863684
112	0xbc5cc373	-0.013474333
113	0xbdb7bc2e	-0.08971439
114	0xbde0f9a0	-0.10985112
115	0xbcd64dc7	-0.026160134
116	0xbcb13ef8	-0.021636471
117	0x3d3027ab	0.04300658
118	0xbd289a35	-0.04116269
119	0x3ccb938b	0.024850627
120	0x3d55ae24	0.052168027
121	0xbd57a0c7	-0.052643564
122	0x3c51776a	0.012784818
123	0xbdc32271	-0.095280536
124	0x3cde91fd	0.027169222
125	0x3d8bbeba	0.068234876
126	0x3c4d425a	0.0125280265
127	0xbc860632	-0.016360376
128	0x3cd9ad41	0.026571872
129	0x3d57569c	0.05257283
130	0x3d20bda7	0.039243367
131	0xbc891cbf	-0.01673734
132	0xbe101990	-0.14072251
133	0xbbf5e764	-0.0075043906
134	0xbc47068f	-0.01214756
135	0x3d11d3a6	0.035602234
136	0xbd04229a	-0.03225956
137	0x3bd14ab7	0.0063870805
138	0xbde9baad	-0.11412559
139	0xbcbbed22	-0.022940222
140	0x3dbcd351	0.09219993
141	0x3c43d2e5	0.011952137
142	0xbdc79b89	-0.09746463
143	0x3be92b27	0.00711574
144	0xbd051273	-0.032488298
145	0xbc36d712	-0.011159675
146	0x3dba2e4c	0.09090862
147	0xbdee1f56	-0.116270706
148	0xbd1bf301	-0.038073543
149	0xbdbbfb92	-0.091788426
150	0xbd67507e	-0.056473248
151	0xbd08686a	-0.033302702
152	0x3c418ec6	0.011813825
153	0xbcf672bc	-0.030084006
154	0x3ce53a0c	0.02798178
155	0x3c054cca	0.008135984
156	0x3d96466c	0.07337651
157	0xbb5761e8	-0.0032864753
158	0xb996597f	-0.0002867691
159	0x3c9763a7	0.018480135
160	0x35e82850	1.729708e-06
161	0xbcda93ea	-0.026681859
162	0x3cd9ec50	0.02660194
163	0xbb8444fb	-0.0040365434
164	0xbd3bc886	-0.04584553
165	0xbdc01662	-0.09379269
166	0x3d99f910	0.07518208
167	0xbcedc015	-0.029022256
168	0xbdf6bfdf	-0.12048315
169	0x3cb00455	0.02148644
170	0xbb755560	-0.003743492
171	0x3dadb6b5	0.08482114
172	0xbdb43100	-0.087984085
173	0x3daee520	0.08539796
174	0xbdec88f7	-0.115495615
175	0x3d86f037	0.06588786
176	0xbd405fb3	-0.046966266
177	0xbe009fe9	-0.12561001
178	0xbe2092cd	-0.15681
179	0xbde5af78	-0.11215109
180	0x3c3e99e9	0.011633375
181	0x3958b6ac	0.00020667416
182	0x3d2078f0	0.039177835
183	0x3d9c6665	0.07636718
184	0xbc2f40c6	-0.010696596
185	0x3da4d920	0.08049226
186	0x3c108e29	0.008822956
187	0x3d8eea09	0.069782324
188	0x3db0ca81	0.086323746
189	0x3b0e58fc	0.002172052
190	0x3da09eab	0.078427635
191	0xbd02d10b	-0.03193764
192	0xbd77040f	-0.060306605
193	0x3d8a9c60	0.067681074
194	0x3c195e6c	0.009360891
195	0x3c9d7f8c	0.019225858
196	0x3d38873a	0.045050837
197	0x3e3a1559	0.18172206
198	0xbc3d10dc	-0.011539664
199	0x3d057526	0.032582425
200	0x3d11c099	0.035584066
201	0x3cdd1cb4	0.026991226
202	0xbd5f866a	-0.054571547
203	0xbc9c3ddb	-0.019072464
204	0xbdf41878	-0.119187295
205	0xbd96c8a1	-0.07362486
206	0xbd95f4b7	-0.07322066
207	0x3ca4e6c7	0.020129574
208	0x3da9eed7	0.08297508
209	0x3debc907	0.11512952
210	0xbdbd0083	-0.09228613
211	0x3d9e1252	0.07718338
212	0x3c7165a8	0.014733709
213	0x3c4bef17	0.01244714
214	0xbdb8d4cc	-0.09024963
215	0xbcc457e3	-0.023967689
216	0x3d605a96	0.05477389
217	0x3c845085	0.016151676
218	0xbc483cec	-0.012221556
219	0xb37826bd	-5.7777232e-08
220	0x3cb6ed8f	0.022330074
221	0x3cc4befd	0.024016852
222	0x3dadae81	0.084805496
223	0xbcd2219c	-0.025650792
224	0x3d917546	0.07102446
225	0x3d86b67d	0.065777756
226	0x3d22805b	0.03967319
227	0xbcbee218	-0.02330117
228	0xbdb431c9	-0.08798558
229	0x3c6f6d27	0.014613426
230	0xbd3e1103	-0.046402942
231	0xbda39089	-0.07986552
232	0xbd65a46d	-0.05606501
233	0xbccf8549	-0.02533211
234	0xbd115771	-0.03548378
235	0xbd0851eb	-0.033281248
236	0x3d20d832	0.03926868
237	0xbc01b2bf	-0.007916152
238	0xbda8b8e5	-0.08238391
239	0x3c6d406a	0.01448069
240	0xbd1322a7	-0.03592172
241	0xbc71ff4a	-0.014770338
242	0xbdadd921	-0.0848868
243	0x3c96a23e	0.01838791
244	0xbdf0a8be	-0.11750935
245	0x3e11cb21	0.14237644
246	0x3d53ed77	0.051740136
247	0x3d663075	0.056198556
248	0xbd01a725	-0.031653542
249	0xbd87c153	-0.066286705
250	0xb7221133	-9.659957e-06
251	0xbcde350b	-0.027124902
252	0x3ca1ac8f	0.019735603
253	0x3b9e975a	0.00483982
254	0xbe291e66	-0.16515502
255	0x3cd15c06	0.025556576

conv2.bias f4 [16]
0	0x3dd3a175	0.1033353
1	0x3c50d768	0.012746669
2	0x3dd09858	0.10185307
3	0x3dffee55	0.1249663
4	0x3c0c162b	0.008550207
5	0xbc499914	-0.012304563
6	0x3e6c1d49	0.23058046
7	0x3db52d07	0.08846479
8	0x3d6d8419	0.057987306
9	0xbb5dca4c	-0.0033842502
10	0x3dd40750	0.10352957
11	0x3e05bad1	0.13059546
12	0x3e5c35b9	0.21504869
13	0x3e285073	0.16436939
14	0x3dad10b9	0.08450455
15	0x3e2e1de7	0.17003594

conv2.lin.weight f4 [16, 16]
0	0xbdbd9123	-0.09256198
1	0x3f3c4bfd	0.7355345
2	0xbebc88a9	-0.36823013
3	0x3f10babd	0.5653494
4	0x3f9af6c9	1.2106563
5	0xbdbf05df	-0.09327292
6	0xbe6b5f24	-0.22985512
7	0x3f13114d	0.57448274
8	0x3f8527a1	1.0402719
9	0xbd8b1386	-0.06790833
10	0xbdfab685	-0.12241844
11	0x3f9a8cdd	1.2074238
12	0xbf2c6c2d	-0.67352563
13	0x3f5e8cf7	0.86933845
14	0xbf20b443	-0.6277506
15	0xbddd0309	-0.107915945
16	0x3da2695a	0.079302505
17	0xbe97b75a	-0.29632074
18	0x3e3a13cf	0.18171619
19	0xbe5d8be7	-0.216354
20	0x3ee88fed	0.45422307
21	0x3debe7e5	0.1151884
22	0x3fa3a692	1.2785208
23	0x3f3d91fb	0.74050874
24	0x3f76cb5b	0.96404046
25	0x3d484518	0.048894018
26	0x3f8fc7bc	1.1232829
27	0xbf10a2bb	-0.56498307
28	0x3d013640	0.031545877
29	0x3d52604e	0.051361375
30	0xbe94430b	-0.289574
31	0xbeafe100	-0.3435135
32	0xbcbc0b0b	-0.022954484
33	0x3f1c2afd	0.61003095
34	0x3d4614ce	0.048359685
35	0xbe69653b	-0.22792523
36	0xbeb31fdf	-0.34985253
37	0x3f87e297	1.0616025
38	0x3da763ee	0.08173357
39	0xbeed497d	-0.4634513
40	0xbeb03f4b	-0.3442329
41	0x3f153d82	0.5829698
42	0xbdc39d27	-0.09551459
43	0x3eaff914	0.3436972
44	0x3f938232	1.1524107
45	0xbf2984fd	-0.6621855
46	0x3eaeb327	0.34121057
47	0x3e4ccd7e	0.20000264
48	0xbcd4579b	-0.02592068
49	0x3f1bf09f	0.60914034
50	0xbf5f8820	-0.87317085
51	0x3eec4dc9	0.46153095
52	0x3f0890ab	0.53345746
53	0x3e24f0be	0.16107461
54	0x3eabf087	0.33581945
55	0xbf2d6477	-0.6773142
56	0x3e252ff2	0.16131571
57	0x3f02fcab	0.5116679
58	0xbf1ef177	-0.62087196
59	0x3fc556a8	1.541707
60	0xbf18067d	-0.593849
61	0xbf587905	-0.8455966
62	0xbeca28ab	-0.39484152
63	0xbd9afee2	-0.07568146
64	0x3dd16066	0.10223465
65	0xbea739b2	-0.32661206
66	0x3db6b7ab	0.08921751
67	0xbe9be367	-0.30446932
68	0x3f1bd4b3	0.6087143
69	0x3ea33726	0.31878012
70	0x3fd833ce	1.689081
71	0xbe8f7355	-0.2801768
72	0x3ee599bf	0.4484386
73	0x3e6ebcb8	0.23314178
74	0x3e07ab88	0.13249028
75	0xbf03f7e3	-0.5155012
76	0x3e047c5e	0.12938067
77	0xbee48834	-0.44635165
78	0xbe127bb4	-0.14305001
79	0xbf0a8842	-0.5411416
80	0x3db05d73	0.08611574
81	0xbeb4d6f1	-0.35320237
82	0xbcc102bc	-0.023560874
83	0x3e9e5bcf	0.3092942
84	0xbe4b0c8c	-0.19829005
85	0x3dc0e29d	0.09418223
86	0x3e9e495e	0.3091535
87	0xbf1228a8	-0.57093287
88	0xbed0737a	-0.40713102
89	0x3fa35260	1.2759514
90	0xb8d46f60	-0.00010129693
91	0xbd8dc289	-0.0692187
92	0x3fa0ecb0	1.2572231
93	0xbf342a68	-0.70377207
94	0x3e971630	0.29509115
95	0x3f3f2744	0.7466929
96	0xbf037df5	-0.5136407
97	0xbd7d270d	-0.06180482
98	0xbd06ee24	-0.032941952
99	0xbed44415	-0.41458192
100	0x3f70a2dd	0.9399851
101	0xbf1d38f3	-0.6141502
102	0xbe367d50	-0.1782124
103	0x3f0e106d	0.55493814
104	0x3f70307e	0.93823993
105	0xbf30d378	-0.69072676
106	0xbe28db8a	-0.16489998
107	0xbed2c146	-0.4116308
108	0x3e0a6784	0.1351605
109	0x3f00ac28	0.5026269
110	0x3f82aacf	1.0208377
111	0x3d30f543	0.04320265
112	0xbdd93f25	-0.10607747
113	0xbe6cc0ca	-0.23120418
114	0xbebdbecf	-0.37059638
115	0x3ede5029	0.43420532
116	0x3ce80ef2	0.028327439
117	0xbf146e8f	-0.579812
118	0xbe969cbc	-0.29416454
119	0xbea76431	-0.32693627
120	0xbe733b65	-0.23753126
121	0x3e5cb677	0.2155398
122	0xbef6b3da	-0.4818409
123	0x3e1738e5	0.14767797
124	0x3eecc103	0.46241006
125	0xbebf10e3	-0.3731757
126	0x3f0f23f2	0.55914223
127	0x3f900022	1.125004
128	0x3fc98f97	1.5746945
129	0xbe8f3028	-0.27966428
130	0x3f667ae1	0.9003125
131	0x3f3ae59b	0.730066
132	0xbe29e543	-0.16591363
133	0xbe0136fd	-0.12618633
134	0xbe2c7755	-0.16842397
135	0x3ec327f7	0.38116428
136	0xbda4fce2	-0.08056046
137	0x3f59e38b	0.8511283
138	0x3f4a3af0	0.7899618
139	0xbdc87dc4	-0.09789613
140	0x3de42116	0.11139123
141	0x3e6f9ec9	0.23400415
142	0xbeacff52	-0.33788544
143	0x3ec61f79	0.38695887
144	0x3fb1bbaa	1.3885396
145	0xbe9be2de	-0.30446523
146	0x3dde1ece	0.10845719
147	0x3f5106a7	0.81650776
148	0xbd72194f	-0.059106167
149	0x3d05e29c	0.032686815
150	0xbdbfb7f0	-0.09361255
151	0x3ee1ebbf	0.44125172
152	0x3ccd74ac	0.025080048
153	0x3f56a8e5	0.8385146
154	0x3f59e55b	0.85115594
155	0xbc83a107	-0.016067995
156	0xbe40587f	-0.18783759
157	0x3eb862fd	0.36013022
158	0xbeab39c8	-0.3344252
159	0xbdbc8194	-0.092044026
160	0xbe0bf428	-0.13667357
161	0x3f3fce7a	0.74924433
162	0xbe1c8fe6	-0.15289268
163	0xbf0038da	-0.5008675
164	0x3e9526b7	0.291311
165	0x3f99a2a2	1.2002757
166	0x3f91beb0	1.1386318
167	0xbf063ebe	-0.52439487
168	0x3b1cfd74	0.002395478
169	0x3e0f3a99	0.13987197
170	0xbc78c7e0	-0.015184373
171	0x3d8bf000	0.06832886
172	0x3eddfe38	0.43358016
173	0xbf2cfb2c	-0.6757076
174	0xbd61f50b	-0.05516533
175	0xbf248286	-0.6426166
176	0xbc33c25f	-0.010971635
177	0xbe699ef4	-0.22814542
178	0x3fbe6248	1.4873743
179	0xbea3f2dc	-0.32021224
180	0xbe7fd1ee	-0.24982426
181	0x3da654d5	0.08121649
182	0xbde9db71	-0.11418808
183	0x3f001552	0.5003253
184	0xbdec4177	-0.11535924
185	0xbdca04a6	-0.09864168
186	0x3f687c06	0.90814245
187	0xbeecbd8e	-0.4623837
188	0x3f306531	0.68904406
189	0x3e8a37cd	0.26995698
190	0x3eca2edc	0.39488876
191	0xbdc02297	-0.093815975
192	0xbf1e874f	-0.61925215
193	0x3f83d6b7	1.0299901
194	0x3d2353da	0.03987489
195	0xbf11f2aa	-0.570109
196	0xbecf90b1	-0.40540078
197	0x3f0a218a	0.53957427
198	0xbf06bc1a	-0.5263077
199	0xbea154e4	-0.3151008
200	0xbedce2ab	-0.43141684
201	0xbf1380d1	-0.57618433
202	0xbedec65f	-0.4351072
203	0x3e591566	0.21199569
204	0x3eebcd1e	0.4605493
205	0x3da323d5	0.07965819
206	0x3f2c8bb4	0.6740067
207	0xbc2576e5	-0.010099147
208	0xbd0b5c9b	-0.034023862
209	0x3f35941d	0.7092913
210	0x3f1dd34b	0.6165053
211	0xbea10f43	-0.31456956
212	0xbeb5d4c0	-0.35513878
213	0x3f91e26a	1.1397221
214	0xbe6ce4d3	-0.23134165
215	0x3efcd089	0.4937785
216	0xbe1cf6a9	-0.15328468
217	0xbe529bf2	-0.20567301
218	0x3f61588c	0.88025737
219	0xbcb02d7e	-0.021506067
220	0xbd8469b0	-0.06465471
221	0x3f430fdd	0.7619608
222	0xbe0e359e	-0.13887641
223	0xbe69c186	-0.2282773
224	0x3db52ea3	0.08846786
225	0x3f374cfb	0.7160184
226	0xbf192272	-0.59818184
227	0x3f1013f2	0.56280434
228	0xbd624984	-0.05524589
229	0x3ece808a	0.40332443
230	0xbebc0dad	-0.36729184
231	0xbe5f309c	-0.21795887
232	0xbea39722	-0.31951243
233	0x3ee7cc34	0.45272982
234	0xbebbf4ab	-0.36710104
235	0x3fab6242	1.3389361
236	0xbece7739	-0.40325335
237	0x3e234aff	0.15946577
238	0xbe92f4d9	-0.2870243
239	0x3c96f2ea	0.018426377
240	0xbe3b22ec	-0.1827504
241	0xbeacf642	-0.3378163
242	0xbd5bc734	-0.05365677
243	0x3ec0f910	0.3769002
244	0x3f5ee712	0.87071335
245	0xbf4d6816	-0.8023695
246	0xbe11e173	-0.14246158
247	0x3ef2bbcc	0.47408903
248	0x3f55035d	0.83208257
249	0xbea33476	-0.31875962
250	0xbdd3716e	-0.10324369
251	0xbdc4c7b2	-0.09608401
252	0x3d5f9fa2	0.054595597
253	0x3e04e854	0.12979251
254	0x3f8b237f	1.0870208
255	0x3fb17e9a	1.3866761

conv3.bias f4 [6]
0	0x3c38834a	0.0112617705
1	0xbf5feb6d	-0.87468606
2	0xbca933fa	-0.020654667
3	0x3e5fee97	0.21868359
4	0x3ebd406d	0.36963215
5	0x3e0e3b8b	0.13889901

conv3.lin.weight f4 [6, 16]
0	0x3f19ac46	0.60028493
1	0x3f1bd21f	0.60867494
2	0xbfbf144a	-1.4928067
3	0xbfa95ccf	-1.3231448
4	0xbe015de6	-0.12633476
5	0xbf983712	-1.1891806
6	0x3f21232a	0.6294428
7	0xbf41d436	-0.75714433
8	0x3efb64ed	0.49100438
9	0x3f3ec631	0.74521166
10	0xbf9b5f98	-1.2138548
11	0x3f1c0bc4	0.6095545
12	0xbf082665	-0.53183585
13	0x3f24d2f3	0.6438438
14	0xbf0d6ed5	-0.5524724
15	0x3ec8438e	0.3911404
16	0xbfa9f312	-1.3277304
17	0x3f1e3fcc	0.61816096
18	0x3f2ec6eb	0.68272275
19	0xbec87c92	-0.3915754
20	0x3f456d39	0.77119786
21	0x3f2469c5	0.6422389
22	0xbfc0a84e	-1.5051363
23	0xbf13e78e	-0.577752
24	0x3efffd74	0.49998057
25	0x3f45215b	0.7700402
26	0x3f24bbaf	0.6434888
27	0x3f1ac95a	0.6046349
28	0xbe8ceb41	-0.27523234
29	0x3f17255c	0.5904138
30	0xbd245048	-0.040115625
31	0xbffc0e51	-1.9691869
32	0x3ecd4d4f	0.40098044
33	0xbf9aae80	-1.2084503
34	0x3e2aecb5	0.16691859
35	0x3f208cb5	0.627147
36	0xbf8f8fc7	-1.1215752
37	0x3f2ebd9c	0.6825807
38	0xbf7c4364	-0.9854033
39	0x3f665e42	0.89987576
40	0x3ee6f010	0.45105028
41	0x3f3e6dbb	0.74386185
42	0xbf98e31b	-1.1944307
43	0xbf9ed2e1	-1.2408105
44	0xbf54f186	-0.83181036
45	0xbfa65d26	-1.2997177
46	0x3f65c755	0.8975728
47	0x3ee2fb4c	0.4433235
48	0xbfb9278a	-1.4465191
49	0xbf84c61c	-1.0372958
50	0x3f3b50ed	0.7317036
51	0xbfcbb71b	-1.5915254
52	0xbf82b954	-1.0212808
53	0x3f2cd15c	0.6750696
54	0x3f10e220	0.5659504
55	0x3f7a54cb	0.97785634
56	0x3c9d8803	0.019229895
57	0xbf367c8b	-0.7128379
58	0xbe97e3ad	-0.2966589
59	0x3f0e5c74	0.5560982
60	0x3f76b4ff	0.9636993
61	0xbe319dda	-0.17345372
62	0xbf58c1f2	-0.8467094
63	0x3f24ef75	0.6442788
64	0x3f28b525	0.65901405
65	0x3f269d66	0.6508392
66	0xbf3cd325	-0.7375968
67	0x3ed103fa	0.40823346
68	0x3f39961a	0.7249466
69	0xbf11ed19	-0.5700241
70	0x3f30db85	0.6908496
71	0xbf211bf1	-0.6293326
72	0xbf9d00e9	-1.2265903
73	0xbf7b340a	-0.9812628
74	0x3f25303b	0.6452672
75	0xbf4ca09e	-0.7993258
76	0xbf3424e5	-0.70368797
77	0xbf82dc11	-1.0223409
78	0xbf223450	-0.6336107
79	0x3f0b78b3	0.5448105
80	0x3f1d1109	0.6135412
81	0xbf5776c8	-0.8416562
82	0x3f30aff7	0.690185
83	0x3f303b96	0.6884092
84	0xbf152ca6	-0.58271253
85	0xbf8a8f68	-1.0825014
86	0xbece94a1	-0.4034777
87	0xbf29903b	-0.66235703
88	0xbf8cee72	-1.1010268
89	0xbf6f740f	-0.93536466
90	0x3f318c62	0.6935483
91	0xbf493f3c	-0.78612113
92	0x3f88205e	1.0634878
93	0x3f31e943	0.69496554
94	0x3f77c49b	0.9678437
95	0xbf5ed7dd	-0.8704813
