models/Cora_gcn1_model.pth (torch, 41806 bytes, 2 tensors)

conv1.bias f4 [7]
-0.4063059 -0.2665588 0.44166905 0.73328304 -0.007716983 -0.28020224 -0.4280365
00000000: 5407 d0be 657a 88be 7222 e23e 70b8 3b3f
00000010: bfde fcbb ab76 8fbe 9a27 dbbe

conv1.lin.weight f4 [7, 1433]
-0.22379398 -0.41627008 -0.021842275 0.24543147 -0.4848933 0.11204094 0.038637657 -0.06488632
-0.2532286 0.079623744 -0.016444014 -0.055479992 -0.13216376 -0.096964285 -0.08777339 0.12322362
-0.09312689 0.06261677 -0.19662209 -0.7093994 -0.04310149 -0.013459481 0.06026971 0.1908376
0.12404502 -0.16397326 -0.091564275 0.14443465 -0.0041218693 0.48050946 -0.041803807 -0.054309595
-0.08360433 0.008598927 -0.40900645 -0.07878219 0.025228532 -0.0463597 -0.33774486 0.22200514
-0.077088945 0.6000904 0.12729254 -0.010700741 -0.4594811 0.20347899 0.051915593 -0.2068163
-0.33848494 0.3759849 -0.13836114 -0.45282894 0.474554 -0.08549599 -0.27724722 -0.023914896
0.43870163 -0.16536823 -0.45644096 -0.44217443 0.15641266 -0.23852122 0.21255459 0.8194533
0.3900275 0.263008 -0.10890121 -0.16007873 -0.04452397 0.081014596 0.18867767 0.007548088
-0.020168478 -0.07824288 -0.06933668 -0.05011132 -0.036932122 0.014714733 -0.34552342 0.10585653
0.26909712 -0.13991536 -0.21380423 -2.7775168e-05 -0.028783914 -0.27164358 -0.0021763602 -0.29780224
-0.36148313 0.10939166 -0.09576089 -0.10576088 -0.17585137 0.11877185 -0.22561188 -0.035377834
0.12353822 -0.2056037 0.1323834 -0.43363354 0.027613353 -0.0073608537 0.10721314 0.20920004
0.14279777 0.075503506 -0.16380048 -0.098150894 -0.10452608 0.27972177 0.1780958 -0.07402286
0.2939479 -0.057882976 -0.17409272 -0.17562018 -0.058724247 0.03689524 -0.27277878 -0.19665071
-0.03646922 0.078634836 0.026088802 -0.2539063 -0.035866417 0.4693033 0.16343011 -0.37663382
0.5812966 -0.18403101 -0.05401344 -0.60153216 0.24463934 0.1731033 0.027447648 -0.060820147
-0.07429813 0.00595459 -0.080109924 -0.061351772 0.06559707 -0.18152112 -0.07193468 0.042635467
-0.10307504 -1.1632961e-05 -0.00015026315 0.14341262 -0.060518343 -0.116715305 0.28619987 -0.018601283
0.04436279 -0.26058948 -0.057393823 0.24566953 0.08788566 -0.38722333 -0.24928553 -0.23466669
-0.068837315 0.20804186 0.066875696 -0.045798946 0.17815101 0.31555206 -0.10401128 0.06936631
-0.51167774 -0.1395605 0.12822185 -0.11234792 -0.38610208 0.24023145 -0.100320674 -0.1100654
-0.002999101 -0.19708942 -0.26361558 0.54779416 0.035070848 -0.05219262 -0.28727424 -0.07138557
0.47592792 -0.1705589 0.07783216 -0.05556993 -0.061345756 0.038797148 0.03810335 -0.4528712
-0.1527882 -0.08344124 -0.19577794 0.41034326 -0.17517523 0.24566825 -0.000115712275 0.037622288
-0.0749512 0.051408738 0.40045968 0.03591006 -0.23078431 0.6793292 -0.077536955 -0.13890232
-0.25799668 -0.031081874 0.25596076 0.64139396 0.47614512 0.3415 0.15857345 -0.077288896
-0.03195735 0.41367018 -0.15364987 0.067788295 -0.010619943 -0.030253109 -0.031692844 -0.09329382
-0.054345403 0.014829857 -0.071515284 -0.03703803 -0.27551267 0.085411 -0.075985484 -0.3863407
-0.13505614 0.17614987 -0.50220263 0.096013166 0.13400723 0.5450252 -0.05933763 -0.025813283
-0.037553273 -0.05788852 -0.11135255 0.21528101 -0.24548507 0.24550782 -0.124726504 0.5083182
-0.42649427 -0.023099609 0.005782662 -0.06561073 0.0052051423 -0.1724098 0.2966598 0.11064956
00000000: 402a 65be 5a21 d5be 92ee b2bc 6352 7b3e
00000010: ef43 f8be b875 e53d 8542 1e3d 1ee3 84bd
00000020: 2ea7 81be c611 a33d 99b5 86bc fd3e 63bd
00000030: f055 07be 3695 c6bd 89c2 b3bd aa5c fc3d
00000040: 50b9 bebd 393d 803d 4d57 49be 339b 35bf
00000050: 308b 30bd 2885 5cbc 5fdd 763d ef6a 433e
00000060: 510b fe3d 9be8 27be 0d86 bbbd ade6 133e
00000070: bf10 87bb 5605 f63e 783a 2bbd bd73 5ebd
00000080: bf38 abbd 84e2 0c3c 4b69 d1be 8f58 a1bd
00000090: 11ac ce3c abe3 3dbd e5ec acbe 5155 633e
000000a0: cfe0 9dbd 869f 193f fa58 023e 2952 2fbc
000000b0: 1b41 ebbe cc5c 503e 72a5 543d a7c7 53be
000000c0: e64d adbe 1881 c03e 8bae 0dbe 32d9 e7be
000000d0: bef8 f23e 8618 afbd 59f3 8dbe 2ce9 c3bc
000000e0: 809d e03e 4a56 29be a1b2 e9be b064 e2be
000000f0: a42a 203e e83e 74be e9a7 593e b1c7 513f
00000100: afb1 c73e fca8 863e 9907 dfbd aeeb 23be
00000110: c45e 36bd fbea a53d b834 413e f455 f73b
00000120: 5d38 a5bc ce3d a0bd 6400 8ebd 8741 4dbd
00000130: 2346 17bd 1016 713c 72e8 b0be 4fcb d83d
00000140: 19c7 893e f945 0fbe 7fef 5abe b8fe e8b7
00000150: 3ecc ebbc de14 8bbe 44a1 0ebb 8979 98be
00000160: 5114 b9be bc08 e03d 491e c4bd 2999 d8bd
00000170: 6212 34be a83e f33d cd06 67be 59e8 10bd
00000180: 9b01 fd3d c789 52be 848f 073e 3705 debe
00000190: 6635 e23c 5133 f1bb 9092 db3d 8938 563e
000001a0: 9439 123e 95a1 9a3d 50bb 27be 5603 c9bd
000001b0: c511 d6bd b137 8f3e bf5e 363e 4c99 97bd
000001c0: 5780 963e b316 6dbd 5d45 32be c7d5 33be
000001d0: d688 70bd 771f 173d a9a9 8bbe ce5e 49be
000001e0: c060 15bd 4d0b a13d 2fb8 d53c 0200 82be
000001f0: aae8 12bd 8648 f03e 395a 273e 26d6 c0be
00000200: dbcf 143f a072 3cbe 323d 5dbd 03fe 19bf
00000210: bc82 7a3e fe41 313e e4d9 e03c 8c1e 79bd
00000220: 9e29 98bd b91e c33b ac10 a4bd ff4b 7bbd
00000230: c257 863d ace0 39be 7d52 93bd 87a2 2e3d
00000240: 0219 d3bd 302b 43b7 f58f 1db9 c2da 123e
00000250: 15e2 77bd 6f08 efbd ca88 923e b861 98bc
00000260: c2b5 353d fc6b 85be c915 6bbd cb90 7b3e
00000270: 66fd b33d 2342 c6be b544 7fbe 774c 70be
00000280: 94fa 8cbd ed08 553e 20f6 883d ad97 3bbd
00000290: 386d 363e 0a90 a13e de03 d5bd ed0f 8e3d
000002a0: 50fd 02bf f3e8 0ebe 974c 033e ab16 e6bd
000002b0: 2caf c5be 3cff 753e ed74 cdbd f869 e1bd
000002c0: 918c 44bb cfd1 49be 9ff8 86be 3d3c 0c3f
000002d0: 73a6 0f3d eec7 55bd 9c15 93be 9932 92bd
000002e0: d3ac f33e fea6 2ebe 7866 9f3d 4b9d 63bd
000002f0: b045 7bbd c2e9 1e3d 4212 1c3d bcde e7be
00000300: 8374 1cbe 3ee3 aabd 037a 48be 8318 d23e
00000310: 2361 33be 7590 7b3e 8eaa f2b8 d419 1a3d
00000320: 0480 99bd f891 523d 0d09 cd3e 6d16 133d
00000330: b952 6cbe 85e8 2d3f b2cb 9ebd 693c 0ebe
00000340: 2418 84be 6a9f febc 4a0d 833e 6532 243f
00000350: 4bc9 f33e 17d9 ae3e 1461 223e a449 9ebd
00000360: b6e5 02bd 94cc d33e 6456 1dbe 97d4 8a3d
00000370: 45ff 2dbc 5ed5 f7bc 5bd0 01bd d510 bfbd
00000380: 4999 5ebd eef8 723c 9b76 92bd 30b5 17bd
00000390: ff0f 8dbe f6eb ae3d 479e 9bbd 73ce c5be
000003a0: 284c 0abe a260 343e 5a90 00bf 8da2 c43d
000003b0: 3139 093e c686 0b3f 040c 73bd 6176 d3bc
000003c0: 76d1 19bd 831c 6dbd ce0c e4bd a072 5c3e
000003d0: 7060 7bbe 6766 7b3e 9c70 ffbd 2421 023f
000003e0: 755d dabe 643b bdbc 7c7c bd3b eb5e 86bd
000003f0: e68f aa3b 328c 30be cbe3 973e 3d9c e23d
