models/Cora_gat_model.pth (torch, 810402 bytes, 12 tensors)

conv1.att_src f4 [1, 8, 16]
000000 3a 89 a0 3e 02 cc 74 3d ae 0e 0a 3e 10 41 59 3c
       0.31354696 0.05976487 0.13482162 0.013260141
000010 32 93 4e be e8 18 70 bc b4 90 00 3c 5c 71 29 3d
       -0.20173338 -0.014654376 0.007847 0.041367874
000020 b2 60 f7 bd d1 80 a5 be 76 29 8d be aa d4 86 3e
       -0.1207899 -0.32324842 -0.27570695 0.26334125
000030 41 90 84 3d 08 65 4e bb 53 7a e9 bd db b0 b6 bb
       0.06472827 -0.0031493325 -0.114002846 -0.005575282
000040 16 7d c3 3d 92 27 97 bd 65 a3 b3 3c db 3c 90 bd
       0.095453426 -0.07380594 0.021928499 -0.07042857
000050 22 88 91 3e 2a 4d 30 3e 49 2e 27 be bd 1f ff bd
       0.28424174 0.17216936 -0.1632625 -0.124572255
000060 59 9c 17 be 35 ac 7b 3e d9 b2 7c 3d b7 6e 49 be
       -0.14805736 0.2457741 0.061694 -0.1967114
000070 89 92 cd 3d c5 c1 00 bd df 40 03 bd e6 8e d9 3d
       0.10037715 -0.031434793 -0.032044288 0.10622959
000080 1a 27 61 3e f6 16 ae bd 76 d1 83 bc 55 8f 83 bd
       0.21987572 -0.08500473 -0.01609109 -0.06423823
000090 7a 0f b3 bd 7d 7a f5 bd 42 2d af 3d 60 c9 8a be
       -0.08743186 -0.119862534 0.08553554 -0.27106762
0000a0 1e 08 60 3d c2 2e aa 3e c5 cc 1a 3e ac be fe 3b
       0.05469524 0.33238798 0.15117176 0.0077741947
0000b0 2d 33 ae 3e 7b 0d aa 3e 5d 42 00 be 6d 76 89 bd
       0.3402342 0.3321341 -0.12525316 -0.06712041
0000c0 42 0c 4c 3e 29 3f 6b 3e c8 de b5 bd d0 62 20 3e
       0.19926551 0.22973312 -0.08880383 0.15662694
0000d0 18 7e a1 3e 41 f4 12 be 69 92 e0 3d 50 ce e3 bd
       0.31541514 -0.14350988 0.109654255 -0.11123335
0000e0 c1 96 86 bd 13 28 a3 3e ea 42 8b 3e 20 26 73 3c
       -0.06571723 0.31866512 0.2719949 0.014840633
0000f0 c5 30 59 be f4 8d e9 bb e0 87 78 be c7 ef cc 3c
       -0.2121001 -0.007127518 -0.24270582 0.025016678
000100 b2 94 f8 3c 65 9c 48 be ca 09 3d be dd a8 8e bd
       0.030344341 -0.1959091 -0.18460765 -0.06965802
000110 15 c2 32 be e2 d1 52 3e 81 58 8f 3e 20 c4 74 bd
       -0.17456849 0.20587876 0.2799721 -0.059757352
000120 d1 12 05 be 86 be f1 bc 78 0f a5 be 60 ce 25 be
       -0.12995459 -0.029509794 -0.32238364 -0.16192007
000130 0f 6b 2c 3e f4 a5 3c 3e d4 5e 88 3e df c6 5c 3e
       0.16837715 0.18422681 0.26634848 0.21560238
000140 7e 12 32 3e 1f 7e 1e be d4 9b 68 bc 68 4a ea bc
       0.17389867 -0.15477799 -0.014197309 -0.028599933
000150 5f 50 d1 3a 54 2d b6 3d 3e 63 9b bd c2 c7 a9 be
       0.0015969387 0.088953644 -0.07587288 -0.33160216
000160 13 04 88 bd cf 06 e1 3c 5c f6 b4 bd a1 2f 9c be
       -0.06641402 0.027469067 -0.08836052 -0.30505088
000170 14 ed 5b be a1 b0 1b be 87 d1 93 3e e1 f9 5d bd
       -0.21477157 -0.15204097 0.28870794 -0.05419338
000180 bc 1b 25 3e 29 ee e7 bb 1c a3 5c 3e 3c 86 66 3d
       0.16123861 -0.0070779514 0.21546596 0.05628036
000190 e9 bb 35 3e 06 06 97 bd b0 d3 8e 3e 56 9b 0d 3e
       0.17747463 -0.07374196 0.2789588 0.13828787
0001a0 d8 69 bb 3c 87 8c 16 be 10 1e 78 3e b3 e5 dd bd
       0.022877619 -0.14702044 0.24230218 -0.10834827
0001b0 f8 49 d9 bc 37 bd 9b 3d 6e 95 76 3d 5f 93 8d bd
       -0.026524529 0.07604449 0.0602011 -0.069128744
0001c0 af df 1a be 44 66 0a bd 69 d4 67 3d 49 11 ac bd
       -0.15124391 -0.033788934 0.056599054 -0.084017344
0001d0 b5 c7 f5 bb 0b 57 67 3e b0 11 c3 3d bc 23 4a 3c
       -0.0075006136 0.22591798 0.09524858 0.012337621
0001e0 b7 26 a5 3c b3 b6 3d be 24 92 be 3d 67 c1 82 3d
       0.020160062 -0.18526725 0.09305218 0.06384545
0001f0 6c a2 7b be ea 85 45 3e dd 64 a2 3e c5 43 0c 3c
       -0.24573678 0.19289365 0.31717578 0.008561079

conv1.att_dst f4 [1, 8, 16]
000000 3e 36 ea 3d 36 23 18 bd 79 66 5e bc 8e bb 52 bd
       0.11436127 -0.037142955 -0.013574236 -0.051448397
000010 50 c7 ff 3c 40 c4 a9 bc ff 05 d2 3d f6 2b a5 3d
       0.03122297 -0.020723462 0.1025505 0.080650255
000020 99 df 71 bd d4 4a c5 bd 37 e9 0b 3d 6c ff b6 bd
       -0.05905113 -0.09633413 0.034157958 -0.089354366
000030 f5 40 95 3d 34 3c 95 3d 13 be f1 bd 83 7e 87 3d
       0.0728778 0.072868735 -0.11803832 0.06615927
000040 07 7a 66 bd 33 d8 82 3d fc 31 3c 3d 66 44 b6 bd
       -0.056268718 0.06388893 0.045946106 -0.08899765
000050 55 a4 57 3e e1 91 82 3d 22 ca f1 bc 1e 47 78 3b
       0.21058781 0.063754804 -0.02951533 0.0037884186
000060 b6 92 18 3d 49 4d dc 3d d3 a8 04 3e 0a 2e 68 3c
       0.03724929 0.107569285 0.12955026 0.014171133
000070 5e 64 12 3d b5 22 b9 3d fd 1d d6 bb d2 21 21 3d
       0.03574025 0.09039823 -0.0065343366 0.039338894
000080 33 ca e1 3d a6 67 10 3d e3 64 1c bc 0e 3b 83 3d
       0.110248946 0.035255097 -0.009545538 0.06407748
000090 0e ab bd 3d a8 b8 11 be 75 88 c3 3d 17 ac 05 be
       0.09261142 -0.14230597 0.095475115 -0.13053928
0000a0 90 66 bf bc 6d e2 37 3d fc cb d2 3d 67 4e 16 3d
       -0.023364335 0.04489367 0.10292813 0.036695864
0000b0 7d 43 aa bd 4d f7 40 3d 49 f6 a0 3d 9e 02 d5 3d
       -0.083136536 0.047110844 0.07859475 0.1040089
0000c0 bd 04 9c 3d a9 07 66 3d 58 a5 bf bd a7 58 85 bd
       0.07618091 0.05615965 -0.09357709 -0.0651105
0000d0 a2 06 29 3d a0 f2 01 3e b2 90 bc bb 5c a8 b4 3d
       0.04126609 0.1269021 -0.0057545537 0.088211745
0000e0 77 ee cb 3c b5 ec f6 3d 78 f3 66 3d fc 4f 0a bd
       0.024893982 0.12056867 0.056384534 -0.033767685
0000f0 27 54 3a be 8a 35 3a bc 63 6f 0b bd d4 ca d1 3c
       -0.18196164 -0.011365304 -0.034041774 0.025609411
000100 55 91 41 3d 7d c2 fe 3d b7 f6 f9 bd 88 c2 a4 bd
       0.04725774 0.124394394 -0.1220526 -0.080449164
000110 5a 34 c5 bd c6 9e 21 3d bd 48 7a 3d e4 2c 9a bc
       -0.09629126 0.03945806 0.061104525 -0.018820234
000120 3d dc 61 bd 71 f6 c8 3d d1 56 0b be 4b f9 e6 3c
       -0.055141676 0.0981263 -0.13607337 0.028195044
000130 67 10 93 bd 0a 1f 5f 3d 9b 3c ae 3d 89 ea 74 bd
       -0.07180863 0.05447296 0.08507653 -0.059793983
000140 b4 c3 e8 3d 54 7b 7a bc 25 55 06 3d 97 4b 62 be
       0.113654524 -0.015288193 0.032796044 -0.22099148
000150 cf 91 6d bd 98 d5 d0 bc eb bd ab bd 2b ee 3c bd
       -0.058000382 -0.025492474 -0.08385833 -0.046125572
000160 9c e4 29 3b 25 27 02 3d fc cd 0d 3e 60 fc 1c 3d
       0.0025923615 0.031775612 0.13848108 0.03832662
000170 00 63 76 bd 15 d5 24 3d d1 ba 0b 3e 0e 1a f7 bd
       -0.060153008 0.040242273 0.13645484 -0.120655164
000180 16 a4 5e 3d 84 14 56 3c 9a da 40 bd 43 d1 03 bc
       0.054355703 0.013066415 -0.047083475 -0.008045497
000190 13 7f fb 3c c1 10 a1 3c 60 f7 86 bb b8 31 24 be
       0.030700242 0.01966131 -0.004118845 -0.16034591
0001a0 62 3f a8 bd 45 4f 35 be e8 e6 1a 3e 90 ae dd bd
       -0.08215214 -0.1770602 0.15127146 -0.10824311
0001b0 dc 11 3c 3d f1 98 85 bd e0 bc c8 bc ae 21 ca 3c
       0.04591547 -0.06523312 -0.024504125 0.024674263
0001c0 74 ba 24 bd 8c b3 00 3d d4 47 9f 3d 0f f4 ce 3c
       -0.040216878 0.03142123 0.07777372 0.02526286
0001d0 6b 6d f7 3d bb b7 c1 3c 69 bf 00 3e c9 4f 70 3d
       0.12081417 0.02364718 0.12573017 0.05866984
0001e0 99 96 17 be 61 c7 2b bd b1 aa cb bd 36 5f 03 bd
       -0.14803542 -0.04193819 -0.09944666 -0.032073222
0001f0 c0 aa 33 bc 36 0a 5a 3d 52 2d 31 3e ba 5d 2d 3e
       -0.010966003 0.053232394 0.17302445 0.16930285

conv1.bias f4 [128]
000000 ed 06 cb bb 41 c8 86 bc b3 10 c6 3c bc bd 84 b9
       -0.006195894 -0.01645291 0.024177885 -0.00025318365
000010 dd ad de bb d6 6a b6 3b ab 78 e7 3c e8 0e 82 3b
       -0.0067956285 0.005566935 0.028255781 0.003969062
000020 07 62 de bc de cd 1f 3d af cb 07 bd 4d 1b a3 bc
       -0.027146352 0.03901469 -0.033153232 -0.019910479
000030 12 0a 04 bd 04 1a d8 bc 7e e0 19 3d ed e6 81 3c
       -0.032236166 -0.026379593 0.037567608 0.015857184
000040 5e 2a 90 bc 9f 9d 09 bd 00 c2 3f bc d5 e6 99 3c
       -0.017598327 -0.033597585 -0.011703968 0.018786827
000050 05 de 0f ba 19 be 90 3b 4c e8 c1 39 1a 64 51 3c
       -0.00054881006 0.0044171927 0.00036984903 0.012780214
000060 58 93 f9 bb da fb 86 3d fd 16 22 bd fc 7c 5f 3c
       -0.0076164417 0.065910056 -0.039572705 0.013640638
000070 5f b7 89 bc 0a 39 3b bc 42 19 dc 3c 8a d0 83 bc
       -0.016811071 -0.011427173 0.026867513 -0.01609065
000080 a3 76 89 3c 26 6d c2 bb bf c6 b0 bc 35 8a 16 bd
       0.016780203 -0.0059334217 -0.021579145 -0.0367529
000090 5e 96 6c bc f9 2a 7d 3c ce 2d 0c 3c fe d5 82 bd
       -0.014440147 0.01545214 0.008555843 -0.06388472
0000a0 bb 9b 11 3d c5 31 c1 3c ef 2f b4 bc 4f 0b e6 bc
       0.035548907 0.023583302 -0.021995513 -0.028081564
0000b0 b2 58 b0 bc 37 d8 7d bc e6 fe d9 3b 7d e1 2c bb
       -0.021526668 -0.015493444 0.0066527007 -0.0026379519
0000c0 2b d6 d4 3c d8 00 92 ba 8f ba 4f 3c e2 09 a9 3c
       0.02598103 -0.0011139167 0.012678756 0.020634595
0000d0 7c 04 33 3c 5b d2 e3 3c a9 03 3a 3d eb 10 3b bd
       0.010926362 0.027810266 0.045413647 -0.04567043
0000e0 2f c6 ba 3c 6e ca da bb 84 1c 26 3d 8b d8 76 3d
       0.02279958 -0.0066769635 0.04055454 0.060265105
0000f0 88 30 b1 3b 04 27 91 3c 85 19 ab bc 0d 74 06 bc
       0.0054073967 0.0177188 -0.020886192 -0.00820638
000100 d6 b0 ba 3c 4d d4 55 3d c9 61 b9 3c e5 46 ce bc
       0.0227894 0.05220442 0.022629635 -0.02518029
000110 5e fc af 3a 08 b8 ee 3c a9 ae a1 bd 44 da f0 3b
       0.0013426652 0.029140487 -0.07894642 0.007350238
000120 b2 42 36 3d 4a 75 8d 3b f8 ee 9d bc e5 3c f9 bc
       0.0444972 0.0043169605 -0.019278988 -0.030424545
000130 70 25 57 3d f4 a4 90 bc 3f e4 c2 3c 5c 85 02 bc
       0.052525938 -0.01765678 0.023790477 -0.007966366
000140 aa a7 51 bc 09 ab 11 3d 00 f6 27 3d 82 0d 40 bd
       -0.012796322 0.035563502 0.04100609 -0.046887882
000150 6f 96 95 3a 5c 7a f7 3b 99 18 02 bd e3 87 eb bc
       0.001141263 0.007552428 -0.03176174 -0.02875132
000160 24 c5 e0 bc 80 5f f7 3c 4c 8c 1a 3c 11 79 10 bd
       -0.027437754 0.030196905 0.009432863 -0.035271708
000170 6f 62 14 bc 93 54 0a 3d 20 cf e1 3c 47 f6 05 bd
       -0.0090566715 0.033772063 0.027564585 -0.03270557
000180 04 37 02 3c 7e 7a e8 3c 30 8c 65 3c e0 f8 82 3b
       0.007947687 0.028378721 0.014010474 0.0039969534
000190 47 78 8d 3d 09 2b 02 bb 74 d4 e2 ba 7d 4a de 3c
       0.06907707 -0.0019862077 -0.0017305748 0.027135128
0001a0 50 b5 28 3d 40 48 b8 b7 3a 17 17 bd 0c 5a 77 3b
       0.041188538 -2.1968153e-05 -0.036887385 0.003774288
0001b0 04 de 8f bc 33 f2 4d 3d 01 60 3d bc ae 7f fb bc
       -0.01756192 0.050279807 -0.011558534 -0.03070053
0001c0 41 4a a3 bc 29 41 53 bb 26 5d 33 3c ea 9d 27 3d
       -0.019932868 -0.0032234883 0.010947501 0.040922083
0001d0 92 03 e6 3c 43 f9 a2 3c fe 55 8a 3d 71 09 2f bd
       0.028077874 0.019894248 0.06754683 -0.042733613
0001e0 86 80 75 ba 60 9f 44 3d 25 57 61 3d 68 7b 59 3c
       -0.000936516 0.048003554 0.055014748 0.013274051
0001f0 83 11 d3 bd 76 68 40 3c 03 3e dd bc 98 a0 29 bd
       -0.103060745 0.011743655 -0.027007109 -0.04141292

conv1.lin.weight f4 [128, 1433]
000000 53 5a 96 3c aa b8 8f bc 9f 16 61 3d af 20 8d bd
       0.018353617 -0.01754411 0.054953214 -0.068909995
000010 42 59 4f 3d bd ab 39 3d 95 68 57 3d 7a b8 01 bd
       0.050622232 0.045329798 0.05258997 -0.03167007
000020 3e b8 bc bb 9d 60 17 bc 5e 9d 93 bc 16 07 96 3d
       -0.005759268 -0.009239343 -0.018019374 0.0732557
000030 90 35 f3 3d 30 86 11 bb ba 2e bb bb f1 e7 49 3d
       0.118754506 -0.0022205226 -0.0057123573 0.049293462
000040 c4 41 fe bc c4 1e 4d bc d7 ae bd 3c 8b 91 3b be
       -0.031037219 -0.012519542 0.02315466 -0.18317239
000050 3a ec 3f bb 9c 7e 0a ba 0c 0a a8 3c 8d 69 1a 3d
       -0.002928509 -0.00052831485 0.020512603 0.037698317
000060 bc e1 5d 3b cd e2 98 bb 38 23 92 3d 4c 94 2c bd
       0.0033856472 -0.0046657086 0.07135624 -0.042133614
000070 81 a6 1e 3c 0e aa cd bd fe af 1d 3e ad 4f c9 bc
       0.009683252 -0.10042201 0.15399167 -0.024574125
000080 75 01 c8 bc 3e 7a eb bb ce 58 b7 3d f6 f1 e9 3b
       -0.024414757 -0.0071862033 0.08952485 0.0071394397
000090 c6 1b cb bc 57 91 d6 3c 63 ac 5b 3c 26 72 6e bb
       -0.024793517 0.02619235 0.013407799 -0.0036383956
0000a0 7a d2 cb 3d 17 cd 2d bc 78 53 9b 3c ff 46 46 bd
       0.099522546 -0.010607979 0.0189607 -0.04840755
0000b0 50 7b 8e 3d 0e 8e 52 3d d8 06 83 3c 89 1c a5 3d
       0.06957114 0.051405005 0.015994474 0.08062083
0000c0 60 95 a4 3d 50 a5 35 3d f1 e7 f0 3d 8b 03 9c bd
       0.080363035 0.044347107 0.11762989 -0.07617863
0000d0 64 50 18 bd 33 cf f8 ba e6 9d 18 bb 57 47 84 3d
       -0.03718604 -0.0018982649 -0.0023287474 0.064589195
0000e0 3f 9a 7d 3b b4 34 0a bd 34 b3 ec bc ab fe 8c 3d
       0.0038696674 -0.033741668 -0.028894044 0.068845116
0000f0 c3 29 c6 3a 7d c9 d8 bd 78 69 09 3e 7e 6b 71 bd
       0.0015118647 -0.10585306 0.1341914 -0.058940403
000100 34 c8 e7 bd 4c 85 97 3d 40 39 92 3d 04 1b c4 bd
       -0.113174826 0.07398471 0.07139826 -0.09575465
000110 c0 a8 4e 3c 19 68 9d bd e0 38 be 39 01 1a 03 3d
       0.012613475 -0.07685871 0.00036282 0.03200722
000120 56 4d 30 3c 91 9a 84 bd d7 27 a8 3d e7 8e 5b bd
       0.010760626 -0.06474794 0.08210724 -0.05360308
000130 ae 22 b7 3c 30 35 a6 bd 34 4a fb 3d 08 ac e5 bc
       0.022355404 -0.081156135 0.122700125 -0.028036132
000140 8c d2 90 bd cc a9 a8 3d 55 a1 b5 3c 17 5a 14 bd
       -0.07071409 0.08235511 0.022171656 -0.03621873
000150 80 d3 13 3d 09 92 a6 bd de ef 02 be 0a e0 e6 bc
       0.036090374 -0.08133323 -0.12786815 -0.028183002
000160 ae 14 78 3c 6c 1a 48 3d dc f6 38 3a be c1 71 3d
       0.015141649 0.048853323 0.0007055828 0.059022658
000170 5c b7 20 bc cc 1a a1 3c 3d 88 22 3d f6 47 ed bb
       -0.009809341 0.019666098 0.03968071 -0.0072412444
000180 2c 14 c3 bb 20 04 77 3c fe 99 54 bd 43 19 16 3d
       -0.0059533324 0.015076667 -0.05190467 0.036645185
000190 98 2c a5 bc 7a 9f be bb ec 6f 0c 3d 47 73 d6 ba
       -0.020162866 -0.005817351 0.034286425 -0.001636126
0001a0 ed dc ba bc 9c 6c 0b 3d c5 9c 45 3e d4 23 30 3d
       -0.022810424 0.034039125 0.19298084 0.04300292
0001b0 e4 16 d1 3c 02 63 b8 bc 1a d7 94 bb c2 af 93 3c
       0.02552361 -0.022508148 -0.0045422437 0.018028144
0001c0 e4 09 4c 3d 7c e4 81 3c 6c b5 3d 3c a7 6a 90 3c
       0.04981412 0.01585602 0.011578899 0.01762898
0001d0 62 09 3c 3d d7 25 ba 3c f9 43 b8 3d 03 fd ae 3d
       0.045907386 0.022723122 0.0899734 0.08544352
0001e0 a4 0e 5e bd c2 d2 cb 3d c0 40 0f bb bd 71 10 bd
       -0.05421318 0.09952308 -0.0021858662 -0.03526472
0001f0 db 61 f9 bd db 89 fb 3c 42 9e 67 3d c7 e5 9a 3c
       -0.121768676 0.030705383 0.05654741 0.018908395
000200 dc b7 77 bd d7 22 46 bd 00 9d 45 bd 88 ef 93 3c
       -0.060478076 -0.04837307 -0.04824543 0.018058553
000210 68 b8 98 bd 0b e8 43 bd ae ef 66 3d 3e c7 29 bd
       -0.07457048 -0.047828715 0.05638092 -0.041449778
000220 01 05 ad bd 0f 98 e5 3b 06 d7 4e 3d 5d 7b da ba
       -0.0844822 0.007006652 0.05049803 -0.0016668845
000230 b3 47 34 bc 37 02 6c 3d 20 30 6e ba 7a e5 a6 bd
       -0.011003423 0.0576193 -0.00090861507 -0.08149238
000240 52 b0 0d 3d 26 d8 ae 3a 16 c1 3e 3c 08 27 9f 3d
       0.03459198 0.0013339564 0.011642715 0.077711165
000250 7b ba 84 bb 48 56 16 bd 4f 10 39 3d bc c4 29 3d
       -0.0040505505 -0.036703378 0.04518157 0.041447386
000260 78 4e fe 3b 3c 62 df bd 40 a4 25 bd 08 1b dc 3c
       0.007760819 -0.109074086 -0.040439844 0.026868358
000270 62 a2 60 3d 8f 2c 19 bc fc 71 97 3d 2a 07 88 3d
       0.05484236 -0.0093490025 0.07394788 0.066419914
000280 56 6d 55 bd ca b0 04 3c d5 1c 81 bd 55 ba 9c 3c
       -0.052106224 0.00809879 -0.063043274 0.019131819
000290 15 99 e3 bb 8e 35 08 ba 18 28 8f 3d 60 19 85 39
       -0.006945739 -0.00051959686 0.06990069 0.00025386643
0002a0 9b f2 74 bd e8 31 ce 3c 51 af d3 3d e7 16 2a bd
       -0.05980168 0.025170282 0.10336173 -0.041525748
0002b0 67 c2 a9 bd 32 a9 a6 bc 19 76 b8 3d fa 45 a2 3c
       -0.082890324 -0.02034435 0.090069 0.019808758
0002c0 48 69 04 be 30 ad 11 bb 6d 9e 92 3d 26 2c ba 3d
       -0.12930787 -0.0022228472 0.071591236 0.09090452
0002d0 48 6e 31 bd 04 31 83 3b be 7b 47 3d de 26 49 3c
       -0.043318063 0.004003646 0.048701994 0.012277333
0002e0 aa 73 53 bd 0e 11 1a 3c 3a 1f 72 3c a1 8b 8a bd
       -0.051623978 0.00940348 0.014777953 -0.06764913
0002f0 28 c8 b3 3d 0d a8 8c 3c 3a 03 c8 3c 94 93 2a 3e
       0.08778411 0.017169977 0.024415601 0.16657859
000300 c0 34 a9 bd 8e 8b 10 3d 85 2f 5e bd fe 71 00 bd
       -0.082620144 0.03528934 -0.054244537 -0.03135871
000310 be d2 95 bd 02 90 50 3d 88 4a 17 bd e0 0a 34 bd
       -0.073155865 0.050918587 -0.036936313 -0.043955684
000320 9c bd b7 3d 79 c7 20 bd c9 ca 84 3c 2b a8 6d 3d
       0.08971712 -0.039252732 0.016209977 0.058021706
000330 00 1c cd bb 00 0b 03 3e 1b 8b 64 3c c7 56 c0 bc
       -0.0062594414 0.12797165 0.013949181 -0.023478879
000340 cf 48 95 bc cc a9 0d bd ca 36 51 3c 65 67 b5 3d
       -0.018223194 -0.03458576 0.01276941 0.088576116
000350 84 f6 9a bc 73 80 9c bb 3e 3e c0 3c f3 4b fc bc
       -0.018916376 -0.0047760545 0.02346718 -0.030797934
000360 71 bf 89 bb 9d 9c a5 bd ce ca 54 ba a3 1e 30 3d
       -0.00420373 -0.08086512 -0.00081173785 0.042997967
000370 04 2d 04 3d 5e b6 c9 3c ef c1 38 bd ca df c9 3c
       0.032269493 0.024623092 -0.045106824 0.024642844
000380 a8 93 56 3d ff 80 e7 bd 38 c0 88 bc a3 6f b9 bc
       0.05238691 -0.11303901 -0.01669322 -0.02263624
000390 03 53 ed 3d e4 5b a3 bb 30 f1 54 bd 97 dc d0 bd
       0.11588099 -0.0049853195 -0.051987827 -0.10198324
0003a0 87 96 7c ba 13 c8 e9 bc 83 a5 96 3d 50 ae 84 3d
       -0.00096354674 -0.028537786 0.073557876 0.0647856
0003b0 2a aa 83 bc 7c 5b b0 bb 6f 39 c4 bd 53 1c 1f 3b
       -0.016072351 -0.0053819995 -0.09581267 0.0024278357
0003c0 c9 fc 20 bd 5e 1c 0f 3c 11 98 7a 3d 7b e9 df bc
       -0.039303575 0.008734791 0.061180178 -0.027333012
0003d0 30 0b 37 bd c8 1a 4f 3d 43 83 d7 bc d7 ae 4d bc
       -0.044688404 0.05056265 -0.026307708 -0.012553892
0003e0 0f 16 3d 3d 96 2c b6 3c 89 f2 29 bd be 1b d9 3c
       0.046163615 0.022238057 -0.041491065 0.026502486
0003f0 4c 97 52 3c 8a 98 52 3c 2b e9 9a bd 2c 20 b1 3d
       0.012853455 0.012853751 -0.075640045 0.086487144

conv2.att_src f4 [1, 8, 16]
000000 b7 bd 95 3d 16 11 90 3d 95 85 68 3d 5b 22 1a 3c
       0.07311576 0.07034509 0.05676802 0.009407605
000010 87 65 b1 bd cb 3d b1 3d c5 7c 74 bc 1c a1 3d bc
       -0.08661943 0.08654364 -0.0149223255 -0.011574056
000020 4e 2d 31 bd ba a6 3b bd b1 5e 95 bd a4 83 bf 3c
       -0.043256097 -0.0458133 -0.072934516 0.0233782
000030 06 63 2f be de a2 02 be 28 60 d3 3d 13 77 2a 3e
       -0.17127618 -0.12757441 0.10321075 0.16646986
000040 0d 03 05 3e 47 07 a9 bd d4 34 aa bd 42 91 00 be
       0.12989445 -0.08253341 -0.083108574 -0.12555411
000050 8f f4 ca bb 4c ac 77 bc 60 d1 e0 bd 21 24 b0 3c
       -0.0061937044 -0.015116762 -0.10977435 0.021501603
000060 a4 c6 0f 3e 91 fb 35 3c f1 05 c4 bd d0 c9 87 bd
       0.14040619 0.011107341 -0.09571446 -0.066302896
000070 46 94 ac bd 7b 04 8b 3d b4 1f 17 3d 73 4b 3e 3d
       -0.084267184 0.06787964 0.03689547 0.046458673
000080 9b a3 81 bd 1f 25 b2 3d bd 60 db 3b 06 84 0c 3c
       -0.063300334 0.086984865 0.0066948817 0.008576399
000090 7b 22 b2 bc 1d 44 39 3d cd 8e 26 3d f4 30 23 bd
       -0.021744957 0.045230974 0.04066353 -0.039841607
0000a0 1a aa cc bd 60 42 90 bd de bd 4a bd 2f 87 1a 3d
       -0.09993382 -0.0704391 -0.049497478 0.037726577
0000b0 12 68 cb 3b db f5 fc 3d 6f 4a 22 bc 9e 9c 93 bc
       0.0062074745 0.12351581 -0.009905442 -0.018019017
0000c0 48 0a 94 bd 05 8e 77 bc 90 12 8c bd 4a 0d eb bc
       -0.072285235 -0.015109544 -0.06839478 -0.02869286
0000d0 94 ca 0f be 66 09 6e 3d 6c 49 e1 3c 9e 7e 79 3d
       -0.14042121 0.05811443 0.02750083 0.060911767
0000e0 b4 c7 00 be 89 11 9c 3d 43 c5 1a 3d 47 49 ea bc
       -0.1257618 0.07620532 0.03778578 -0.028599394
0000f0 54 ea 90 bd 0d 40 89 bd b4 bd e7 bd 36 d4 a1 3c
       -0.070759445 -0.0670167 -0.1131548 0.01975451
000100 bc 70 f0 bd 8e 5f cd bc d1 33 12 3e 76 f9 fb bd
       -0.117402524 -0.025069978 0.14277579 -0.1230344
000110 cc cb 9a 3d bd af 4e bd 93 b3 a9 3d a5 60 95 bc
       0.075584024 -0.050460566 0.08286204 -0.01823456
000120 93 9c e4 bd 60 f4 01 3d 5b 3e a2 bd e9 b9 f8 3d
       -0.11162677 0.031727195 -0.079220496 0.121448345
000130 7f 09 f1 bd 74 a6 73 bd a5 f0 0d 3b c2 58 ed bd
       -0.11769389 -0.059484914 0.0021658328 -0.11589195
000140 f1 0a 1f be 3f a4 f1 3c 34 b4 b5 3d 61 fd 0f bd
       -0.15531518 0.029497264 0.08872262 -0.03515375
000150 38 9b 29 3c 03 80 9f 3d 76 e1 c8 bc cc d2 1b be
       0.010351948 0.07788088 -0.02452157 -0.15217131
000160 1c 17 6d 3d 0c cc de 3b ff 37 ec 3c 8a e3 d0 bd
       0.057883367 0.0067992266 0.028835295 -0.1019965
000170 13 e7 fb 3d ab 4b 87 bc 6e 8d 88 bd 24 6c fd 3c
       0.12299933 -0.016515573 -0.066676006 0.030935355
000180 89 79 52 bd 3f 7c a1 3d 7a ec 11 3e e2 cc 3a bd
       -0.051385436 0.07885026 0.14250365 -0.045605548
000190 2f 7a 3d be ab c8 ec bd 5a 62 bf 3d 61 21 1f be
       -0.1850364 -0.11561712 0.09344931 -0.15540077
0001a0 89 8a a3 3d ee d7 6f bd 00 6e a6 bb e7 55 15 bd
       0.07985408 -0.058555536 -0.005079031 -0.036458876
0001b0 61 03 2c 3e 4d 4a f4 bd d6 fe cb bd 78 fa f6 bc
       0.16798164 -0.11928234 -0.099607155 -0.03014873
0001c0 75 d7 1d bd 67 e9 68 bd 64 0e 92 3c 8a 8a 84 3c
       -0.038535554 -0.056863215 0.017829128 0.016179342
0001d0 9c 81 49 3c 41 8a cd bd be 58 84 bd b5 a8 ba 3c
       0.012298968 -0.100361355 -0.06462239 0.022785524
0001e0 19 15 ac 3d 0c a5 22 3d a6 dc d5 bd f4 69 0c be
       0.084024616 0.039708182 -0.10442476 -0.13712293
0001f0 58 85 d4 3d 1c 4d dc 3d b2 b2 62 bd a0 90 96 3c
       0.10376996 0.10756895 -0.0553462 0.01837951

conv2.att_dst f4 [1, 8, 16]
000000 d0 af bc bb ec 07 30 bd 59 cd d6 3d a4 b8 c0 3c
       -0.005758263 -0.042976305 0.10488386 0.023525544
000010 23 5e 1d 3d 89 41 05 3e 6b b5 3f 3d e0 44 c8 3c
       0.038419854 0.13013281 0.046803873 0.024446905
000020 8c ae fd 3d 1f ae 83 bd 70 3e ec 3d 62 f9 0d 3d
       0.12386808 -0.06429695 0.115353465 0.034661658
000030 76 8c d2 3d be a6 3b 3d 6c 33 09 3e 7e 7a dc bc
       0.10280697 0.045813315 0.13398522 -0.026913878
000040 e3 a4 ce bd b2 a3 bc 3c 83 0b 19 bd 97 5a 6a 3d
       -0.100900434 0.023027275 -0.037364494 0.0572153
000050 9f 40 31 3e d3 a8 13 bd 27 68 04 3e 33 00 97 3c
       0.17309807 -0.036049675 0.12930356 0.018432712
000060 f9 c8 5c bd 9f e9 1d 3e 87 29 1b 3d ce 21 f5 3d
       -0.0539026 0.1542115 0.0378814 0.11969338
000070 59 a3 bb bc 8d 89 91 3d 09 00 9c bd 99 3b 97 bd
       -0.022905039 0.07106314 -0.07617194 -0.07384414
000080 bd f6 07 bd da e5 c4 3d 5c c5 14 be e4 08 e1 3d
       -0.033194292 0.09614153 -0.14528412 0.10988024
000090 0b 6b a8 3c 86 29 54 3c 90 38 7c bd 0e 0f 33 3d
       0.020558855 0.012949353 -0.06157738 0.04371553
0000a0 e6 de a2 3d e3 b2 b9 bd c5 95 be 3d db 40 d3 bd
       0.07952671 -0.09067323 0.0930591 -0.103151046
0000b0 b3 87 14 3e 60 d7 d9 bc 89 30 56 bc 4a 60 fa bd
       0.1450489 -0.026591957 -0.013073095 -0.12225397
0000c0 7d a2 a8 3d 40 08 ee bb 6a c5 a1 3d 59 75 31 3e
       0.08234117 -0.007264167 0.07898982 0.17329921
0000d0 67 a0 2f 3d 9f f6 eb 3c 02 4a 8b 3d 0d ae 89 bc
       0.04287758 0.028804122 0.06801225 -0.016806627
0000e0 7c 16 28 3e 6b 1e 8d bd 0a 3d 64 3d 78 dd 41 3d
       0.16414827 -0.068905674 0.055722274 0.04733035
0000f0 0e 36 09 3d 17 1d 51 bd 1e 64 40 be 03 c6 d9 bb
       0.033498816 -0.051053133 -0.18788192 -0.0066459193
000100 1c 7a b2 3d ea b3 d5 3d 98 aa 99 3c 18 79 e3 3d
       0.08714697 0.104347065 0.018758103 0.11107081
000110 ee bd ec 3b ed 60 01 be 94 8c 52 3d f3 44 e3 3d
       0.00722479 -0.1263463 0.051403597 0.110971354
000120 ca 36 2e 3d 26 c6 b9 bd 62 53 b2 3d 50 4d 1f 3d
       0.04253272 -0.09070997 0.0870731 0.03889209
000130 55 82 0e bd f8 6f 1e 3d f9 50 66 bd ab 40 99 3d
       -0.034792263 0.038681 -0.056229565 0.074830376
000140 0a 5b 0a be db f7 13 3e a6 b7 99 bd 8f fb 0f 3e
       -0.13511291 0.14450018 -0.07505731 0.14060806
000150 bf b9 c7 bc 90 c8 fe 39 03 5f 75 3d 9c c5 d8 bb
       -0.024380563 0.00048596086 0.059905063 -0.0066153537
000160 fa 18 cf bd bb 29 c1 bc 1f 4f 4f bd 4d 94 57 3d
       -0.10112186 -0.023579469 -0.050612565 0.052631665
000170 fb e7 d7 bb 88 b9 f9 bd c4 58 a9 39 79 80 f2 3c
       -0.0065889335 -0.121935904 0.00032300327 0.029602276
000180 fb f9 84 bb 47 82 f4 bd c1 d6 ff 3c 85 20 28 3c
       -0.0040581203 -0.11938911 0.031230332 0.0102616595
000190 2b 42 0f bd ec 4f 3d bd da 50 ab bd e8 93 28 3d
       -0.034975212 -0.046218798 -0.083650306 0.04115668
0001a0 b6 77 eb 3c 54 99 65 3c bc 3e 3b be 7a 1a f3 3c
       0.028743606 0.014013607 -0.1828565 0.029675711
0001b0 53 2e 59 3e 4c 58 ff 3d 13 58 00 3b 54 be 46 3d
       0.21209078 0.12468013 0.0019583746 0.048521355
0001c0 5e c7 b0 bb ab 79 0e 3e 2d 36 ef 3c 90 61 c0 3d
       -0.00539486 0.139136 0.029200638 0.093936086
0001d0 4a 0b 28 bd 1a 37 97 bd 5d 50 75 bd eb d4 a6 3c
       -0.04102639 -0.07383557 -0.059891094 0.0203652
0001e0 d6 37 9e 3b 8a 50 01 bd b5 f7 85 3d e2 39 03 be
       0.0048284335 -0.03157095 0.06541387 -0.1281505
0001f0 87 b8 c4 bd ec df cc bc 5b 44 7f 3c 24 b1 32 bd
       -0.09605508 -0.025009118 0.015580262 -0.043625966

conv2.bias f4 [128]
000000 2c c8 12 bd 52 55 e2 3c d0 5d e1 3d 71 9d 88 3c
       -0.03583543 0.027628575 0.110042214 0.016676636
000010 7c 28 16 bd a3 a7 b4 bd 8b 90 b7 bd c3 29 45 3d
       -0.036659703 -0.08821037 -0.08963116 0.04813553
000020 24 24 b2 bc e7 a9 d1 bd fb a4 18 3d 1d 9a dd bc
       -0.021745749 -0.102374844 0.037266713 -0.027051026
000030 06 7a 10 ba 6d 13 34 3d 94 f9 32 bd 24 21 1e 3d
       -0.0005511347 0.04396384 -0.043695047 0.038605824
000040 5c 9e 1d bd 37 bf b7 bc 95 d0 52 3c a5 50 bd 3d
       -0.0384811 -0.022430046 0.012867113 0.09243897
000050 27 4a 94 bd ba 14 89 bd a0 03 13 bd be 9a 66 bd
       -0.07240706 -0.066934064 -0.03589213 -0.056299917
000060 a4 b6 db 39 a2 09 83 bc c9 ad 27 3d 27 ae 80 3d
       0.00041907013 -0.015995804 0.04093722 0.06283217
000070 0b 3e 63 3d 94 0d a9 3d c1 45 38 bd 00 8c 7b bc
       0.05547909 0.08254543 -0.044988398 -0.015353203
000080 09 0b 28 3c 5d 79 1a bc 44 bb 86 bd c1 c6 6e 3d
       0.010256537 -0.009428349 -0.06578687 0.058295015
000090 0d 6a 0d bd 22 d4 c3 bd 46 41 d2 3c bc a0 5a bc
       -0.034524966 -0.095619455 0.02566589 -0.013343986
0000a0 dd ae 6e bd bc 73 d2 bb 8c d8 ef bc 14 8d cc bd
       -0.05827223 -0.006422488 -0.029278062 -0.09987846
0000b0 75 c3 9c 3c b1 56 28 bd 60 2c b1 3c 47 90 d0 bb
       0.01913617 -0.0410983 0.021627605 -0.0063648554
0000c0 7f 93 dd bb 50 86 bc bd 8f 2f 04 bd 1f c1 4f 3d
       -0.0067619677 -0.092053056 -0.032271918 0.050721284
0000d0 91 21 aa bb 26 8b 70 3b f7 9a 95 bd f3 f9 6c 3d
       -0.0051919897 0.0036704033 -0.07304948 0.057855558
0000e0 f3 9b 50 3d c5 c1 a7 3d 79 29 41 bd 6c ad eb bc
       0.050929975 0.081912555 -0.047158692 -0.028769217
0000f0 26 d8 a9 bd 4d 05 34 3d 50 f8 ad 3d 91 45 34 3d
       -0.0829318 0.043950368 0.084946275 0.044011656
000100 28 b5 19 3d 2a 8e 8f 3c 6c 92 b7 bc 62 32 8a 3c
       0.03752628 0.017523844 -0.022408687 0.016869728
000110 64 cc 9d 3c d7 a5 10 3d b0 43 bb 3c f1 ce a2 bc
       0.0192625 0.035314407 0.022859424 -0.019874068
000120 5e fd c5 3d 53 c5 54 bd 3e e5 d3 bd 3b f5 58 3c
       0.096674666 -0.051945996 -0.10346459 0.013242061
000130 10 7f 88 3b 86 fa 8a bd 36 46 cd bc 29 be f8 bb
       0.0041655377 -0.06786065 -0.025057893 -0.007591028
000140 9b 7a 3c bc 1a 96 cc bd b3 7e a8 3d fd ed ac bd
       -0.011503841 -0.09989567 0.08227291 -0.0844383
000150 af 0a 4a 3c 75 54 eb bc a6 7b 63 3d ea 63 28 3c
       0.012331649 -0.028726796 0.055537842 0.010277728
000160 34 c7 b0 bb 12 7a 9f 3c df ee 07 be a5 b6 51 3c
       -0.0053948406 0.019467387 -0.13274716 0.0127998935
000170 fa 2e 26 3c 21 ce b1 bc c3 a8 89 bd 6c ff 67 bd
       0.010143036 -0.021704735 -0.06721642 -0.056640074
000180 88 09 ff bc 56 d7 dd 3c 70 d4 82 bd 87 cc b0 bc
       -0.031132475 0.02708022 -0.063881755 -0.021581901
000190 52 39 53 3c 49 87 3c 3d df a0 63 bc ec 2f 48 bc
       0.012892084 0.046027455 -0.013893335 -0.012218457
0001a0 1d a7 0a be e7 b8 c1 bd 9b d8 50 3d b2 a7 35 bd
       -0.13540311 -0.094590954 0.05098782 -0.04434938
0001b0 07 b9 0e bc 8c 8f 47 3d 67 7e 62 3c 66 fe 21 3c
       -0.008711106 0.04872088 0.013824082 0.0098873135
0001c0 eb 54 07 bd 4a 1e 2f 3d 11 1d a7 bc 07 71 c8 bd
       -0.03303997 0.042753495 -0.020399602 -0.09787183
0001d0 f3 90 87 3d 9e b0 19 3d 18 60 40 bc 83 4b a4 3b
       0.06619444 0.03752195 -0.011741661 0.0050138845
0001e0 cc 75 6c bd f0 5c 40 3b 48 d0 0e 3d 34 50 87 bc
       -0.057729527 0.002935227 0.0348666 -0.016517736
0001f0 22 13 2e bd ea 1f 5f bc de e9 d4 bd 7e 15 a8 3b
       -0.042498715 -0.013618449 -0.10396169 0.005129515

conv2.lin.weight f4 [128, 128]
000000 20 25 6c bd 8c 66 a0 bb 35 ac f2 3c 5e fe 99 3d
       -0.057652593 -0.004895037 0.02962313 0.0751922
000010 ff 05 b5 bd 5a 37 ac bd 94 30 46 bb ea 8e 30 be
       -0.08839034 -0.08408995 -0.0030241357 -0.17242017
000020 a6 a6 e7 bc 8f ed 21 bd b5 6c 15 bc 29 08 11 bd
       -0.028277706 -0.039533194 -0.009120156 -0.035408173
000030 e1 1f 0a 3e 54 46 f5 bb ff 28 3c 3d 9b fd 0e 3e
       0.13488723 -0.0074851904 0.045937534 0.1396393
000040 42 62 8e 3d 97 12 42 3d c6 13 cc 3c d6 ed c3 3d
       0.06952335 0.04738101 0.024911772 0.09566848
000050 0c f1 d0 3d 43 73 5f bd 5b 7f 33 3c 92 6e 5c bd
       0.10202226 -0.05455328 0.010955657 -0.053816386
000060 79 3c 84 bc b8 fe 2f bd 02 b9 02 3d a4 59 eb 3c
       -0.016142117 -0.042967528 0.03191472 0.028729267
000070 78 63 93 3d 5c 67 9f bd 55 bd 8c bd fc d8 fd 39
       0.071967065 -0.07783386 -0.0687205 0.00048417586
000080 ef 10 98 bc 5e d0 db 3c 0c a4 39 3d d8 1f 3e bd
       -0.018562762 0.026832756 0.045322463 -0.046417087
000090 a1 72 1c bd 5b f3 d8 bb 67 95 a6 3d cf 97 b9 3d
       -0.038195256 -0.006620807 0.08133965 0.09062158
0000a0 c9 24 8c 3d 42 28 93 3b e9 e4 b9 bd fc 95 c1 bd
       0.06842954 0.004490883 -0.09076864 -0.094524354
0000b0 4e 36 01 bd f0 97 d0 3d 65 0d 87 bd f4 bc 2e 3d
       -0.03154593 0.1018523 -0.06594352 0.04266067
0000c0 27 e1 05 3e 56 bc 8f 3d 70 9f 03 3d 7e 30 37 bd
       0.1307417 0.07018344 0.032134473 -0.04472398
0000d0 e4 16 44 bc c7 4b 0c bd 86 bd 11 3d fc 60 a3 3a
       -0.011968348 -0.034251954 0.035581134 0.0012464817
0000e0 86 1d a4 bc d3 3e 01 be 02 95 c9 bd a8 da 9a 3b
       -0.02003361 -0.12621622 -0.09842874 0.004725773
0000f0 bf b4 47 3c 94 24 63 bc d1 bc 82 bc c4 1d bd 3d
       0.012189089 -0.013863701 -0.015959175 0.09234193
000100 a1 39 c3 bd c7 b1 15 3d 66 b4 0b be 1a f7 91 bd
       -0.09532476 0.036546495 -0.13643035 -0.07127209
000110 48 a6 9e 3d 78 c3 07 bd 46 b0 d9 3c b0 a5 a6 bd
       0.077465594 -0.033145398 0.026573312 -0.08137071
000120 16 48 3f bd bf 17 fa 3c e1 1e 0b bd fe a3 c0 3c
       -0.046699606 0.030528901 -0.033964995 0.023515698
000130 33 58 0b bc db 41 de bd 43 57 fd 3c f1 9a 3c bd
       -0.008504915 -0.10852405 0.030925399 -0.0460462
000140 51 fd 22 bc 00 92 01 bd 92 a7 9f 3c b5 61 f7 3d
       -0.009948091 -0.031633377 0.019489083 0.12079183
000150 13 5c 2b 3d b4 b5 82 bd 81 32 39 bc 84 54 98 3c
       0.041835856 -0.06382313 -0.011303545 0.018594988
000160 7e 76 95 3c 32 39 0f 3d e0 24 a8 3c d3 63 5f bc
       0.018244978 0.034966655 0.020525396 -0.01363464
000170 6d de ac 3c f7 e9 19 bd 5f 47 40 3b 31 33 71 3d
       0.021102155 -0.037576642 0.0029339415 0.05888671
000180 0d e9 c7 bd ae 37 5c bb a1 28 59 bd 1c 69 9a 3a
       -0.09761248 -0.0033602524 -0.053017262 0.0011780593
000190 1c 4e 2d bc 35 9e 17 3e 23 b5 b3 3d c0 38 79 bd
       -0.010577705 0.14806445 0.087747835 -0.060845137
0001a0 de 56 7f ba 0e 5d e1 bd 3b 64 96 3d 26 4c 06 be
       -0.0009740422 -0.11004077 0.07343336 -0.13114986
0001b0 8a f8 7e 3d 8f 7a 40 bc fa 3b e4 3c 7e 38 c0 3d
       0.062248744 -0.01174797 0.02786063 0.09385775
0001c0 be d4 be bd 5a ad 4f 3d 78 db 79 3d 80 74 1f bd
       -0.09317921 0.05070243 0.061000317 -0.038929462
0001d0 72 e3 c5 3d df 4c 31 3d 36 7d 12 3c 7f c7 68 3d
       0.096625224 0.0432862 0.008940985 0.05683088
0001e0 70 8f 96 bd f8 8a bd bd b3 bf 2d bd 67 ec 5c bd
       -0.07351577 -0.09255022 -0.042419147 -0.05393639
0001f0 8f f0 df bd a8 84 b3 bd aa 19 e4 3d 9d 99 8e 3d
       -0.10934555 -0.087655365 0.111377075 0.06962893
000200 d4 ed 8d bc 72 a5 fd 3d 9a de 4d bd 66 96 31 be
       -0.01732532 0.12385072 -0.050261118 -0.17342529
000210 69 9c a2 3d c0 22 32 3e 75 55 b6 3c 4b 04 6a 3c
       0.07939989 0.17396069 0.022257546 0.01428325
000220 df 5b 17 bd 60 2a 0a be bc 9e b1 bd fe a5 ab bd
       -0.03695285 -0.13492727 -0.08672854 -0.0838127
000230 12 3e 2f 3d a1 fa 3a 3e be 24 8a bd 71 06 93 3d
       0.042783804 0.1825967 -0.06745289 0.07178963
000240 cd ab 80 bd 30 cc 07 be af a3 4d 3d 42 9a 07 3e
       -0.062827684 -0.13261485 0.05020493 0.13242438
000250 e4 41 4b 3d 66 6a 00 3d f6 6b 25 3e c0 bb 39 3d
       0.049623385 0.03135147 0.16154465 0.045345068
000260 60 98 49 be f5 4c a5 bd 34 4e 1b bc a8 02 ff 3d
       -0.19687033 -0.08071319 -0.009479094 0.124516785
000270 fd ba 74 3d ca e8 93 bc 54 54 3c 3b b0 08 61 bd
       0.05974864 -0.018055338 0.0028736787 -0.054939926
000280 af 4a f9 bc 84 b3 c3 3d 88 aa 25 3d 8a 20 52 bd
       -0.03043112 0.09555724 0.040445834 -0.051300563
000290 22 27 08 3e f5 f7 12 be e8 73 89 3b 21 72 90 bd
       0.13296178 -0.143524 0.0041947253 -0.07053018
0002a0 af 94 7e 3d 52 fa f2 3d 12 22 ba bd 06 11 63 bd
       0.062153514 0.11864151 -0.0908853 -0.055436157
0002b0 ed fa 65 bc 29 6b a6 3b 0d bd 34 3d e0 77 d6 bd
       -0.014036876 0.0050786925 0.044125605 -0.10472083
0002c0 b2 ba 7b 3c 96 b8 4b bd f8 59 6e bd ef 1f 79 3d
       0.015364336 -0.04973658 -0.05819127 0.06082147
0002d0 4f 8e 54 bd 03 91 f0 3d 02 5a 88 3c 97 cb 03 3e
       -0.05189353 0.11746409 0.016644482 0.12870632
0002e0 74 43 24 3c aa 21 b3 bd ab f5 2f 3d 2b 6b 08 3d
       0.010025848 -0.08746655 0.042958897 0.03330533
0002f0 0b a4 6b 3c 23 9e 18 3e ef 62 24 3d 65 44 e6 3d
       0.014382373 0.14904074 0.040133413 0.11243514
000300 52 93 75 3b 65 25 27 bc 47 cf c3 3d f9 eb 21 bd
       0.0037471843 -0.010201787 0.095610194 -0.03953168
000310 e4 b6 be 3c b9 51 9f bd 4f f6 f6 3d 2f 27 ac bd
       0.023280568 -0.07779259 0.120586984 -0.08405911
000320 6d bc d0 3d 69 b7 3f bd 39 57 b8 3d c0 79 90 bb
       0.10192189 -0.046805773 0.090010114 -0.004409045
000330 6f a7 c2 3d 52 53 61 3d 5f 44 ec bd bb 36 29 bd
       0.09504592 0.0550111 -0.11536478 -0.04131196
000340 d7 0d 42 be 43 74 e9 3d 5d 10 e6 bd c1 26 1f 3d
       -0.18950592 0.11399128 -0.1123359 0.038855318
000350 c8 99 a5 bd 46 ad 45 3d 14 ca c9 3c e3 ee f3 bc
       -0.08085972 0.04826095 0.024632491 -0.029776996
000360 39 91 88 3d 50 a1 84 3c 19 29 5f bd a9 91 00 be
       0.06668324 0.016190201 -0.054482553 -0.12555565
000370 0b a0 ed 3d 4a db 22 3d 28 96 e3 3c 8c e2 ce bc
       0.116027914 0.03975991 0.027781561 -0.02525451
000380 aa 23 b6 bd 8b d9 e5 bd ff 4a a9 3d 4d 96 3d 3d
       -0.08893521 -0.11223134 0.082662575 0.046285916
000390 5c ba a7 3b 95 60 88 3c d9 29 08 bd f3 d6 d3 3c
       0.0051186513 0.016647616 -0.033243034 0.025859332
0003a0 6a f1 7d 3d 4d 2d 19 3e 6e e1 ad bd 01 b1 31 3d
       0.06199781 0.14958687 -0.08490263 0.043381695
0003b0 9b a6 0e 3d 86 aa 22 3d a2 2b cf 3a 4b 41 d1 3d
       0.034826856 0.039713405 0.001580585 0.10217532
0003c0 39 76 15 be e2 ea 7f 3d d2 02 81 bc 19 8a f4 3d
       -0.1459588 0.06247986 -0.015748415 0.119404025
0003d0 cd c4 8c bd 0c bc f6 bd cc 6f f8 3d c5 e7 75 bd
       -0.06873474 -0.12047586 0.121306986 -0.060035486
0003e0 8b 7f 80 bd b2 8d 8c 3c 0c 2f 64 3d c9 1a 49 bb
       -0.06274327 0.01715741 0.05570893 -0.0030686131
0003f0 57 a9 89 bd 61 8c 2f be a2 ea 01 3e 47 48 97 3c
       -0.06721752 -0.17143394 0.12687162 0.018467082

conv3.att_src f4 [1, 1, 7]
000000 7b 70 a7 3e 74 8b e1 bd 60 fd a8 3d 27 ce 39 3e
       0.32703003 -0.11012927 0.082514524 0.18145047
000010 b0 3d 97 3d cc 86 8b 3e 95 5c 63 bd
       0.07384813 0.2725128 -0.055508215

conv3.att_dst f4 [1, 1, 7]
000000 31 32 e7 3e a6 92 e1 bd 6b d6 f3 bd 0f 12 88 bd
       0.4515548 -0.11014299 -0.11906131 -0.066440694
000010 df 1a 7e be 83 e2 92 be 9e ac a0 3d
       -0.24814938 -0.2868844 0.07845424

conv3.bias f4 [7]
000000 72 3b 81 3e b4 3c d6 be 41 8a 46 3e d2 0e be 3e
       0.25240666 -0.41843188 0.19388677 0.37120682
000010 fc f2 80 3e 44 51 11 3d 42 a5 ea be
       0.25185382 0.03547789 -0.45829207

conv3.lin.weight f4 [7, 128]
000000 5d 0b 9e bd 0e 25 2f be b4 8b 8b 3d 87 7e 78 bd
       -0.07717011 -0.17103979 0.06813756 -0.06066754
000010 d1 ab 2f 3d 0f 4f 34 bd 61 fc a5 bc eb 14 83 bd
       0.042888466 -0.04402071 -0.020261945 -0.06400474
000020 7e 1b cd bd 20 7b 8c bd ed 64 cc bb 4a 4f b3 3d
       -0.10015009 -0.06859422 -0.006237617 0.087553576
000030 4b c9 9e bc d2 0c 50 3d 39 10 5a bc 47 f6 0a 3e
       -0.019383093 0.050793476 -0.013309532 0.1357051
000040 9e a7 27 be e5 dd b8 3c 14 e3 51 3c 76 5d 60 3d
       -0.16372535 0.022566745 0.012810487 0.05477663
000050 52 e0 60 bd 19 eb c0 bc 0a cc 02 3c 09 e3 05 be
       -0.05490143 -0.023549603 0.007983217 -0.13074888
000060 3e dd b6 3d ab 21 88 bd ac 61 a7 bd 04 fd 00 3e
       0.08928917 -0.06647047 -0.08172926 0.12596518
000070 a0 d2 e7 3d 56 4c 06 bd 05 85 c1 3d 89 e2 a7 3d
       0.113194704 -0.032787643 0.094491996 0.08197505
000080 10 71 83 3d 15 72 83 bd 4c af 2d be b8 ff fa 3d
       0.06418049 -0.06418244 -0.16961402 0.12255806
000090 b5 ff 04 3d 07 b2 f5 3a d9 83 8d 3d 43 98 31 bd
       0.032470424 0.0018745073 0.069099136 -0.0433581
0000a0 41 82 a5 3d 9b cd d7 3d 95 82 1b be 1b 7a 99 bd
       0.080814846 0.10537263 -0.15186532 -0.07493993
0000b0 55 ea 69 3d 57 34 e3 bd 5d eb 27 be 95 3c 80 3d
       0.057108242 -0.110939674 -0.16398378 0.06261555
0000c0 98 b5 3c bc f8 43 e4 3d 4a f0 ee bd 76 5f e0 3c
       -0.011517905 0.111457765 -0.11666925 0.02738927
0000d0 21 c1 da 3d 2c 58 8d 3d 47 67 61 bd 57 d4 30 bd
       0.10681368 0.06901583 -0.055030134 -0.043171253
0000e0 32 68 b2 3b 52 48 d9 ba 6e 50 a2 bd af ea f3 3d
       0.00544455 -0.0016577339 -0.07925497 0.11909997
0000f0 b5 fd 35 be b6 a5 8d 3d 24 cb 99 3d 97 05 fb 3d
       -0.17772563 0.069163725 0.07509449 0.122569256
000100 9b 23 08 3d ae 3b 08 be 58 4a 13 be 0b cb b7 bd
       0.03323708 -0.13304016 -0.14383829 -0.08974274
000110 c2 c5 63 ba 4c 95 b6 3d b3 bc 2d be 56 10 71 bd
       -0.0008688831 0.08915195 -0.16966514 -0.05885347
000120 f6 c8 47 bd 3d 23 cc 3d 97 58 52 bd 0c b7 b1 bc
       -0.048775636 0.09967659 -0.051354017 -0.021693729
000130 03 a2 13 be 27 da 7c 3d fd 3a c8 bc ad 64 b2 3d
       -0.14417271 0.061731484 -0.02444219 0.08710609
000140 dd c9 a4 3d c6 61 76 bd 45 ec c4 3d b4 fa e2 bc
       0.08046315 -0.060151838 0.09615377 -0.027707435
000150 a1 7a 0b 3c 4e bd ed bd 67 11 14 3d 5c ab 11 be
       0.008513124 -0.11608373 0.03614941 -0.14225525
000160 0b f8 16 be 13 ce be bd da 0a 23 bd cf 8a 1d bd
       -0.14743058 -0.09316649 -0.03980527 -0.038462456
000170 df fb 96 bd b7 11 f2 bc e9 47 27 bd d4 cf 52 bd
       -0.07372259 -0.029549463 -0.040840063 -0.05146773
000180 aa 10 75 bc 1f c3 1c 3e 2e e6 d3 3c b2 ee bc 3d
       -0.014957586 0.15308808 0.025866594 0.09225215
000190 ae c4 0b be 26 95 be 3c 5b f0 24 be 24 c5 22 ba
       -0.13649246 0.023264479 -0.16107313 -0.0006209186
0001a0 fb f9 98 bc 8a f2 0a bd 56 3c 8d 3d fa 11 15 be
       -0.018673887 -0.03392271 0.06896274 -0.14557639
0001b0 46 86 c3 bd ae 8c bc 3b 4a e3 b9 bd 07 e0 6c 3d
       -0.09547095 0.005754075 -0.09076555 0.057830837
0001c0 07 57 be bd 61 df 52 3d fb 8d 5a be 78 6f e3 3d
       -0.09293943 0.051482562 -0.21343224 0.11105245
0001d0 36 8d 36 3d 32 b8 d3 3d c7 17 67 bd 90 ac b6 3d
       0.044568263 0.10337867 -0.05641916 0.089196324
0001e0 29 1f 69 3d 7c 96 8e bd 97 d2 03 bd bf 03 d9 bd
       0.056914482 -0.06962296 -0.032183256 -0.10596418
0001f0 a5 6a 95 bd fc ae 79 3c f3 54 6f bd 46 56 b0 bd
       -0.072957315 0.015239473 -0.058430623 -0.08610205
000200 d9 4e 3e bc cb 6a e0 3d ad a7 c2 bc 13 fa 6a 3c
       -0.011615478 0.10957869 -0.023761595 0.014341849
000210 80 3d 06 be 88 b6 19 bd d8 6c a5 3e b5 2e 59 be
       -0.13109398 -0.03752759 0.32309604 -0.21209224
000220 d7 99 30 be b8 f6 17 3e ba f6 df 3d 07 a2 bf 3d
       -0.17246185 0.1484021 0.10935731 0.09357076
000230 e5 37 18 3e 7c ac 03 3e 48 58 1c be e7 c4 29 3e
       0.14865072 0.12858766 -0.15268052 0.16579019
000240 ee 14 6b bd 39 6b 4c 3e 84 a8 fd bd ca 6a 60 be
       -0.057393007 0.19962777 -0.123856574 -0.21915737
000250 ff 57 61 bd 48 2f a7 bd 61 41 65 3e 05 72 62 bd
       -0.05501556 -0.08163315 0.22388221 -0.05528452
000260 bb fc dc 3d fd c1 85 3e 56 31 d1 3d 3d bd be 3d
       0.10790392 0.26124564 0.10214488 0.09313438
000270 e7 6e 57 3d d6 f3 c4 3b 8e 5c 86 bd 92 83 33 bd
       0.052596 0.006010513 -0.06560622 -0.043826647
000280 ae 25 2c bd be a2 60 bc 4c 00 00 3e 03 d4 99 3d
       -0.04202812 -0.013710676 0.12500113 0.07511141
000290 b7 4f 73 be 9e b5 48 3e 79 0c 39 3e 97 cd 3c 3e
       -0.23760878 0.19600531 0.18071164 0.18437801
0002a0 4a d8 5b 3c 13 83 21 3e d2 34 89 bd 10 63 54 3e
       0.013418267 0.15772657 -0.06699528 0.20740914
0002b0 a5 6d 5c bd d8 5d 80 be 22 b2 6a bd 60 3e 95 3d
       -0.053815503 -0.25071597 -0.057298787 0.07287288
0002c0 b1 d0 1a 3e 23 b2 5a 3e 7f 7d 3c be 61 fb 87 bd
       0.15118672 0.21357016 -0.18407248 -0.066397436
0002d0 fd bd 1f be 98 96 ec bd 35 66 f2 bc 63 7a 1c 3e
       -0.15599819 -0.11552161 -0.029589752 0.15281062
0002e0 5b bd be bd b2 b3 c1 bb 6f f0 79 3e 5d 73 53 3e
       -0.093134604 -0.005911314 0.24408124 0.20649476
0002f0 e0 26 ed 38 a5 9d a4 3d 93 bd 40 3e 7c 69 8d 3d
       0.00011308282 0.08037881 0.18822317 0.06904885
000300 62 1c ea bd e7 3d 40 3d e7 43 82 bc a8 22 b9 3c
       -0.11431195 0.046934035 -0.015901519 0.022599533
000310 8a 8d 26 be 00 f0 ec ba e6 cc e3 3d 84 48 1d 3e
       -0.1626493 -0.0018076897 0.11123066 0.15359694
000320 89 ff 04 3d bd 75 48 3e b7 1a 75 3e 45 c3 c9 3d
       0.03247026 0.19576164 0.23935972 0.09851698
000330 f6 36 4f be 12 10 80 3e 62 5d 06 be 0d 31 ef 3d
       -0.2023581 0.2501226 -0.1312156 0.116792776
000340 c9 64 e0 3d 2c a2 1e 3e 85 58 2e 3e 67 5e 74 3e
       0.10956723 0.15491551 0.17025955 0.23864137
000350 e6 04 29 be 4e d0 31 be 4f 44 93 be e4 86 23 3e
       -0.16505775 -0.17364618 -0.28763053 0.15969425
000360 f5 56 8e 3d 4a 76 84 bd 68 8a b1 3d 4a be f0 bd
       0.069501795 -0.06467874 0.08668977 -0.11755045
000370 c2 d8 d4 3d 4e 1e 19 be 2e 19 5b 3d 2f 57 79 3e
       0.10392906 -0.14952967 0.05349081 0.24349664
000380 08 bf 33 3d cc fe df bd 7a d9 80 3d 8f 9c 4d 3d
       0.043883353 -0.109372705 0.0629148 0.050198134
000390 a2 e5 22 3d 9a d7 3e bd 46 8c 46 be 44 f5 c9 bd
       0.039769776 -0.046592332 -0.19389448 -0.09861234
0003a0 80 16 2b 3d f7 1e 37 3e da 46 24 3e 78 c6 ae bc
       0.041769505 0.17882906 0.16042653 -0.021334872
0003b0 d5 a6 15 bd 67 0a 80 be 8b 14 89 3e 01 76 d0 3d
       -0.036536057 -0.25007936 0.26773486 0.101787575
0003c0 ed c3 f6 3d 26 45 17 be 67 e3 ba bd 4c 2b d7 3d
       0.120490886 -0.14772472 -0.09125405 0.10506305
0003d0 42 aa 43 3d f6 d2 b6 3d 22 8d 52 bd 61 f3 13 3d
       0.047769792 0.08926956 -0.051404126 0.036120776
0003e0 1c 91 e0 bc c9 84 2b 3e f3 b6 a8 be 48 48 29 3e
       -0.027412944 0.16749872 -0.3295208 0.1653148
0003f0 54 3d 3d 3b c1 02 64 be f2 25 6e 3e f9 81 3f 3e
       0.0028875666 -0.22266676 0.23256662 0.18701924
