models/Cora_gin_model.pth (torch, 108978 bytes, 26 tensors)

conv1.nn.0.weight f4 [16, 1433]
0.053031728 0.033653412 -0.08478501 -0.041332897 -0.12009985 0.018916905 0.029308861 0.16908741
-0.17864011 0.020404443 0.0028677182 -0.019209277 0.041542057 -0.04510212 -0.07670567 -0.0824743
-0.010972173 -0.053135462 0.08713304 0.014289191 0.097117186 -0.028619064 -0.020055115 0.0056069996
-0.012347477 0.0010062086 0.056984205 0.09673185 -0.089969 0.026701694 -0.0004141745 -0.04914949
-0.059833884 -0.05733703 -0.03152051 0.019290714 0.09532444 0.082465395 0.103712 0.056455463
-0.0328144 0.036599718 0.107396305 -0.04629269 0.1212499 0.061901484 0.041317318 -0.040597577
0.030205509 0.045158368 -0.028386204 0.10903358 -0.11655947 -0.022313554 0.0573252 -0.10065014
0.025977984 -0.049595453 -0.05794776 0.022415947 -0.025047103 0.030002367 0.004810676 -0.12584706
-0.032984942 -0.093743905 0.104505636 0.076401696 -1.5571597e-05 0.09165389 -0.008363495 -0.072128594
-0.03252861 -0.014071735 -0.07559583 -0.04097028 0.043640155 0.0174426 -0.20555997 0.11134395
0.07387449 -0.0630901 -0.047722746 0.0850598 0.01292339 -0.05407425 -0.012863971 0.065131485
-0.049529616 -0.07353263 -0.1553584 0.10021868 0.0047837496 -0.021598635 -0.06549745 0.018873347
-0.04380154 0.08224478 0.17039974 0.059275314 -0.004357921 -0.099589765 0.0007629273 0.15253909
-0.06703439 -0.058225337 -0.014899919 0.019092396 0.013073332 -0.038006447 0.028305346 0.0111585995
0.17776465 0.05755292 -0.04689597 -0.061640143 0.10441839 -0.07253377 0.08780201 -0.045104902
-0.10740797 -0.06125823 -0.017374083 0.028976336 -0.0340388 -0.019617548 0.07556172 0.1205288
-0.08004739 0.056118708 0.10805677 0.12236734 -0.02546821 0.15249479 -0.08444191 0.05349642
0.04985705 -0.0025949415 0.13521083 -0.03974831 0.072249874 0.052151594 0.038830645 -0.07012106
0.108001836 0.17336063 -0.0214857 -0.13146283 0.015907135 0.0073523507 -0.072009765 -0.086948805
-0.07012102 0.04846822 0.033002187 -0.062430307 -0.0413338 -0.010251285 0.00024565466 0.013457626
-0.042788826 0.0015269526 0.0732619 0.07366661 0.06480698 -0.04394866 -0.18542041 0.028185306
0.04298985 -0.03792843 0.05900915 -0.06357353 0.04608516 0.0815415 -0.0427716 -0.07448259
-0.0023735163 0.027490692 -0.0005720157 0.042221896 0.018155416 0.045801017 -0.10331669 0.088054076
0.009117141 -0.026704783 -0.050254285 -0.07487298 -0.030582896 0.0067640506 -0.050176505 0.055578243
0.09400039 -0.058441035 0.020324813 0.10167208 -0.03618751 0.002755206 0.014580221 -0.08950985
-0.062227927 0.023985965 -0.029418059 0.044792403 0.0041602217 -0.012920758 -0.027945703 -0.05613809
0.0031685494 0.06378901 -0.03371249 -0.002046049 0.13932301 0.097656325 -0.09881849 0.088791676
-0.12842622 0.005775987 -0.062018864 0.059604954 0.031602394 0.0831167 0.029622916 0.023474243
-0.14320531 0.21090665 -0.04210121 0.12848523 0.056041457 0.017673733 0.05939488 -0.15468247
-0.04148955 0.009073594 -0.07563844 0.0064458074 -0.019554762 0.08557344 0.037037052 0.009603841
-0.067776196 -0.029092073 -0.052992806 -0.05228808 -0.06648762 0.012949684 -0.12213256 0.017591113
-0.0115677295 0.19387613 0.068739414 -0.09275628 -0.026982972 -0.010249489 0.04528784 0.054512255
00000000: cc37 593d 29d8 093d c3a3 adbd af4c 29bd
00000010: e9f6 f5bd a0f7 9a3c 2319 f03c 4025 2d3e
00000020: 6fed 36be 3827 a73c 54f0 3b3b c65c 9dbc
00000030: 0128 2a3d 00bd 38bd dd17 9dbd 49e8 a8bd
00000040: a1c4 33bc 92a4 59bd cf72 b23d 361d 6a3c
00000050: 60e5 c63d 8772 eabc a04a a4bc ecba b73b
00000060: 124d 4abc c2e2 833a 4568 693d 591b c63d
00000070: ab41 b8bd 83bd da3c 8f25 d9b9 fa50 49bd
00000080: 6014 75bd 3cda 6abd a61b 01bd 8f07 9e3c
00000090: 7639 c33d 9ee3 a83d f566 d43d d83d 673d
000000a0: 6468 06bd 96e9 153d 98f2 db3d 679d 3dbd
000000b0: de51 f83d 698c 7d3d 593c 293d a549 26bd
000000c0: 8b71 f73c fbf7 383d 2f8a e8bc ff4c df3d
000000d0: bbb6 eebd eaca b6bc d4cd 6a3d a921 cebd
000000e0: c8cf d43c 9a24 4bbd a15a 6dbd a6a1 b73c
000000f0: 952f cdbc 86c7 f53c e0a2 9d3b 0dde 00be
00000100: 381b 07bd cefc bfbd 0d07 d63d 7e78 9c3d
00000110: c09f 82b7 09b5 bb3d 0a07 09bc 28b8 93bd
00000120: b83c 05bd 228d 66bc fdd1 9abd 74d0 27bd
00000130: 05c0 323d c9e3 8e3c 507e 52be 4c08 e43d
00000140: 824b 973d 6235 81bd ed78 43bd d533 ae3d
00000150: a0bc 533c f67c 5dbd 68c3 52bc a863 853d
00000160: 91df 4abd 4798 96bd 4616 1fbe 743f cd3d
00000170: 00c1 9c3b 9fef b0bc 8723 86bd 479c 9a3c
00000180: 3e69 33bd f46f a83d 457d 2e3e acca 723d
00000190: e4cc 8ebb b8f5 cbbd 2fff 473a 3533 1c3e
000001a0: 5449 89bd b17d 6ebd ca1e 74bc a867 9c3c
000001b0: 8731 563c a6ac 1bbd 9de0 e73c 8fd2 363c
000001c0: f007 363e 9cbc 6b3d fd15 40bd 607a 7cbd
000001d0: 4fd9 d53d 968c 94bd 8ad1 b33d ebbf 38bd
000001e0: b6f8 dbbd e9e9 7abd 1854 8ebc c85f ed3c
000001f0: 456c 0bbd fbb4 a0bc 1ac0 9a3d ced7 f63d
00000200: e3ef a3bd bbdc 653d de4c dd3d ba9b fa3d
00000210: b5a2 d0bc 9827 1c3e e1ef acbd 101f 5b3d
00000220: e836 4c3d e50f 2abb b574 0a3e 20cf 22bd
00000230: bef7 933d e99c 553d e20c 1f3d a19b 8fbd
00000240: 1130 dd3d 7385 313e c702 b0bc 319e 06be
00000250: ae4f 823c fdeb f03b db79 93bd 3712 b2bd
00000260: 9c9b 8fbd 9d86 463d 4d2d 073d ecb6 7fbd
00000270: a14d 29bd 01f5 27bc 36cb 8039 607d 5c3c
00000280: 5643 2fbd 0724 c83a 560a 963d 85de 963d
00000290: 86b9 843d 8303 34bd d9de 3dbe dfe4 e63c
000002a0: 2016 303d d75a 1bbd 94b3 713d d732 82bd
000002b0: cbc3 3c3d 3bff a63d 4631 2fbd 548a 98bd
000002c0: ff8c 1bbb 2934 e13c 53f3 15ba def0 2c3d
000002d0: abba 943c d999 3b3d b397 d3bd b255 b43d
000002e0: 1060 153c fdc3 dabc 70d7 4dbd 0157 99bd
000002f0: fb88 fabc f8a4 dd3b e185 4dbd 03a6 633d
00000300: 4783 c03d de5f 6fbd 3980 a63c 7439 d03d
00000310: 5b39 14bd b090 343b e1e1 6e3c f150 b7bd
00000320: b6e2 7ebd 377e c43c 24fe f0bc 3d78 373d
00000330: 7852 883b 96b1 53bc 63ee e4bc 0ef1 65bd
00000340: 70a7 4f3b d0a3 823d 1c16 0abd 0217 06bb
00000350: b1aa 0e3e 0a00 c83d 5961 cabd 69d8 b53d
00000360: 2a82 03be 7e44 bd3b 7e07 7ebd 5324 743d
00000370: 8371 013d 1739 aa3d c2ab f23c 0e4d c03c
00000380: 6aa4 12be eaf7 573e 5272 2cbd a291 033e
00000390: ba8b 653d 81c8 903c 0c48 733d 1565 1ebe
000003a0: f2f0 29bd 69a9 143c 54e8 9abd 5a37 d33b
000003b0: 4f31 a0bc 2141 af3d 2ab4 173d 6e59 1d3c
000003c0: 3fce 8abd 8052 eebc fc0e 59bd 072c 56bd
000003d0: a92a 88bd e92a 543c a320 fabd 3d1b 903c
000003e0: 9386 3dbc 7787 463e 40c7 8c3d 01f7 bdbd
000003f0: 650b ddbc 79ed 27bc be7f 393d 3e48 5f3d

conv1.nn.0.bias f4 [16]
-0.041313995 0.15653689 0.04496397 0.07120844 0.11611782 0.21645674 -0.03244929 0.04324555
0.20199895 0.04693708 -0.026811717 0.057238944 -0.058845308 -0.024940964 -0.0109924935 -0.04097607
00000000: dd38 29bd 354b 203e 242c 383d bbd5 913d
00000010: 2ecf ed3d d6a6 5d3e 8ce9 04bd 3f22 313d
00000020: d0d8 4e3e 1841 403d 3fa4 dbbc 6273 6a3d
00000030: c707 71bd fe50 ccbc dc19 34bc 86d6 27bd

conv1.nn.2.weight f4 [16, 16]
-0.1610576 -0.2960911 0.13833913 0.19544491 0.17369394 0.15708521 0.042242836 -0.3460111
-0.015223082 -0.05315324 -0.013027579 0.12171121 -0.04891121 0.03355288 0.25186452 3.0710224e-05
-0.13781238 -0.050571736 0.15356104 0.14508171 0.1400191 0.22545047 0.21523851 -0.071287364
-0.27268067 0.28000864 0.08414657 -0.034840703 0.04464037 -0.20989726 0.11347567 -0.0036046675
-0.07731864 -0.015654946 0.04722601 0.20929141 0.13018772 -0.13418819 0.10544751 0.15592755
0.25719848 -0.19256705 -0.061707105 -0.058033034 -0.042924315 0.14063913 0.22019298 -0.011102687
-0.2540823 0.082528844 -0.03475707 -0.32540262 -0.031365983 0.20676981 0.100100406 -0.035339713
0.30773714 -0.07021289 -0.13768482 -0.2145288 -0.08428419 0.21119541 0.19105634 0.047656283
-0.069587596 0.06134737 -0.0043591885 -0.21302271 0.3200976 0.034260202 -0.1024949 -0.04248464
0.28936112 0.016322741 0.051358536 -0.03573757 -0.031594124 -0.05159692 0.06996978 -0.05278111
-0.14591627 0.16655505 -0.007835185 -0.10960869 0.012290546 -0.08347634 0.04423395 -0.23513532
0.19143705 -0.18536969 0.06331536 -0.047145043 -0.016814822 -0.1771141 0.036112607 0.052204404
-0.27914065 -0.1876895 -0.09884842 -0.24358355 0.143401 0.11501732 -0.13160521 0.07820114
-0.099024035 -0.27969515 -0.0633842 -0.15550888 7.3266374e-06 -0.06556252 -0.102828145 -0.15831402
0.04804561 -0.32673463 0.17755659 -0.17448126 0.015699552 0.09854564 -0.062287677 0.11756581
0.29018164 -0.20695224 0.027288683 0.19124253 -5.7004027e-06 -0.018729866 -0.072145455 0.040533338
-0.038532708 0.056864582 0.01604008 0.262235 -0.1641328 -0.064658426 0.17374851 -0.15505148
-9.372089e-05 0.1476163 0.17442168 -0.18120225 0.10861809 -0.11345985 -0.17088951 -0.036691397
-0.15354468 0.41925004 -0.2881536 0.18751472 -0.03746645 -0.13194942 -0.13064557 0.08535715
-0.13802533 0.098895885 0.0016610328 -0.09736923 0.0791763 -0.0641791 -0.063398115 -0.09632962
0.20069766 0.2678463 0.2222825 -0.10831515 -0.10834047 0.39503694 0.068362385 -0.14767146
0.030112855 -0.1323835 0.046506323 0.014337841 -0.045373414 0.12915125 -0.18327907 -0.055518787
0.0672107 -0.27560237 0.24440673 0.020050399 -0.17189737 -0.07592155 -0.29718927 -0.037806354
0.008007915 -0.087187625 0.055604145 -0.04541312 0.011809426 0.022724666 0.18388462 6.2511144e-06
-0.1355446 0.1545193 0.045526363 -0.25271866 -0.16457379 -0.23954375 0.17330284 0.12645778
-0.0113320295 -0.104229555 -0.09096963 0.15643911 0.13989146 -0.15309104 -8.5529384e-05 0.010565516
-0.28601328 -0.25319192 -0.075515896 -0.24798292 -0.13513073 -0.1851935 -0.02627189 0.12275011
-0.043456197 0.012237434 0.12017031 0.11296288 -0.03124782 0.10931714 -0.0012661235 -0.0003076947
0.007150143 0.07964645 -0.018795988 -0.034980074 0.2056001 0.12663113 0.15833211 0.16291621
0.055697773 0.32658735 -0.107733846 0.20876987 -0.09711114 0.037438687 -0.14613317 0.15372868
0.31261793 -0.21224348 0.06819541 0.15068182 -0.06765517 0.07168892 -0.18038414 -0.012767384
0.21700764 0.29348198 -0.026978211 0.13153552 0.055566553 0.14294235 0.10197048 0.033153754
00000000: 49ec 24be 4199 97be c6a8 0d3e b622 483e
00000010: d3dc 313e f2da 203e d306 2d3d 5e28 b1be
00000020: 3c6a 79bc 36b7 59bd a071 55bc ba43 f93d
00000030: 1f57 48bd bf6e 093d 63f4 803e dace 0038
00000040: b01e 0dbe 4f24 4fbd 1b3f 1d3e 4d90 143e
00000050: 2b61 0f3e 7ddc 663e 7c67 5c3e 1cff 91bd
00000060: cd9c 8bbe 4b5d 8f3e 0955 ac3d 20b5 0ebd
00000070: d2d8 363d 4fef 56be ef65 e83d 493c 6cbb
00000080: 3c59 9ebd cd3e 80bc 1070 413d 7d50 563e
00000090: ee4f 053e a168 09be ddf4 d73d 79ab 1f3e
000000a0: 85af 833e 4c30 45be 97c0 7cbd 0cb4 6dbd
000000b0: 68d1 2fbd b403 103e 457a 613e 0be8 35bc
000000c0: 1317 82be e204 a93d 6e5d 0ebd 2c9b a6be
000000d0: 9e79 00bd 77bb 533e 7101 cd3d 60c0 10bd
000000e0: b98f 9d3e c7cb 8fbd 40fd 0cbe 70ad 5bbe
000000f0: 309d acbd 9c43 583e 46a4 433e 3c33 433d
00000100: f183 8ebd 6147 7b3d 86d7 8ebb a022 5abe
00000110: d5e3 a33e 6d54 0c3d d9e8 d1bd 6004 2ebd
00000120: 2427 943e 45b7 853c 545d 523d 8f61 12bd
00000130: d768 01bd 4b57 53bd 514c 8f3d 0131 58bd
00000140: 136b 15be 688d 2a3e 265f 00bc 857a e0bd
00000150: 495e 493c a5f5 aabd a92e 353d 50c7 70be
00000160: 1308 443e 8dd1 3dbe 7cab 813d 291b 41bd
00000170: 3dbf 89bc 665d 35be d0ea 133d 49d4 553d
00000180: 86eb 8ebe ad31 40be 0a71 cabd f76d 79be
00000190: b6d7 123e 338e eb3d 84c3 06be eb27 a03d
000001a0: 1dcd cabd 3434 8fbe 93cf 81bd b83d 1fbe
000001b0: 56d7 f536 a445 86bd 9097 d2bd 121d 22be
000001c0: 79cb 443d c349 a7be 65d1 353e 37ab 32be
000001d0: 599c 803c 4cd2 c93d 5d21 7fbd 58c6 f03d
000001e0: b092 943e 4aeb 53be 848c df3c 15d5 433e
000001f0: 1646 bfb6 606f 99bc ffc0 93bd 4906 263d
00000200: 79d4 1dbd d6ea 683d 7c66 833c aa43 863e
00000210: 6e12 28be a36b 84bd 21eb 313e d1c5 1ebe
00000220: 058c c4b8 ba28 173e 999b 323e 158d 39be
00000230: 2973 de3d a35d e8bd a9fd 2ebe b849 16bd
00000240: d13a 1dbe f1a7 d63e de88 93be dc03 403e
00000250: 6c76 19bd c01d 07be f4c7 05be bbcf ae3d
00000260: 8356 0dbe ed89 ca3d 03b7 d93a 8569 c7bd
00000270: 2f27 a23d 5570 83bd dfd6 81bd 7748 c5bd
00000280: b083 4d3e 2623 893e 069e 633e 55d4 ddbd
00000290: 9ce1 ddbd 4842 ca3e 9401 8c3d 3037 17be
000002a0: 3caf f63c 8a8f 07be 6a7d 3e3d 44e9 6a3c
000002b0: 79d9 39bd 3a40 043e 82ad 3bbe ab67 63bd
000002c0: c3a5 893d c11b 8dbe c245 7a3e bc40 a43c
000002d0: dd05 30be c27c 9bbd 3129 98be d6da 1abd
000002e0: a133 033c 6d8f b2bd 2cc1 633d 1c03 3abd
000002f0: 537c 413c 1429 ba3c 404c 3c3e aac0 d136
00000300: 34cc 0abe 4f3a 1e3e da79 3a3d 5764 81be
00000310: 0886 28be f54a 75be 4d76 313e 267e 013e
00000320: faa9 39bc 4e76 d5bd 494e babd 9331 203e
00000330: b53f 0f3e e6c3 1cbe 3d5e b3b8 fc1a 2d3c
00000340: 5570 92be 5fa2 81be 14a8 9abd 3cef 7dbe
00000350: b65f 0abe 5da3 3dbe 2638 d7bc 6964 fb3d
00000360: 20ff 31bd 857f 483c da1b f63d 1559 e73d
00000370: 6efb ffbc aae1 df3d 0ef4 a5ba 1552 a1b9
00000380: bf4b ea3b ae1d a33d 0bfa 99bc 4447 0fbd
00000390: d588 523e 97ab 013e d021 223e 82d3 263e
000003a0: 5923 643d 7536 a73e 90a3 dcbd c5c7 553e
000003b0: 35e2 c6bd 4f59 193d efa3 15be 0d6b 1d3e
000003c0: 750f a03e 5b56 59be 09aa 8b3d 564c 1a3e
000003d0: cb8e 8abd a4d1 923d 9fb6 38be 4a2e 51bc
000003e0: 4037 5e3e 4543 963e 6901 ddbc 3fb1 063e
000003f0: c199 633d 7b5f 123e e6d5 d03d 3bcc 073d

conv1.nn.2.bias f4 [16]
0.13448283 -0.11759311 0.04924518 0.041812252 0.06375812 -0.19735508 0.33312446 0.110558465
0.05806118 -0.04263002 0.20747522 -0.26770934 -0.14814885 0.09325512 -8.46262e-05 0.019147584
00000000: deb5 093e a8d4 f0bd 50b5 493d 5343 2b3d
00000010: 9e93 823d 7317 4abe 4a8f aa3e 7a6c e23d
00000020: 8fd1 6d3d d19c 2ebd 6274 543e 3311 89be
00000030: 55b4 17be 8afc be3d 5879 b1b8 65db 9c3c

conv1.nn.4.weight f4 [16]
0.7248502 0.85355395 1.0492626 0.96857375 0.8171313 0.5104208 0.7725012 0.87131184
0.91598684 0.9254317 1.0794988 0.6591776 0.47056007 0.9030018 0.811712 0.97455245
00000000: c88f 393f 8382 5a3f 3d4e 863f 73f4 773f
00000010: 842f 513f f0aa 023f a3c2 453f 4b0e 5f3f
00000020: 1d7e 6a3f 18e9 6c3f 042d 8a3f ddbf 283f
00000030: 40ed f03e 202b 673f 5ccc 4f3f 457c 793f

conv1.nn.4.bias f4 [16]
0.23171782 0.05630838 0.17899261 0.025975816 0.13388011 -0.0019839632 -0.011754934 0.028506845
0.13152887 0.1977262 0.28547794 -0.12208008 -0.10102719 0.16336803 0.05614017 0.117510915
00000000: 7047 6d3e 9ea3 663d d749 373e 3ccb d43c
00000010: de17 093e 6105 02bb c497 40bc 3087 e93c
00000020: 81af 063e bd78 4a3e 2a2a 923e 1f05 fabd
00000030: 58e7 cebd f349 273e 3cf3 653d 90a9 f03d

conv1.nn.4.running_mean f4 [16]
0.1642883 1.2191343 0.3397741 0.05771166 0.14391509 0.0015815184 0.009389725 0.07148882
0.8513164 1.1397157 0.61989915 0.003915342 0.023840953 0.034270316 1.793145 1.4246968
00000000: 313b 283e 980c 9c3f dff6 ad3e 1063 6c3d
00000010: 7a5e 133e f44a cf3a 5cd7 193c bb68 923d
00000020: dfef 593f 34e2 913f b6b1 1e3f 454c 803b
00000030: 1a4e c33c 085f 0c3d c685 e53f 775c b63f

conv1.nn.4.running_var f4 [16]
0.16289036 1.6634916 0.51589745 0.06704506 0.122261785 0.0009824957 0.005218047 0.06367193
0.966469 2.3802047 1.0792061 0.0029489265 0.01575227 0.02124839 2.5645971 2.3584313
00000000: bbcc 263e 4bed d43f db11 043f ec4e 893d
00000010: 6364 fa3d 16c7 803a 27fc aa3b 6e66 823d
00000020: 836a 773f 4655 1840 6d23 8a3f c742 413b
00000030: e80a 813c 1b11 ae3c 5c22 2440 8af0 1640

conv2.nn.0.weight f4 [16, 16]
0.3728219 0.07730707 0.16227718 -0.110288486 -0.2415699 -0.03128832 0.07824815 -0.29035246
0.13869457 -0.039620377 -0.112463064 -0.036587976 -0.081075355 0.074670814 -0.083077006 -0.0068230536
-0.20364171 -0.11203743 0.23977195 0.2524264 0.13523212 -0.18046917 0.057390537 -0.06777203
-0.17970635 -0.08621196 -0.4105914 0.089583404 0.030014131 0.002815519 0.0014528818 -0.21546361
-0.19523576 0.11162361 -0.43102428 0.13237832 -0.019506244 -0.2049824 -0.10288941 -0.21864599
0.11116148 -0.06298408 -0.052815743 0.024118591 0.059123315 -0.006695301 0.05323452 0.18520336
-0.16420658 -0.036523327 -0.06849494 -0.26572105 -0.21526185 0.09511296 -0.024556834 0.05419364
-0.11824397 -0.060323935 0.08337305 -0.0012894253 0.077524714 -0.07433048 0.005189901 -0.21928069
0.06384455 0.15765391 0.08171686 -0.28192165 0.18096684 -0.014122328 0.09856516 -0.15175496
0.11955834 0.22094029 0.15390402 0.16898066 0.12972689 -0.0003739209 -0.18963574 -0.21772844
0.015672851 -0.054850746 -0.15351976 0.17412704 0.10195923 -0.068003684 0.33806315 0.11249796
0.23258273 -0.04711161 0.14664444 0.11924687 0.22885413 0.18647829 0.009301759 0.14255676
-0.012128646 0.011734205 0.13113222 0.15269828 0.15475532 0.20349522 0.24375251 0.1656932
0.21594407 -0.12401017 -0.21238405 0.09582174 0.13865064 0.13601229 0.16250713 0.16378358
-0.2870162 -0.1722321 -0.16633834 0.078958675 -0.24297683 -0.016490046 0.21131314 -0.043004207
0.18662234 -0.5040657 0.046077717 -0.005590433 -0.12729196 0.035382155 -0.116316214 -0.0923661
0.18045962 -0.13501617 -0.12586696 0.29042757 0.07463188 0.1152374 0.112208314 0.07334852
0.09284724 -0.041124485 0.29407394 -0.17582831 -0.25650704 -0.22345443 -0.23958276 0.14021298
0.13372163 0.3058449 -0.13541773 0.098386504 -0.27093327 -0.034660794 0.089243256 -0.20784375
0.13584809 0.02822384 0.15848793 -0.21361192 0.13868308 0.33291703 -0.070927456 -0.10717785
-0.14550601 -0.0733921 -0.15647283 -0.18033683 -0.23723021 -0.049863156 0.22624232 -0.14592195
-0.044473 -0.2650786 0.3722433 -0.17719084 -0.09401736 0.06384174 -0.028513188 -0.09492134
0.09505996 -0.1855584 -0.22713362 0.22128773 0.12298207 0.20931172 -0.22596163 -0.14071694
0.3393832 0.16415337 -0.038607113 0.19544765 0.054138124 0.10483348 -0.12144223 -0.29945138
-0.1673046 0.045458116 -0.2744269 -0.07738286 -0.11373124 0.014021703 -0.077898346 0.005178355
0.093383536 -0.2806902 0.19945285 -0.005249449 -0.04865464 0.02800214 -0.124985375 -0.15934488
-0.15991308 0.21646746 -0.15052424 -0.20040253 -0.17654656 0.0032579375 0.102390036 -0.29738793
-0.012917902 0.04417057 -0.4301522 -0.0015676387 -0.07632609 0.170494 0.18101956 -0.24435227
-0.18457654 -0.06586615 -0.23192474 0.21274549 -0.01108776 -0.1097454 0.13451327 -0.037285216
0.114818126 0.1672227 -0.24504057 0.19789498 0.03640063 -0.45212692 -0.03977627 0.23697457
0.024848182 -0.04056261 0.2740818 0.21339278 -0.0036441502 -0.03966093 0.04136611 -0.046884425
0.0478461 0.16415443 0.09659573 0.120882615 0.043517176 -0.35329413 0.025984598 0.14746967
00000000: 83e2 be3e 2b53 9e3d fd2b 263e eede e1bd
00000010: 1a5e 77be 2e28 00bd 9140 a03d 14a9 94be
00000020: f305 0e3e fa48 22bd 0953 e6bd 46dd 15bd
00000030: d60a a6bd 03ed 983d 4724 aabd ec93 dfbb
00000040: 7487 50be e173 e5bd c786 753e 083e 813e
00000050: 4a7a 0a3e e9cc 38be 5712 6b3d 10cc 8abd
00000060: f104 38be e58f b0bd 0939 d2be 8177 b73d
00000070: 32e0 f53c 9284 383b a06e be3a 7ea2 5cbe
00000080: e2eb 47be eb9a e43d 37af dcbe 2f8e 073e
00000090: 8fcb 9fbc e8e6 51be afb7 d2bd bce4 5fbe
000000a0: a1a8 e33d ccfd 80bd 5255 58bd 5a94 c53c
000000b0: 4a2b 723d 4164 dbbb 710c 5a3d f3a5 3d3e
000000c0: c525 28be 7c99 15bd 1347 8cbd 970c 88be
000000d0: 9a6d 5cbe 95ca c23d 6a2b c9bc 26fa 5d3d
000000e0: e529 f2bd 3b16 77bd 7dbf aa3d ef01 a9ba
000000f0: 47c5 9e3d 943a 98bd 0c10 aa3b 1e8b 60be
00000100: eec0 823d 0770 213e 2b5b a73d 0958 90be
00000110: 5f4f 393e 5661 67bc 88dc c93d a765 1bbe
00000120: 01db f43d 2c3e 623e 0499 1d3e 4409 2d3e
00000130: 20d7 043e d00a c4b9 df2f 42be 34f4 5ebe
00000140: 5a64 803c 2dab 60bd 4934 1dbe 5c4e 323e
00000150: 00d0 d03d 8445 8bbd 9d16 ad3e 5565 e63d
00000160: 2b2a 6e3e 1bf8 40bd f629 163e b437 f43d
00000170: bd58 6a3e 2af4 3e3e 6866 183c 66fa 113e
00000180: 3ab7 46bc d340 403c 8647 063e f05c 1c3e
00000190: 2e78 1e3e 0d61 503e 429a 793e 7aab 293e
000001a0: 7120 5d3e 0bf9 fdbd 347b 59be 303e c43d
000001b0: 6ffa 0d3e ce46 0b3e 4568 263e e2b6 273e
000001c0: caf3 92be 9d5d 30be 9954 2abe 16b5 a13d
000001d0: ebce 78be 2216 87bc 7962 583e 2e25 30bd
000001e0: ed19 3f3e 730a 01bf fdbb 3c3d f32f b7bb
000001f0: d358 02be e1ec 103d 3237 eebd 702a bdbd
00000200: 68ca 383e ae41 0abe 45e3 00be ecb2 943e
00000210: 99d8 983d 9601 ec3d 79cd e53d c037 963d
00000220: b226 be3d 2672 28bd dc90 963e 560c 34be
00000230: e454 83be 3dd1 64be 2f55 75be fe93 0f3e
00000240: 53ee 083e b497 9c3e f2aa 0abe dd7e c93d
00000250: c4b7 8abe 7af8 0dbd 2bc5 b63d fed4 54be
00000260: c31b 0b3e af35 e73c a94a 223e 15bd 5abe
00000270: f002 0e3e 1a74 aa3e 6a42 91bd 1080 dbbd
00000280: 87ff 14be 994e 96bd 6a3a 20be 38aa 38be
00000290: 7aec 72be 4f3d 4cbd 11ac 673e 906c 15be
000002a0: 5229 36bd 62b8 87be ac96 be3e 8471 35be
000002b0: 2c8c c0bd 75bf 823d 7d94 e9bc 1f66 c2bd
000002c0: ccae c23d 0503 3ebe b795 68be 4099 623e
000002d0: 06de fb3d d055 563e 7c62 67be 1a18 10be
000002e0: a3c3 ad3e d217 283e 7e22 1ebd 6e23 483e
000002f0: f0bf 5d3d f0b2 d63d b4b6 f8bd b151 99be
00000300: e651 2bbe 4a32 3a3d af81 8cbe e87a 9ebd
00000310: edeb e8bd 49bb 653c 2b89 9fbd 31af a93b
00000320: de3f bf3d a0b6 8fbe 5e3d 4c3e 9203 acbb
00000330: 164a 47bd be64 e53c 55f8 ffbd 4e2b 23be
00000340: 41c0 23be a5a9 5d3e 0723 1abe 5236 4dbe
00000350: 9fc8 34be 1f83 553b deb1 d13d 3b43 98be
00000360: 9ca5 53bc 33ec 343d e93c dcbe 3a79 cdba
00000370: da50 9cbd fb95 2e3e 315d 393e 7b37 7abe
00000380: a201 3dbe d5e4 86bd ae7d 6dbe f4d9 593e
00000390: 70a9 35bc 32c2 e0bd d9bd 093e 62b8 18bd
000003a0: c425 eb3d 6d3c 2b3e eaeb 7abe fba4 4a3e
000003b0: d418 153d 2e7d e7be 71ec 22bd 76a9 723e
000003c0: 6a8e cb3c fb24 26bd 7354 8c3e a383 5a3e
000003d0: b2d2 6ebb 8073 22bd 836f 293d e209 40bd
000003e0: 46fa 433d 1918 283e fbd3 c53d 4e91 f73d
000003f0: 113f 323d f8e2 b4be a7dd d43c 4a02 173e

conv2.nn.0.bias f4 [16]
-0.2146157 0.3295763 0.1386728 -0.022872558 -0.23654011 0.040473036 -0.22664379 0.2505608
0.2296149 0.33163512 -0.0015034035 0.3973578 -0.2624448 0.4198633 0.24491656 0.17544903
00000000: 38c4 5bbe 3abe a83e 3e00 0e3e 3b5f bbbc
00000010: 9237 72be 0ec7 253d 4f15 68be 8149 803e
00000020: 2b20 6b3e 14cc a93e da0d c5ba 7b72 cb3e
00000030: 2a5f 86be 53f8 d63e 68cb 7a3e e9a8 333e

conv2.nn.2.weight f4 [16, 16]
-0.096642666 -0.23304787 -0.03426091 0.19780298 -0.014565706 -0.1827189 -0.22259338 -0.04772133
0.069179006 0.16203627 0.048928164 0.48095992 -0.06445285 -0.06380666 0.072068945 0.087167926
0.028977664 0.15295282 -0.25557572 0.03314745 0.06724366 0.19622865 -0.041477222 -0.06759074
0.32018563 -0.10629141 0.20868038 0.010786014 0.32068428 -0.089653194 0.2108445 0.14028388
-0.11290293 -0.14915624 -0.33216187 -0.041361336 -0.344752 0.06077709 -0.112150885 -0.13947782
-0.024546813 -0.30313057 -0.07391655 -0.27325276 -0.056037243 -0.2936796 -0.029660722 0.06428133
-0.21330847 -0.013393445 0.24567783 0.13897851 0.088821314 -0.064253114 -0.0985281 0.207351
-0.17666276 -0.27945673 -0.03700309 0.10833799 0.011994345 -0.07720094 0.08482756 -0.04760364
0.1204923 0.11885366 0.028473789 -0.07160784 -0.2344772 -0.19639724 -0.276156 -0.17140202
-0.31767458 -0.064943455 -0.059818752 -0.10709775 0.11392583 0.039055433 -0.08057583 0.06825188
-0.21961898 0.11230197 -0.0091924295 0.000219141 0.005986784 -0.120950565 0.021831403 0.009418293
-0.11239604 -0.22237764 0.07362985 -0.0397248 -0.00027135512 -0.36691976 0.43506917 0.34497797
-0.14889492 0.30057815 0.2888318 0.00060328504 -0.180801 -0.09727232 -0.01454255 0.002673123
0.24059811 -0.1984783 -0.35218993 0.08663488 -0.052200984 -0.026414964 -0.14557345 0.1694115
0.09972201 -0.2016909 -0.023598194 0.12798186 -0.07250813 -0.051843207 -0.15928444 -0.27332687
-0.07873531 0.20472437 -0.11167449 0.2068694 0.03670597 0.20890832 -0.057832617 -0.23232982
-0.025667155 -0.4884922 -0.004547919 0.11413931 -0.12746361 0.14923921 -0.27891773 0.30691937
0.121360466 -0.0624803 0.14663059 -0.14972141 -0.12953532 -0.25693038 -0.22139582 -0.27098137
0.10956148 0.22184134 -0.3071405 0.0027837462 0.042917553 0.28512686 0.14848697 -0.120155536
-0.055790555 -0.18674414 -0.24894875 0.0030392068 0.007836182 0.22069035 0.22280847 0.038758155
-0.08871759 0.0033646305 -0.038144484 0.068990536 -0.17344795 -0.20482926 -0.11302167 -0.29444456
-0.18860434 0.16709867 0.3243183 0.07030785 0.032724127 0.16291673 -0.17078522 -0.00016975938
-0.009866918 0.095744066 -0.12885484 -0.00079129566 0.011076532 -0.20480193 0.055724505 0.00053555344
-0.03673311 -0.087326005 -0.0058733514 -0.1111677 -4.4530148e-06 0.10270607 -0.32036927 0.16316213
0.23741569 -0.26873717 -0.042662323 0.01630954 0.18529412 -0.1447711 -0.015290337 -0.05042184
-0.13339165 0.08193159 0.17799225 0.16729596 0.18830098 0.07323375 -0.041941646 0.12639911
0.13392729 0.10970062 0.3054882 0.02504554 -0.29944864 -0.046001922 -0.092270285 -0.4805005
0.14616922 -0.044140693 -0.3074101 0.05719819 -0.024881994 -0.1916483 0.09367983 -0.07388557
-0.1078888 0.17301899 0.06417186 -0.03203312 -0.42687142 0.15678795 0.26077154 -0.015927225
-0.13560694 -0.13446921 0.19038944 0.17239505 -0.027716642 0.15273674 -0.1842438 -0.25547212
-0.07921662 0.3153708 -0.05014178 0.086050384 0.16822009 -0.26752397 -0.2448006 -0.16533056
0.0666865 -0.09763469 0.10386048 -0.14248005 0.2226819 -0.26595578 0.16765305 0.13078812
00000000: 97ec c5bd 1aa4 6ebe 2b55 0cbd dd8c 4a3e
00000010: 00a5 6ebc aa1a 3bbe 85ef 63be 7177 43bd
00000020: b9ad 8d3d d6ec 253e e668 483d 6140 f63e
00000030: dbff 83bd 11ad 82bd e298 933d 1985 b23d
00000040: 9162 ed3c aa9f 1c3e d2da 82be 9fc5 073d
00000050: 0bb7 893d 2af0 483e 05e4 29bd 046d 8abd
00000060: 5fef a33e 50af d9bd 4fb0 553e d2b7 303c
00000070: bb30 a43e 189c b7bd 9fe7 573e 94a6 0f3e
00000080: a739 e7bd 6abc 18be 1f11 aabe 816a 29bd
00000090: 5683 b0be 66f1 783d 5daf e5bd 46d3 0ebe
000000a0: 6616 c9bc ee33 9bbe 8f61 97bd c9e7 8bbe
000000b0: 4f87 65bd 2c5d 96be 0bfb f2bc eea5 833d
000000c0: 896d 5abe 2e70 5bbc f892 7b3e 6250 0e3e
000000d0: f3e7 b53d 2397 83bd 1ac9 c9bd d253 543e
000000e0: 15e7 34be f414 8fbe 8d90 17bd 4fe0 dd3d
000000f0: ee83 443c 871b 9ebd 12ba ad3d 09fc 42bd
00000100: abc4 f63d 8c69 f33d dd41 e93c 22a7 92bd
00000110: cb1a 70be 5c1c 49be 5264 8dbe 0384 2fbe
00000120: 3ea6 a2be 1301 85bd 8204 75bd 1156 dbbd
00000130: f251 e93d 97f8 1f3d f104 a5bd a4c7 8b3d
00000140: cce3 60be 93fe e53d d89b 16bc 37c9 6539
00000150: c92c c43b eeb4 f7bd c5d7 b23c 2f4f 1a3c
00000160: e52f e6bd f7b6 63be 3fcb 963d 79b6 22bd
00000170: ab44 8eb9 e8dc bbbe 63c1 de3e f4a0 b03e
00000180: e977 18be 61e5 993e c3e1 933e c625 1e3a
00000190: e623 39be b636 c7bd e043 6ebc 902f 2f3b
000001a0: 5a5f 763e e53d 4bbe 3d52 b4be a16d b13d
000001b0: b3d0 55bd 3264 d8bc 3511 15be 357a 2d3e
000001c0: 0e3b cc3d 0f88 4ebe 0051 c1bc ad0d 033e
000001d0: 247f 94bd 8b59 54bd 761b 23be 80f1 8bbe
000001e0: fa3f a1bd 44a3 513e 98b5 e4bd 92d5 533e
000001f0: 0059 163d 10ec 553e e5e1 6cbd dee7 6dbe
00000200: ed43 d2bc a61b fabe b606 95bb dfc1 e93d
00000210: d285 02be 2ad2 183e 4ece 8ebe 8924 9d3e
00000220: d68b f83d 58eb 7fbd 5426 163e 9250 19be
00000230: e8a4 04be 618c 83be 96b5 62be 12be 8abe
00000240: c561 e03d 602a 633e 8541 9dbe 836f 363b
00000250: 51ca 2f3d 26fc 913e f80c 183e 1b14 f6bd
00000260: a384 64bd db39 3fbe 6cec 7ebe 6e2d 473b
00000270: 5463 003c a7fc 613e e727 643e dfc0 1e3d
00000280: 91b1 b5bd 2281 5c3b 643d 1cbd e94a 8d3d
00000290: 579c 31be c3be 51be e877 e7bd 70c1 96be
000002a0: 7f21 41be ea1b 2b3e 0c0d a63e 90fd 8f3d
000002b0: bc09 063d a5d3 263e 52e2 2ebe 7001 32b9
000002c0: dba8 21bc 7715 c43d 86f2 03be f46e 4fba
000002d0: 587a 353c 99b7 51be 613f 643d 6264 0c3a
000002e0: 7575 16bd fad7 b2bd 3e75 c0bb e4ab e3bd
000002f0: 1b6b 95b6 8f57 d23d 7107 a4be f913 273e
00000300: 191d 733e eb97 89be b0be 2ebd 969b 853c
00000310: bebd 3d3e e03e 14be 5284 7abc 2287 4ebd
00000320: d297 08be c0cb a73d 9a43 363e a24f 2b3e
00000330: f9d1 403e 94fb 953d 01cb 2bbd c56e 013e
00000340: 3c24 093e b8aa e03d f368 9c3e 4e2c cd3c
00000350: 5551 99be 836c 3cbd 34f8 bcbd 2904 f6be
00000360: 62ad 153e dfcc 34bd db64 9dbe a648 6a3d
00000370: 53d5 cbbc 743f 44be 36db bf3d 5151 97bd
00000380: cef4 dcbd e42b 313e 896c 833d 2935 03bd
00000390: e48e dabe 058d 203e d983 853e d079 82bc
000003a0: 8cdc 0abe 4cb2 09be 73f5 423e 5488 303e
000003b0: 030e e3bc 0567 1c3e 68aa 3cbe 3ecd 82be
000003c0: 533c a2bd 4878 a13e 7861 4dbd 2f3b b03d
000003d0: e341 2c3e e7f8 88be 02ad 7abe 6a4c 29be
000003e0: ef92 883d b2f4 c7bd ceb4 d43d 4ae6 11be
000003f0: b906 643e 5b2b 88be 3ead 2b3e 52ed 053e

conv2.nn.2.bias f4 [16]
0.15377533 0.014633837 0.2168719 0.45359525 0.13465205 0.100625984 0.053983293 -0.008217239
0.31629258 -0.0046068304 0.28471693 0.105168164 0.019800756 0.13747053 0.19670549 0.39235654
00000000: 4877 1d3e c3c2 6f3c ab13 5e3e a33d e83e
00000010: 3ae2 093e ff14 ce3d 961d 5d3d 99a1 06bc
00000020: 1af1 a13e e5f4 96bb 6bc6 913e 6862 d73d
00000030: 3235 a23c 13c5 0c3e 2a6d 493e f5e2 c83e

conv2.nn.4.weight f4 [16]
0.8788915 0.74786776 0.97745734 1.0526931 0.75962466 0.8241968 0.8761395 0.78465325
0.9838818 0.8461447 0.73247945 0.7024709 0.6716692 0.8852925 0.8810433 0.7297731
00000000: 09ff 603f 4374 3f3f a53a 7a3f a6be 863f
00000010: c376 423f 90fe 523f ae4a 603f 09df 483f
00000020: addf 7b3f f09c 583f c683 3b3f 22d5 333f
00000030: 83f2 2b3f 87a2 623f 0e8c 613f 69d2 3a3f

conv2.nn.4.bias f4 [16]
0.33195767 -0.09609876 0.16475813 0.26848254 -0.051984824 0.012818462 -0.096135475 0.19712228
0.23635863 -0.07999155 0.28475633 0.032116435 -0.18486713 0.19617696 0.0075107063 0.22651191
00000000: 5bf6 a93e 6dcf c4bd 5bb6 283e 8b76 893e
00000010: 0aee 54bd 8704 523c ade2 c4bd 6cda 493e
00000020: ff07 723e 9cd2 a3bd 95cb 913e 868c 033d
00000030: cf4d 3dbe 9de2 483e 5f1c f63b bdf2 673e

conv2.nn.4.running_mean f4 [16]
0.49331963 1.5085543 0.007276395 0.113499925 0.007846004 0.9970668 0.3200577 0.13073835
0.06841225 1.2632104 0.10665082 0.24607751 0.8269011 0.12113723 0.23013873 0.273344
00000000: 6494 fc3e 4f18 c13f d36e ee3b a672 e83d
00000010: 878c 003c c53f 7f3f 9ade a33e 46e0 053e
00000020: b91b 8c3d e1b0 a13f bf6b da3d befb 7b3e
00000030: caaf 533f cc16 f83d 7da9 6b3e bff3 8b3e

conv2.nn.4.running_var f4 [16]
0.6012333 4.03954 0.0010145332 0.031445846 0.001321328 3.9446294 0.8035626 0.11514166
0.0343088 3.7369826 0.04675699 0.8027369 1.5103227 0.12723248 0.40385503 0.24485041
00000000: 6dea 193f e943 8140 16fa 843a 5ccd 003d
00000010: 6930 ad3a cf74 7c40 47b6 4d3f 64cf eb3d
00000020: 6287 0c3d b92a 6f40 4284 3f3d 2a80 4d3f
00000030: 4152 c13f 3b49 023e 16c6 ce3e 11ba 7a3e

conv3.nn.0.weight f4 [16, 16]
0.14228387 -0.04109357 -0.32726648 0.28687632 -0.07650555 -0.41922638 -0.341358 0.17432249
0.13176681 -0.1902195 0.13959494 0.30706498 -0.04594225 -0.26959002 0.11933365 -0.022267515
-0.42485812 0.16567032 -0.19476515 -0.15613829 0.0100037195 -0.24444698 -0.21705784 0.108700156
0.27988887 -0.058066856 0.07865563 -0.06971925 -0.110555544 0.2419227 0.010171104 0.23461528
-0.18802598 0.19039829 0.42168877 0.09224008 -0.0060603847 -0.017390717 0.12669241 -0.33861294
0.21746543 0.21684667 -0.3365675 -0.028526986 0.028521314 -0.10377579 -0.104666024 -0.088773936
0.13695715 0.2221608 0.4082985 -0.17449939 0.1945954 -0.05213285 0.069041245 0.36259967
0.023098143 0.011220391 0.30618525 -0.22649099 0.13345377 0.20760973 0.07060594 0.010407649
-0.3424531 -0.23522273 0.078875296 -0.15911426 0.2305046 0.009552124 -0.15663962 -0.01782057
-0.3299322 -0.1645616 0.13703123 0.16704719 0.0664024 -0.15555744 0.32596728 0.24176447
0.06692863 -0.059995957 0.03654687 0.14119068 -0.561601 -0.022208735 -0.3395516 -0.057817407
-0.634118 0.06928278 0.14750534 -0.102839 -0.076975346 -0.06953784 -0.13165309 0.04489578
-0.051873755 -0.13488816 0.0573443 0.013878487 0.31123334 0.22532168 0.054033555 -0.24148458
0.20364553 -0.29165217 0.2315373 0.016519485 -0.22875296 -0.5078195 0.091671236 -0.33724713
-0.18377446 -0.25575098 -0.19321983 -0.4723398 0.21235025 0.118896276 0.18186946 -0.067497686
0.0037823236 -0.12940621 -0.10967345 -0.08876003 0.08380666 0.21932587 -0.0770936 0.11558866
0.04507531 0.039830834 -0.030848324 -0.623358 0.18110575 -0.12867297 -0.04818828 -0.079350494
0.072583586 -0.22084539 0.05393986 0.11917187 -0.18822342 0.060202718 0.00808294 -0.012796928
0.066289686 -0.1172423 0.16458263 0.37108642 0.21434666 -0.16719648 0.23155053 0.04526476
0.16638432 -0.013094316 -0.09890594 0.097179495 -0.0008221945 -0.10330694 0.029565271 0.19897942
-0.027266841 -0.1694198 0.06634538 0.1642901 0.166411 0.17399774 -0.09886824 0.08498144
0.17127663 -0.07594489 -0.21683612 0.07136648 0.07815732 0.17298746 -0.3188046 -0.048825823
0.18169883 0.025344316 -0.21873373 0.090910345 -0.073775515 -0.23411837 0.15120968 -0.15996006
0.24676216 -0.15535782 0.024787668 0.113281384 0.22446127 -0.03431697 -0.30269533 0.1050773
0.12262188 -0.21241942 -0.16549787 -0.06358136 0.13383174 -0.00047237147 -0.006516559 0.06824186
0.042882685 -0.14601392 0.29911596 -0.08651765 0.2073256 -0.3149243 0.02589269 -0.13123654
-0.75804615 -0.27053925 -0.5447772 0.23630364 0.17038909 -0.23044631 0.08297361 -0.33113322
0.024533221 0.32479307 -0.27510908 0.10217086 -0.23887488 -0.13758521 -0.123922035 0.13677905
-0.062298074 0.122425534 -0.5094453 0.30331534 -0.15883718 -0.117285125 -0.063568406 -0.01776831
0.019456247 0.17479052 0.026405072 0.068292275 0.07782495 0.24856195 -0.09988644 -0.26671684
0.20326915 -0.050414983 -0.15612106 -0.38825783 -0.13312906 0.055149585 0.12354804 -0.21920408
0.24219556 -0.2898999 0.026118016 -0.09858184 -0.22950262 0.035036493 0.042436764 0.24758913
00000000: ddb2 113e bb51 28bd 798f a7be 74e1 923e
00000010: f1ae 9cbd d7a4 d6be 7ac6 aebe 9881 323e
00000020: e1ed 063e e7c8 42be faf1 0e3e 9f37 9d3e
00000030: f12d 3cbd b407 8abe 3365 f43d 5d6a b6bc
00000040: 0187 d9be 7ba5 293e 8470 47be b7e2 1fbe
00000050: a4e6 233c 4f50 7abe 6944 5ebe 309e de3d
00000060: 984d 8f3e 83d7 6dbd 3416 a13d f7c8 8ebd
00000070: f26a e2bd 96ba 773e b4a4 263c fd3e 703e
00000080: e289 40be c5f7 423e 97e7 d73e 5ee8 bc3d
00000090: 3196 c6bb fa76 8ebc a8bb 013e ad5e adbe
000000a0: 42af 5e3e 0e0d 5e3e 9352 acbe 6db1 e9bc
000000b0: 88a5 e93c 6788 d4bd 245b d6bd 1ccf b5bd
000000c0: 7f3e 0c3e 1f7e 633e 800c d13e f8af 32be
000000d0: 0444 473e 4189 55bd 7f65 8d3d aaa6 b93e
000000e0: 5138 bd3c bbd5 373c 50c4 9c3e 41ed 67be
000000f0: 1ba8 083e a597 543e d999 903d d884 2a3c
00000100: 0356 afbe 3ade 70be 5f89 a13d d9ee 22be
00000110: 6609 6c3e 8380 1c3c 2366 20be 72fc 91bc
00000120: e0ec a8be d682 28be ea51 0c3e 6b0e 2b3e
00000130: fbfd 873d 734a 1fbe 2fe5 a63e 1b91 773e
00000140: e111 893d 52be 75bd 2cb2 153d 4a94 103e
00000150: 15c5 0fbf 18ef b5bc b5d9 adbe f2d1 6cbd
00000160: 8f55 22bf 21e4 8d3d a40b 173e 419d d2bd
00000170: 40a5 9dbd db69 8ebd 11d0 06be a3e4 373d
00000180: 9379 54bd 1f20 0abe dbe1 6a3d 9862 633c
00000190: fa59 9f3e baba 663e 4a52 5d3d bc47 77be
000001a0: 7488 503e 6f53 95be 1d18 6d3e df53 873c
000001b0: 373e 6abe 7500 02bf 21be bb3d a8ab acbe
000001c0: 5f2f 3cbe cbf1 82be 6bdb 45be 86d6 f1be
000001d0: 5872 593e e47f f33d fd3b 3a3e 3a3c 8abd
000001e0: dce0 773b 1083 04be 799c e0bd d2c7 b5bd
000001f0: d3a2 ab3d f696 603e 40e3 9dbd bfb9 ec3d
00000200: e3a0 383d a825 233d a0b5 fcbc 6494 1fbf
00000210: c973 393e d9c2 03be 1361 45bd 8382 a2bd
00000220: b4a6 943d 4b25 62be 0bf0 5c3d 6210 f43d
00000230: a4bd 40be 2097 763d 4f6e 043c 35aa 51bc
00000240: e3c2 873d bb1c f0bd 5988 283e 0aff bd3e
00000250: b17d 5b3e 8e35 2bbe 951b 6d3e 8a67 393d
00000260: a760 2a3e 8b89 56bc 338f cabd 0b06 c73d
00000270: 8a88 57ba 9792 d3bd de32 f23c 43c1 4b3e
00000280: b65e dfbc 627c 2dbe 16e0 873d aa3b 283e
00000290: a567 2a3e 772c 323e 6f7b cabd c00a ae3d
000002a0: 2463 2f3e ff88 9bbd 4a0a 5ebe 9728 923d
000002b0: f210 a03d a023 313e 5b3a a3be 96fd 47bd
000002c0: 420f 3a3e e29e cf3c bcfb 5fbe 342f ba3d
000002d0: 9e17 97bd babc 6fbe b6d6 1a3e 92cc 23be
000002e0: 38af 7c3e 1f16 1fbe 820f cb3c 1200 e83d
000002f0: 2dd9 653e f38f 0cbd e2fa 9abe c432 d73d
00000300: 2e21 fb3d 7a84 59be 4678 29be f236 82bd
00000310: 300b 093e a0a8 f7b9 dc88 d5bb 63c2 8b3d
00000320: c1a5 2f3d ac84 15be ba25 993e 2a30 b1bd
00000330: 294d 543e c23d a1be e81c d43c df62 06be
00000340: 500f 42bf 1f84 8abe 8576 0bbf 95f9 713e
00000350: 7a7a 2e3e 1efa 6bbe 11ee a93d 4b8a a9be
00000360: e5f9 c83c 474b a63e 19db 8cbe f53e d13d
00000370: 9e9b 74be 23e3 0cbe d6ca fdbd cf0f 0c3e
00000380: 442c 7fbd 3dba fa3d 026b 02bf 264c 9b3e
00000390: 37a6 22be 2f33 f0bd 2730 82bd d98e 91bc
000003a0: b562 9f3c 49fc 323e 734f d83c d2dc 8b3d
000003b0: b062 9f3d 0687 7e3e 4391 ccbd 1c8f 88be
000003c0: ca25 503e f17f 4ebd 33de 1fbe bbc9 c6be
000003d0: fc52 08be 88e4 613d c106 fd3d 0977 60be
000003e0: 1d02 783e c26d 94be 73f5 d53c 47e5 c9bd
000003f0: bc02 6bbe 6d82 0f3d 2cd2 2d3d 0188 7d3e

conv3.nn.0.bias f4 [16]
0.10461317 0.51624745 -0.1557162 0.010753654 0.11508218 0.4973609 0.23991878 -0.08776444
0.4767747 -0.5669528 0.18804199 0.5171953 0.16001512 0.26323488 0.18555765 -0.07575508
00000000: 6e3f d63d cb28 043f 1174 1fbe 1830 303c
00000010: 35b0 eb3d 16a6 fe3e 45ad 753e d8bd b3bd
00000020: d01b f43e d223 11bf 148e 403e e966 043f
00000030: 01db 233e b9c6 863e d302 3e3e 7b25 9bbd

conv3.nn.2.weight f4 [16, 16]
-0.18828404 -0.410475 0.04544417 -0.017635666 -0.063555196 -0.0028062188 0.22860077 0.023099178
0.1284634 -0.20454374 0.19800854 -0.46958816 -0.21288784 0.031592645 -0.11924761 -0.12512937
0.026878165 0.020814475 -0.03676843 0.010749055 -0.42815074 -0.3571062 -0.62757105 -0.10025284
0.36293498 0.0863536 0.004620079 0.06062475 -0.18932338 -0.16631722 0.043655004 -0.36670882
-0.27816468 0.085370444 -0.061124105 -0.24537487 -0.07700879 -0.15522899 0.017628677 -0.1539252
-0.021359388 -0.35410488 -0.13724475 0.10580943 0.017614901 0.13228548 0.080739655 0.26420698
-0.19216736 -0.022798765 0.20003216 -0.22617222 0.051119544 -0.2659048 0.26504803 -0.1497752
0.09264896 0.103448726 -0.01735808 -0.13668507 -0.25246 0.45486388 -0.29760796 -0.27040246
0.014366224 0.19939695 -0.20777965 -0.06882883 -0.0033401118 -0.3065153 0.23525834 -0.04989331
-0.22668749 -0.12610926 -0.14762667 -0.28614852 0.006432857 -0.4551097 0.030661019 0.019541165
-0.33396193 0.13988084 -0.18174578 -0.07428755 -0.24539542 -0.19348393 0.04154765 0.033388425
0.10492128 -0.32843345 -0.09889226 0.062198132 -0.11495921 0.1505791 -0.22829005 0.3572139
-0.011447469 -0.0700682 -0.04839679 -0.06803104 0.00081712496 0.091238715 -0.030439476 -0.032494467
-0.08898849 -0.014320519 -0.15884638 -0.036614105 0.00086643535 0.00036456922 0.0013380885 0.13538279
-0.14221981 -0.017316086 0.01825247 0.035068948 0.19513875 -0.07684436 0.21963988 0.07697335
0.04890408 -0.0763256 -0.29821005 -0.3740851 -0.053234294 -0.33995265 -0.20365709 0.020347819
-0.010215849 0.06948819 -0.13287242 -0.5646487 -0.14153275 0.19463143 0.0072160685 -0.15239203
0.30888328 -0.15598856 -0.3968518 -0.09426707 -0.19509684 0.23284566 0.23719099 -0.1898615
-0.29209355 0.35305434 -0.26708153 -0.07056357 0.10373481 -0.124338485 -0.17298564 -0.30513346
-0.2096784 0.054237943 0.16767529 0.0414298 0.09707519 0.21416879 -0.20807815 -0.15802091
0.14724998 -0.22052222 -0.28428736 -0.027206382 -0.1819308 0.41404924 0.15477368 -0.23541515
0.05045648 -0.09226593 0.018179733 -0.25786334 -0.18701531 -0.12362751 -0.04322697 -0.06093828
-0.05594211 0.094551146 -0.095896855 0.07245473 -0.3066296 -0.5324722 0.020945568 -0.020290932
-0.18626316 -0.17554587 0.0027726614 0.097480096 0.052482054 -0.07568099 -0.67988217 -0.087125234
-0.24412464 -0.12906714 -0.026661824 -0.10171668 -0.27799967 -0.12790251 0.015346742 0.07476083
-0.4588854 0.10069113 -0.2645898 0.17994279 -0.12040363 0.05832321 0.048517704 0.061188895
-0.21894285 0.087779 -0.13778277 -0.50424856 0.09847256 -0.30752304 0.34388903 -0.13899319
-0.02075065 -0.19068493 0.10301649 0.133291 -0.11282191 0.37234837 0.13954687 -0.5593773
-0.3147134 -0.21657467 -9.107168e-05 -0.14775266 -0.3855547 -0.04121869 0.31112525 0.19168237
-0.17564112 0.18397717 -0.009702588 0.13771117 0.1747405 -0.18816097 -0.046642438 -0.51279104
0.117678106 -0.3287731 -0.4171261 -0.13378033 -0.12879317 0.19458114 -0.086494185 -0.119252905
0.15201141 -0.19512433 0.0043610143 0.16501984 0.15029685 -0.2664207 -0.00029697217 -0.010615994
00000000: 88cd 40be c729 d2be aa23 3a3d ac78 90bc
00000010: 3a29 82bd 8ae8 37bb 5216 6a3e 7d3a bd3c
00000020: e98b 033e ea73 51be c0c2 4a3e dc6d f0be
00000030: 45ff 59be 4a67 013d 1738 f4bd ea21 00be
00000040: 992f dc3c 1e83 aa3c 7e9a 16bd ce1c 303c
00000050: 9336 dbbe a0d6 b6be 7fa8 20bf 5c51 cdbd
00000060: 9dd2 b93e 28da b03d 0864 973b a851 783d
00000070: fddd 41be 104f 2abe 97cf 323d 42c1 bbbe
00000080: 9a6b 8ebe b3d6 ae3d 455d 7abd 8d43 7bbe
00000090: c9b6 9dbd 59f4 1ebe 046a 903c 919e 1dbe
000000a0: e2f9 aebc 3c4d b5be e389 0cbe 9db2 d83d
000000b0: 204d 903c d875 073e d55a a53d 2346 873e
000000c0: 85c7 44be 7ac4 babc 3bd5 4c3e b199 67be
000000d0: ba62 513d ad24 88be 60b4 873e ac5e 19be
000000e0: bdbe bd3d eddc d33d 8832 8ebc 2cf7 0bbe
000000f0: 7042 81be ebe3 e83e 1260 98be 3172 8abe
00000100: 5060 6b3c b72e 4c3e 30c4 54be 21f6 8cbd
00000110: c7e5 5abb 93ef 9cbe 90e7 703e ed5c 4cbd
00000120: c420 68be c922 01be 722b 17be 0f82 92be
00000130: b7ca d23b 2304 e9be d12c fb3c cb14 a03c
00000140: 0ffd aabe ec3c 0f3e 911b 3abe 1224 98bd
00000150: f048 7bbe a720 46be de2d 2a3d 4dc2 083d
00000160: f8e0 d63d 6e28 a8be 0688 cabd 78c3 7e3d
00000170: bc6f ebbd 6831 1a3e dec4 69be bee4 b63e
00000180: 2a8e 3bbc eb7f 8fbd b63b 46bd dc53 8bbd
00000190: 5434 563a 5ddb ba3d 355c f9bc eb18 05bd
000001a0: 993f b6bd 9ca0 6abc a0a8 22be acf8 15bd
000001b0: 7e21 633a a723 bf39 cd62 af3a c9a1 0a3e
000001c0: 12a2 11be 77da 8dbc 3486 953c 75a4 0f3d
000001d0: 74d2 473e 9360 9dbd 47e9 603e 34a4 9d3d
000001e0: a54f 483d 9950 9cbd fdae 98be 1588 bfbe
000001f0: 340c 5abd 460e aebe 7c8b 50be 78b0 a63c
00000200: 6060 27bc d34f 8e3d b50f 08be d18c 10bf
00000210: f6ed 10be 764d 473e c574 ec3b a80c 1cbe
00000220: f325 9e3e 77bb 1fbe 2930 cbbe 180f c1bd
00000230: 77c7 47be 186f 6e3e 32e2 723e 0e6b 42be
00000240: 498d 95be 8ac3 b43e e9be 88be a283 90bd
00000250: eb72 d43d 2da5 febd 2623 31be 743a 9cbe
00000260: efb5 56be 9b28 5e3d 12b3 2b3e 4bb2 293d
00000270: 5bcf c63d 104f 5b3e 7012 55be 3cd0 21be
00000280: b3c8 163e 94d0 61be 1d8e 91be ebdf debc
00000290: 114c 3abe 43fe d33e fe7c 1e3e ab10 71be
000002a0: 74ab 4e3d ebf5 bcbd aaed 943c aa06 84be
000002b0: f180 3fbe 6c30 fdbd c30e 31bd 6b9a 79bd
000002c0: 8e23 65bd 08a4 c13d 9265 c4bd 2563 943d
000002d0: 8efe 9cbe 1950 08bf 0a96 ab3c 2b39 a6bc
000002e0: c5bb 3ebe 4cc2 33be 8ab5 353b a5a3 c73d
000002f0: 6cf7 563d a3fe 9abd c20c 2ebf b76e b2bd
00000300: cffb 79be 2d2a 04be e669 dabc d650 d0bd
00000310: f955 8ebe e0f8 02be e770 7b3c 351c 993d
00000320: 07f3 eabe 2737 ce3d 5078 87be ec42 383e
00000330: 2e96 f6bd 51e4 6e3d 80ba 463d 35a1 7a3d
00000340: 8e32 60be 7ac5 b33d ed16 0dbe 6f16 01bf
00000350: fbab c93d a973 9dbe 3912 b03e 3b54 0ebe
00000360: 44fd a9bc e942 43be 4ffa d23d 707d 083e
00000370: 2c0f e7bd 72a4 be3e 60e5 0e3e 5a33 0fbf
00000380: 1d22 a1be c0c5 5dbe bcfd beb8 794c 17be
00000390: 6d67 c5be eed4 28bd cf4b 9f3e 6248 443e
000003a0: 44db 33be 8364 3c3e 9bf7 1ebc 2804 0d3e
000003b0: 2cef 323e 45ad 40be 240c 3fbd 4646 03bf
000003c0: 3801 f13d f354 a8be 8d91 d5be b6fd 08be
000003d0: 5be2 03be 4740 473e dd23 b1bd de3a f4bd
000003e0: e1a8 1b3e acce 47be d7e6 8e3b f6fa 283e
000003f0: 6be7 193e 4b68 88be eeb2 9bb9 b5ee 2dbc

conv3.nn.2.bias f4 [16]
0.37277803 0.12878905 0.19838314 0.140914 0.576539 0.06960595 -0.081039764 0.60930794
0.015901504 0.5036929 0.4251822 0.30355194 0.23292324 0.20215264 0.46297064 0.30295315
00000000: c3dc be3e 47e1 033e f324 4b3e c24b 103e
00000010: 0f98 133f 908d 8e3d 2df8 a5bd 9bfb 1b3f
00000020: df43 823c 05f2 003f 7bb1 d93e 296b 9b3e
00000030: 6e83 6e3e 1a01 4f3e 7d0a ed3e ad1c 9b3e

conv3.nn.4.weight f4 [16]
1.6319398 1.865203 1.6288055 1.661671 1.7325507 1.7090418 0.37442482 1.6153518
1.7957264 1.8411638 1.3732848 1.1429337 1.6892606 1.4933472 1.7120951 1.8799286
00000000: 67e3 d03f f9be ee3f b37c d03f a3b1 d43f
00000010: 39c4 dd3f e2c1 da3f 9cb4 bf3e d9c3 ce3f
00000020: 5dda e53f 41ab eb3f ccc7 af3f a74b 923f
00000030: b139 d83f 0026 bf3f ef25 db3f 80a1 f03f

conv3.nn.4.bias f4 [16]
0.4817531 0.7532582 0.51688284 0.4890592 0.58441246 0.47668332 -0.00080544426 0.6449779
0.9775358 0.78412503 0.59033835 0.43967107 0.33925182 0.43331856 0.71953624 0.6772626
00000000: 58a8 f63e 88d5 403f 6f52 043f f865 fa3e
00000010: 0e9c 153f d60f f43e 7324 53ba 461d 253f
00000020: c93f 7a3f 6bbc 483f 6a20 173f 911c e13e
00000030: 6ab2 ad3e eedb dd3e 8733 383f 1561 2d3f

conv3.nn.4.running_mean f4 [16]
0.07055755 0.05284195 0.031626564 0.2150328 0.11996477 0.13030858 4.2809283e-05 0.19647993
0.029667547 0.23888192 0.18656412 0.04592745 0.025292238 0.08407516 0.09613114 0.20091234
00000000: 7a80 903d cd70 583d db8a 013d 8f31 5c3e
00000010: 17b0 f53d 9d6f 053e 1e8e 3338 0932 493e
00000020: 5b09 f33c 769d 743e aa0a 3f3e 6c1e 3c3d
00000030: ab31 cf3c 992f ac3d 67e0 c43d f7bb 4d3e

conv3.nn.4.running_var f4 [16]
0.031922303 0.015138064 0.0066575846 0.258088 0.055965103 0.11819542 2.6520627e-06 0.12442031
0.014728661 0.14745696 0.104351126 0.019542847 0.007855748 0.046345305 0.029186811 0.105304725
00000000: f6c0 023d a405 783c de27 da3b 1c24 843e
00000010: aa3b 653d 7110 f23d 17fa 3136 13d0 fe3d
00000020: 7b50 713c f5fe 163e 0bb6 d53d 5218 a03c
00000030: 65b5 003c 93d4 3d3d 2e19 ef3c 01aa d73d

lin.weight f4 [7, 16]
-0.25455183 1.0237205 0.12760861 -0.300424 0.4462576 -0.47954538 0.043333024 -0.13276784
-0.65711844 0.23984839 -0.82516575 -0.28041297 -0.8962254 0.075921774 -0.42607027 -0.67786574
-0.2968552 -0.2571842 -0.8507773 0.60383534 -0.15956993 -0.20697357 0.067920715 -0.6613903
-0.84284234 0.63880086 -0.3132685 -0.097767405 0.16506597 0.33511505 0.39378965 -0.29632536
0.7798903 -0.16577215 -0.3458019 0.63245493 -0.48657656 -0.056998774 -0.010470443 0.6352257
-0.4624837 -1.0092745 -0.0126028955 -0.065903805 -0.5597488 0.2240973 0.6235444 -0.598787
-0.3692613 0.228854 -0.5682774 -0.5036141 -0.26337802 -0.46184537 0.040060073 -0.6275086
-0.3747632 -0.33445647 0.63009495 -0.45390183 0.28110147 -1.116276 0.569543 1.0032014
-0.61751246 -0.89250517 0.7488851 -0.40313536 0.14551628 1.0057876 0.017143842 -0.6856454
-0.61742014 -0.3626983 -0.70824194 0.66385627 0.6966226 -0.3507496 -0.4760021 0.21739767
-0.63884 -1.1247633 -0.6972009 -0.6420025 0.9071463 -0.38039103 0.046192702 0.7689877
-0.11700452 0.46470433 0.28117794 0.33332497 -0.46205738 -0.9510778 -0.6109513 -0.74466705
-0.41892698 0.096835054 -0.10458096 -0.47133267 -0.15554652 -0.15630034 0.037075922 -0.21396019
1.1077348 -0.486027 0.07450754 -0.20931731 -0.24523157 0.051616814 -0.8567652 -0.5979046
00000000: 9e54 82be 4609 833f d5ab 023e 2dd1 99be
00000010: e07b e43e f986 f5be f87d 313d 4bf4 07be
00000020: ea38 28bf d19a 753e 103e 53bf 4a92 8fbe
00000030: 076f 65bf e07c 9b3d e225 dabe 9c88 2dbf
00000040: 68fd 97be a6ad 83be 8bcc 59bf f494 1a3f
00000050: 4d66 23be e1f0 53be 041a 8b3d e050 29bf
00000060: 84c4 57bf 7488 233f bb64 a0be 473a c8bd
00000070: 0e07 293e 3394 ab3e cc9e c93e f5b7 97be
00000080: e4a6 473f 2dc0 29be f20c b1be 91e8 213f
00000090: 9020 f9be 8c77 69bd 398c 2bbc 279e 223f
000000a0: aaca ecbe e82f 81bf 607c 4ebc 93f8 86bd
000000b0: b34b 0fbf c379 653e 9ba0 1f3f 1b4a 19bf
000000c0: d10f bdbe b458 6a3e a17a 11bf dbec 00bf
000000d0: 7cd9 86be ff76 ecbe 0816 243d 67a4 20bf
000000e0: f6e0 bfbe e13d abbe e74d 213f d265 e8be
000000f0: 88ec 8f3e 22e2 8ebf 92cd 113f e768 803f
00000100: 4c15 1ebf 387b 64bf efb6 3f3f c267 cebe
00000110: 3802 153e a6bd 803f 3e71 8c3c 7586 2fbf
00000120: 3f0f 1ebf 97b3 b9be 584f 35bf 7cf2 293f
00000130: dc55 323f 7495 b3be 8cb6 f3be 7f9d 5e3e
00000140: 058b 23bf 3ef8 8fbf c27b 32bf 475a 24bf
00000150: bd3a 683f 9dc2 c2be 8f34 3d3d 61dc 443f
00000160: 11a0 efbd baed ed3e 8ef6 8f3e 92a9 aa3e
00000170: c992 ecbe d679 73bf 4e67 1cbf 80a2 3ebf
00000180: 997d d6be 7551 c63d 8b2e d6bd 8452 f1be
00000190: 9647 1fbe 320d 20be ecdc 173d 6118 5bbe
000001a0: 41ca 8d3f 88d8 f8be 6997 983d 4757 56be
000001b0: fc1d 7bbe 276c 533d f754 5bbf 4710 19bf

lin.bias f4 [7]
0.6394771 -0.66377646 -0.28321862 0.29121673 -0.11166681 0.620136 -0.058359843
00000000: c5b4 233f 41ed 29bf 0802 91be 5c1a 953e
00000010: 92b1 e4bd 3cc1 1e3f bb0a 6fbd
