models/Cora_gcn_model.pth (torch, 96206 bytes, 6 tensors)

conv1.bias f4 [16]
0.22383727 0.032956775 0.0988232 0.13632618 0.054986626 0.09993944 0.11812138 0.23169708
0.11181467 0.21717559 0.1589252 0.123924054 0.15602958 0.10778399 0.1058681 0.18757659
00000000: 9935 653e affd 063d d163 ca3d 1799 0b3e
00000010: a839 613d 0dad cc3d 9fe9 f13d 0042 6d3e
00000020: 17ff e43d 4763 5e3e 4abd 223e e5cb fd3d
00000030: 38c6 1f3e dabd dc3d 60d1 d83d 1414 403e

conv1.lin.weight f4 [16, 1433]
-0.06892118 0.17579687 0.008440279 0.046037946 0.31668022 0.0006112272 -0.021818105 -0.041352235
0.06297277 -0.08438137 -0.021946445 -0.08929878 -0.022461068 0.087648906 0.06323572 0.017484557
-0.1066877 -0.008607805 -0.021425538 0.20801137 0.05034448 -0.03687908 -0.031900994 -0.10353735
-0.02662769 0.15313974 0.10218854 -0.074294746 -0.016542254 -0.074049 -0.05105621 -0.008054247
-0.046634905 0.021145692 0.079434566 -0.051568676 -0.017845294 -0.029685099 -0.06332587 0.042863566
0.0988554 -0.017830793 -0.1105649 0.04636365 -0.049583428 0.0060704425 0.04957387 0.01849203
0.06633587 0.001601279 -0.00046727067 0.25036973 0.020953547 -0.076270655 0.117710106 0.02817833
-0.013694675 0.13168022 0.15811619 0.17354065 0.033810105 -0.008085892 -0.08194994 -0.16890469
0.21057482 -0.21832353 0.05028852 -0.0069287145 0.022481859 0.004947108 -0.09851281 0.05186741
0.025098814 0.09025737 -0.062521994 0.0918475 -0.011648074 0.08450566 0.16803652 0.05782432
-0.07188204 -0.017155468 0.048392333 -0.18715937 0.0023357174 0.29760692 0.02689592 0.12092961
0.11656608 -0.018334452 -0.073093556 0.013392013 -0.07686315 -0.021801395 -0.0070123603 0.040548775
-0.019145582 0.027730554 0.032028783 -0.0065865456 -0.07683401 0.0055719097 -0.021133212 -0.18366961
-0.11897182 -0.06520224 0.047769286 -0.027947096 -0.12982212 -0.049159348 -0.079110086 -0.061760154
-0.19896887 -0.047576603 0.0007609521 0.058024414 0.013516363 -0.07487438 0.09740472 0.065484226
0.053035516 0.026243221 0.034115214 0.1553907 0.016346442 -0.17405295 -0.028882487 0.096284844
-0.2871895 0.18681072 0.001153175 0.09016119 -0.011027825 0.18450065 0.00574751 0.0068648225
0.03998053 0.038409874 -0.056221917 -0.0065807346 -0.1500581 -0.0765616 -0.05162404 0.09024746
0.0043239333 -0.0070935218 0.07117378 -0.04106515 -0.0006091717 -0.049471147 -0.004314937 0.090004325
0.050194167 0.05176819 -0.07106001 0.02818084 -0.03404367 0.10612794 0.017279856 0.017056843
0.13980788 -0.060878642 0.020410448 0.0030937328 0.009061448 -0.03482572 0.048510868 0.06600422
0.027083835 0.023608878 0.04573727 -0.022176236 0.065591834 -0.055897377 0.034257952 -0.009282412
-0.28340515 0.115664415 -0.076466486 0.109899536 0.052860584 0.02450501 0.033384353 0.012509739
-0.097906634 0.08883269 0.105999984 -0.05332585 0.07750446 -0.011888951 -0.09521373 -0.021957725
-0.0648061 -0.12351738 -0.104693525 -0.124650516 0.02446298 0.053898763 -0.022478754 -0.03469216
-0.08881973 -0.04546668 0.09179777 0.04599558 0.027366938 -0.13223076 -0.06469544 0.092981234
0.18329191 -0.018767506 -0.030904245 -0.06719204 -0.15860213 -0.093734525 0.028035957 -0.021917257
0.010845068 -0.027869556 0.046594866 0.003945589 -0.009654161 -0.04011981 0.020990409 0.014727515
0.06069663 -0.014316164 0.039782498 -0.08625231 0.07436018 -0.025603624 0.08321044 0.033483133
-0.077677876 -0.011120924 0.23048335 -0.1402135 -0.04500254 -0.05958386 0.24865264 -0.023815533
0.039531387 0.032548506 0.039247084 -0.011348594 0.12604068 -0.062103238 0.06207839 -0.03655772
-0.047998276 0.05379433 -0.02333958 -0.058016833 0.05874357 0.054392852 -0.10291703 0.015830746
00000000: 8c26 8dbd 1804 343e 1949 0a3c 4992 3c3d
00000010: e923 a23e c33a 203a e2bb b2bc f660 29bd
00000020: def7 803d 24d0 acbd 08c9 b3bc 47e2 b6bd
00000030: 4600 b8bc 4581 b33d bb81 813d c63b 8f3c
00000040: 157f dabd c007 0dbc 9c84 afbc ef00 553e
00000050: 0336 4e3d 850e 17bd 9eaa 02bd 640b d4bd
00000060: 5022 dabc aad0 1c3e 3a48 d13d d827 98bd
00000070: 9f83 87bc 01a7 97bd 5120 51bd f6f5 03bc
00000080: 3e04 3fbd bb39 ad3c 97ae a23d ad39 53bd
00000090: 4b30 92bc 2a2e f3bc feb0 81bd b591 2f3d
000000a0: b374 ca3d e211 92bc da6f e2bd d0e7 3d3d
000000b0: fe17 4bbd 90ea c63b f80d 4b3d 997c 973c
000000c0: 1adb 873d 02e2 d13a 02fc f4b9 7630 803e
000000d0: c6a6 ab3c ca33 9cbd ff11 f13d 3ed6 e63c
000000e0: a15f 60bc 2ed7 063e 36e9 213e a4b4 313e
000000f0: 777c 0a3d b07a 04bc 5fd5 a7bd 5af5 2cbe
00000100: eda0 573e 3490 5fbe 56fb 4d3d 450a e3bb
00000110: e02b b83c 5a1b a23b 16c1 c9bd ec72 543d
00000120: 079c cd3c dbd8 b83d 880b 80bd 8b1a bc3d
00000130: 90d7 3ebc 4e11 ad3d c411 2c3e 32d9 6c3d
00000140: e436 93bd a089 8cbc 0a37 463d b5a6 3fbe
00000150: d612 193b ef5f 983e d554 dc3c f2a9 f73d
00000160: 32ba ee3d 2232 96bc 13b2 95bd 2c6a 5b3c
00000170: 6d6a 9dbd d798 b2bc f1c7 e5bb 7916 263d
00000180: 32d7 9cbc 302b e33c 9d30 033d f3d3 d7bb
00000190: 265b 9dbd 9194 b63b 8f1f adbc e313 3cbe
000001a0: 7fa7 f3bd c188 85bd baa9 433d 4ff1 e4bc
000001b0: 17f0 04be 505b 49bd 7804 a2bd 37f8 7cbd
000001c0: 7fbe 4bbe afdf 42bd a27a 473a 02ab 6d3d
000001d0: bc73 5d3c bd57 99bd 207c c73d 981c 863d
000001e0: c53b 593d 06fc d63c 65bc 0b3d bd1e 1f3e
000001f0: f9e8 853c f03a 32be f79a ecbc fd30 c53d
00000200: 810a 93be 4f4b 3f3e 2226 973a 6ea6 b83d
00000210: 0dae 34bc bded 3c3e 9c55 bc3b 4ef2 e03b
00000220: a0c2 233d ac53 1d3d f448 66bd 34a3 d7bb
00000230: d5a8 19be 54cc 9cbd bb73 53bd a9d3 b83d
00000240: c8af 8d3b c670 e8bb 8fc3 913d ee33 28bd
00000250: d2b0 1fba 42a2 4abd 5164 8dbb 3054 b83d
00000260: 6698 4d3d e20a 543d e987 91bd 81db e63c
00000270: 6071 0bbd 9b59 d93d 7c8e 8d3c cbba 8b3c
00000280: cc29 0f3e e25b 79bd d033 a73c 39c0 4a3b
00000290: 7876 143c 6aa5 0ebd 55b3 463d 382d 873d
000002a0: ebde dd3c 6867 c13c 0157 3b3d f0aa b5bc
000002b0: 0355 863d a6f4 64bd 1152 0c3d 4215 18bc
000002c0: 7b1a 91be 77e1 ec3d 769a 9cbd 0213 e13d
000002d0: 5784 583d bbbe c83c 08be 083d a6f5 4c3c
000002e0: 4683 c8bd eaed b53d 8516 d93d 356c 5abd
000002f0: a9ba 9e3d e0c9 42bc 6bff c2bd b0e0 b3bc
00000300: 10b9 84bd aef6 fcbd 8f69 d6bd c548 ffbd
00000310: 9666 c83c f3c4 5c3d 5d25 b8bc 5e19 0ebd
00000320: 1ee7 b5bd 453b 3abd 7800 bc3d dc65 3c3d
00000330: a130 e03c 8067 07be 0b7f 84bd f26c be3d
00000340: e0b0 3b3e 50be 99bc e62a fdbc fb9b 89bd
00000350: 9968 22be e3f7 bfbd aaab e53c d28b b3bc
00000360: 83af 313c b24e e4bc 42da 3e3d 004a 813b
00000370: 7c2c 1ebc ab54 24bd 14f4 ab3c ad4b 713c
00000380: 089d 783d 588e 6abc f9f2 223d 0da5 b0bd
00000390: 264a 983d b1be d1bc 3c6a aa3d 9c25 093d
000003a0: 9415 9fbd 8934 36bc d403 6c3e 2194 0fbe
000003b0: 9554 38bd 350e 74bd cc9e 7e3e cb18 c3bc
000003c0: aaeb 213d 9551 053d 8dc1 203d 74ef 39bc
000003d0: cf10 013e f75f 7ebd e945 7e3d 8cbd 15bd
000003e0: d799 44bd 7257 5c3d a632 bfbc 0fa3 6dbd
000003f0: 199d 703d 0acb 5e3d 2ac6 d2bd 7baf 813c

conv2.bias f4 [16]
0.21633689 -0.11914849 0.2979086 0.21996516 0.23009017 0.38530257 0.034907106 0.021543266
0.098517194 0.1344756 0.3093143 -0.11598082 -0.0915304 0.052931014 -0.095096424 0.20529956
00000000: 6b87 5d3e 2004 f4bd 7a87 983e 8c3e 613e
00000010: c29c 6b3e 6146 c53e c1fa 0e3d 817b b03c
00000020: 62c3 c93d f9b3 093e 725e 9e3e 5a87 edbd
00000030: 4a74 bbbd 31ce 583d eac1 c2bd 0c3a 523e

conv2.lin.weight f4 [16, 16]
-0.3018196 -0.8487646 0.25576895 0.6350701 -0.6168573 0.7261452 0.4952409 -0.07310334
0.16383918 -0.46732494 0.6556074 0.2500086 0.16100715 -0.63507676 0.087947704 -0.065265864
0.09749302 0.9354525 0.58220285 -0.23129691 1.2471823 0.13326845 -0.027379004 -0.36865875
0.31121036 -0.10957231 -0.0673163 -0.20221059 0.36579755 0.7183403 0.4739246 -0.38486
0.89133143 -0.52908665 0.34499758 -0.5899772 -0.20713112 -0.35644287 0.9048608 0.4168066
-0.8121038 0.8772434 0.0021258947 -0.044268515 0.27920875 0.058234517 -0.8283637 0.52537215
0.62429744 0.50568783 -0.10899482 -0.24489778 0.6569824 0.43865067 0.67561275 -0.5190057
-0.06258636 0.72832406 -0.6948427 0.31639254 -0.3576197 1.0823554 -0.1686315 -0.33202392
-0.74771625 -0.5852257 -0.37006187 0.04281187 -0.5077274 0.88350165 0.33365798 0.36926708
0.35461462 0.026654197 0.8116003 0.504244 0.33601832 -0.72735584 -0.037301566 -0.52090764
0.5871988 -0.0030924834 -0.9365657 -0.869545 0.20723806 0.27247256 -0.90088224 0.79998654
0.7182384 0.72094774 -0.2287564 -0.6529215 0.570076 0.8484294 -0.10643233 -0.6843725
0.10265763 -0.61011225 0.55363566 -0.03459007 0.18173806 0.42905512 -0.11073547 0.39687368
-0.11216512 0.08780519 0.73730344 -0.54141235 1.0633351 -0.66741765 -0.10922176 -0.12468168
-0.16297263 0.21921176 -0.006345983 0.8478217 0.13764447 0.64342666 -0.54828125 -0.06889511
0.8462739 -0.7574799 0.897169 -0.08867089 0.040533207 -0.3186253 1.250931 -0.03657275
-0.46160594 0.7758456 -0.42725945 0.19439411 0.12599494 -0.5406422 -0.7765103 0.7199325
0.9820958 0.19889943 0.3010469 0.17894576 -0.24473926 0.47245345 0.9157039 0.5257134
0.9487802 -0.36304027 0.9285639 0.5325782 -0.3541314 -0.60147053 0.16107991 0.39643785
-0.43474105 0.38189188 0.1960976 -0.43231985 -0.07627076 -0.35877413 -0.43878442 1.2059476
-0.0063010915 -0.496894 -0.7824212 -0.2597329 -0.80939364 -0.43514982 -0.8526539 1.1002585
0.32644093 0.39873403 0.37335035 0.107072145 0.51593333 -0.11232526 0.7175484 0.49062756
0.35252374 0.55841196 0.888274 0.99615353 0.47094837 0.065023124 0.051071864 -0.44673195
-0.24414526 -0.5175836 0.16324589 -0.23667715 -0.42361218 0.44302404 0.5585722 0.6021105
0.2656384 0.1443422 0.86499417 0.58946764 0.56828916 0.05891149 0.5147629 -0.62293273
-0.8015353 -0.1695955 0.37421176 -0.36193743 -0.009666501 -0.055421755 -0.24099495 0.51814866
-0.50835925 0.117368974 -0.18715651 0.36417493 0.2104402 -0.2683625 0.41689092 0.06211479
-0.098653786 0.7855731 -0.52686906 1.3359709 -0.75408345 0.0036552255 -0.015479058 0.49600416
-0.22250466 0.30167064 0.23705542 0.4709154 0.1924024 -0.9444713 -0.06645605 0.47101352
-0.23507123 0.80146897 -0.25528935 0.63712376 -0.75042284 0.1543474 0.186556 0.8106773
0.2654106 0.5506967 -0.49143174 -0.26045662 -0.04467894 0.7125054 0.6583981 -0.809141
0.358864 -0.7021645 -0.49275106 0.29586148 -0.041504227 0.49482918 0.06033485 -0.5768016
00000000: 1988 9abe a348 59bf 26f4 823e f493 223f
00000010: 5cea 1dbf a7e4 393f 3790 fd3e 34b7 95bd
00000020: 75c5 273e 3745 efbe e3d5 273f 2101 803e
00000030: 0fdf 243e 6494 22bf ed1d b43d 1caa 85bd
00000040: 6caa c73d d179 6f3f 3f0b 153f 19d9 6cbe
00000050: aba3 9f3f 8677 083e ef49 e0bc d7c0 bcbe
00000060: f756 9f3e 7267 e0bd 21dd 89bd 4b10 4fbe
00000070: d149 bb3e 26e5 373f 3fa6 f23e 5f0c c5be
00000080: 4c2e 643f 3972 07bf 86a3 b03e bf08 17bf
00000090: 2e1a 54be ae7f b6be f5a4 673f ad67 d53e
000000a0: 09e6 4fbf 0693 603f 9852 0b3b e752 35bd
000000b0: 73f4 8e3e 5187 6e3d a50f 54bf ca7e 063f
000000c0: f5d1 1f3f c274 013f ad38 dfbd 7cc6 7abe
000000d0: 0030 283f d296 e03e f5f4 2c3f 8fdd 04bf
000000e0: 472d 80bd 7273 3a3f 36e1 31bf 34fe a13e
000000f0: ee19 b7be 9f8a 8a3f bcad 2cbe 0aff a9be
00000100: 556a 3fbf 5ad1 15bf c078 bdbe 805b 2f3d
00000110: 6cfa 01bf 2a2d 623f 38d5 aa3e 9310 bd3e
00000120: 0c90 b53e e759 da3c 0ac5 4f3f 2316 013f
00000130: 980a ac3e fe33 3abf 87c9 18bd 345a 05bf
00000140: a952 163f 43ab 4abb c5c2 6fbf 809a 5ebf
00000150: 3736 543e 8681 8b3e 38a0 66bf ebcb 4c3f
00000160: 79de 373f 0890 383f 1e3f 6abe dd25 27bf
00000170: 80f0 113f ab32 593f 32f9 d9bd 0933 2fbf
00000180: 2a3e d23d 5130 1cbf 11bb 0d3f 51ae 0dbd
00000190: 8b19 3a3e 1dad db3e 47c9 e2bd 0733 cb3e
000001a0: d4b6 e5bd 35d3 b33d ebbf 3c3f 009a 0abf
000001b0: 5d1b 883f e2db 2abf a8af dfbd 1c59 ffbd
000001c0: 4ce2 26be 0c79 603e f7f1 cfbb d80a 593f
000001d0: acf2 0c3e 9cb7 243f 295c 0cbf e118 8dbd
000001e0: 68a5 583f 34ea 41bf deac 653f 1599 b5bd
000001f0: 2606 263d db22 a3be 821e a03f 4fcd 15bd
00000200: 9d57 ecbe d19d 463f c0c1 dabe 400f 473e
00000210: d104 013e 8767 0abf 61c9 46bf 7f4d 383f
00000220: a16a 7b3f 4bac 4b3e d222 9a3e 8f3d 373e
00000230: ee9c 7abe 6be5 f13e 926b 6a3f 2795 063f
00000240: 42e3 723f 6ae0 b9be 5db6 6d3f 0b57 083f
00000250: b650 b5be f9f9 19bf 22f2 243e e7f9 ca3e
00000260: 6196 debe 5587 c33e cfcd 483e 0759 ddbe
00000270: d833 9cbd 3eb1 b7be 5aa8 e0be 7e5c 9a3f
00000280: 6379 cebb e468 febe c14c 48bf b6fb 84be
00000290: 6c34 4fbf f5cb debe 8747 5abf 45d5 8c3f
000002a0: 4423 a73e de26 cc3e c727 bf3e a448 db3d
000002b0: 3514 043f c90a e6bd 40b1 373f 8933 fb3e
000002c0: fe7d b43e 16f4 0e3f ed65 633f eb03 7f3f
000002d0: 2520 f13e d82a 853d bb30 513d 0dba e4be
000002e0: 3701 7abe 5c80 04bf ee29 273e 7f5b 72be
000002f0: b2e3 d8be 0cd4 e23e 96fe 0e3f ea23 1a3f
00000300: c201 883e 71ce 133e 4270 5d3f 5ae7 163f
00000310: 667b 113f 2d4d 713d 80c7 033f 8578 1fbf
00000320: 6b31 4dbf 71aa 2dbe af98 bf3e dd4f b9be
00000330: 3e60 1ebc ec01 63bd 61c7 76be 64a5 043f
00000340: d523 02bf 255f f03d f5a5 3fbe 2375 ba3e
00000350: a37d 573e cf66 89be ba72 d53e 146c 7e3d
00000360: ff0a cabd 521b 493f e4e0 06bf 1801 ab3f
00000370: 9d0b 41bf 828c 6f3b e09b 7dbc 42f4 fd3e
00000380: 43d8 63be 9374 9a3e a8be 723e d31b f13e
00000390: 2205 453e dfc8 71bf 1c1a 88bd af28 f13e
000003a0: 83b6 70be 122d 4d3f 49b5 82be 8b1a 233f
000003b0: b61b 40bf 3f0d 1e3e 8908 3f3e 8c88 4f3f
000003c0: e6e3 873e 75fa 0c3f f19c fbbe 925a 85be
000003d0: 4401 37bd c166 363f c78c 283f dd23 4fbf
000003e0: 06bd b73e 0dc1 33bf de49 fcbe 287b 973e
000003f0: 5600 2abd 405a fd3e ad21 773d 45a9 13bf

conv3.bias f4 [7]
-0.18354787 0.36343956 -0.5724285 0.53341985 0.11113192 -0.26612216 -0.3639808
00000000: f9f3 3bbe c014 ba3e ad8a 12bf 348e 083f
00000010: 2299 e33d 2a41 88be b15b babe

conv3.lin.weight f4 [7, 16]
0.5407063 0.1398802 -0.4051463 -0.7024513 0.88543665 0.44687465 0.95826143 0.67839307
0.4614582 -0.48293182 0.6897932 -0.5910382 -0.74589163 -0.509684 -0.9350073 -0.41902047
0.7739692 -0.80738604 0.44789276 0.55863476 0.82575023 -0.34116104 -0.5414994 -0.3092169
-1.0930986 -0.31698808 -0.7132196 -0.9846862 -0.2869599 0.67847484 -0.3678294 0.67256695
-0.7660262 0.4218658 0.43370786 0.52849376 -0.9889409 -0.6515245 -0.67899144 -0.71926606
0.031437848 0.6164182 -1.1135285 0.54788846 0.7428117 0.76583356 0.6944883 -0.36858624
-0.9937349 -0.815119 0.8845899 0.10959432 -0.0651067 0.70361555 0.4933079 -0.8104071
0.13329446 0.95625144 0.75447065 -1.1493632 -0.9317474 -0.072979234 0.043276776 -0.9308047
-1.2350609 0.61621875 -0.49728933 0.55317056 -0.70652634 0.62404835 -0.620292 0.54429835
0.4556431 -0.7049839 -0.05087185 0.43462807 -0.5129792 -1.083953 -0.99582636 0.6638009
0.77214396 -0.1801439 0.36758608 -0.24861279 0.19114879 -1.1519192 0.93527746 0.47211796
-0.61495996 0.84390414 -0.4823992 0.6417882 0.9210567 -0.8609111 -0.7363721 -0.1517132
0.4034854 -0.92047584 -0.74292564 -1.253251 0.20234153 -1.2102407 -0.8010296 0.66935736
0.67972314 0.46294284 0.6864346 0.43358907 -0.21268375 0.6084281 0.5273016 -0.77410597
00000000: ba6b 0a3f c13c 0f3e 566f cfbe d9d3 33bf
00000010: faab 623f c1cc e43e 9f50 753f 2bab 2d3f
00000020: 4044 ec3e d742 f7be 4a96 303f 484e 17bf
00000030: c1f2 3ebf a77a 02bf a35c 6fbf da89 d6be
00000040: d822 463f dab0 4ebf 3352 e53e b002 0f3f
00000050: 5e64 533f a9ac aebe b49f 0abf ad51 9ebe
00000060: a8ea 8bbf 434c a2be 8f95 36bf 6514 7cbf
00000070: 68ec 92be 87b0 2d3f 2354 bcbe 592d 2c3f
00000080: 4b1a 44bf cbfe d73e f50e de3e 5e4b 073f
00000090: 3b2b 7dbf 4fca 26bf 62d2 2dbf d221 38bf
000000a0: f9c4 003d 95cd 1d3f 1a88 8ebf 6b42 0c3f
000000b0: e828 3e3f ab0d 443f fcc9 313f 56b7 bcbe
000000c0: 6965 7ebf a4ab 50bf 7c74 623f fd72 e03d
000000d0: a956 85bd 2620 343f da92 fc3e d776 4fbf
000000e0: 587e 083e e5cc 743f fd24 413f 551e 93bf
000000f0: ff86 6ebf 2376 95bd fd42 313d 3849 6ebf
00000100: 7a16 9ebf 83c0 1d3f b59c febe 969c 0d3f
00000110: e9de 34bf a2c1 1f3f 75cb 1ebf 2357 0b3f
00000120: 0d4a e93e d379 34bf 005f 50bd 9287 de3e
00000130: 9b52 03bf f9be 8abf 7aee 7ebf dbee 293f
00000140: 3aab 453f a477 38be 3e34 bc3e 5a94 7ebe
00000150: 82bc 433e 1772 93bf 586e 6f3f 72b9 f13e
00000160: 046e 1dbf 1a0a 583f 07fd f6be 3b4c 243f
00000170: 5fca 6b3f ab64 5cbf e282 3cbf b55a 1bbe
00000180: a395 ce3e 4ea4 6bbf 6030 3ebf 876a a0bf
00000190: 9e32 4f3e 2be9 9abf 4710 4dbf 015b 2b3f
000001a0: 5602 2e3f d806 ed3e 2eba 2f3f 63ff dd3e
000001b0: c5c9 59be f2c1 1b3f 3dfd 063f cf2b 46bf
