models/Cora_gcn4_model.pth (torch, 97900 bytes, 8 tensors)

conv1.bias f4 [16]
0.06796968 0.06780313 0.13978197 0.12163615 0.13337155 0.097965024 0.115483865 0.123760805
0.045586582 0.06175656 0.06467149 0.061047 0.049629495 0.062909774 0.10342599 0.056335922
00000000: b033 8b3d 5edc 8a3d 0123 0f3e 601c f93d
00000010: 8d92 083e e3a1 c83d ce82 ec3d 4e76 fd3d
00000020: ffb8 3a3d 72f4 7c3d 7c72 843d 6b0c 7a3d
00000030: 4c48 4b3d d7d6 803d 01d1 d33d 7fc0 663d

conv1.lin.weight f4 [16, 1433]
-0.009278789 0.09111453 -0.06664306 -0.08898178 0.2813252 0.036788143 -0.028983638 0.0067302394
-0.06985344 -0.0169842 -0.1624433 0.10760344 0.06820121 -0.0016907502 0.015796319 0.17732885
0.15278831 0.0015017691 0.05689386 -0.05915228 -0.0014026619 -0.109622754 0.0037725877 0.033592165
-0.0049830195 0.18295966 0.22332579 0.09115789 0.13593309 -0.010129853 -0.030321846 -0.0044650035
0.009200438 0.021227103 0.018993108 -0.07663671 0.010918059 0.03836117 -0.14208499 -0.13347037
0.23554423 0.046173252 -0.099074624 -0.059006073 0.065053955 -0.09295742 -0.020365657 0.14919479
-0.06851528 -0.03738724 0.00078896165 0.36864465 -0.024166903 0.00096846867 0.27496773 -0.03336344
-0.008930173 -0.19677171 0.10558421 0.12893416 -0.021312939 -0.071388 -0.16764642 -0.09148652
0.083162576 -0.0033818223 -0.07176586 0.024865098 0.012685229 0.014597103 -0.15106341 0.023609007
-0.044753764 -0.061974294 -0.005043447 -0.02152736 0.0074172197 0.17954737 0.21927169 0.0703486
-0.13965121 -0.18197726 0.071795546 -0.07168411 -0.020441001 -0.11718249 -0.03241203 0.17221227
0.14314769 0.097430766 0.009920512 0.11864452 0.056606386 0.09895415 0.13772899 0.04284469
0.042313185 0.06500516 -0.003868279 -0.2122318 0.029037742 -0.005602629 0.00455341 -0.091269486
-0.07691565 -0.024757344 -0.014750948 -0.05385323 -0.11095837 0.002627357 -0.018121399 -0.013083631
0.0075082984 0.0053104917 0.008924131 0.0004297017 0.0020038756 0.010249226 -0.030277666 0.19411027
-0.030863019 0.068200864 -0.0153332725 0.21823624 -0.020689145 -0.052788015 -0.100754045 0.05232779
-0.09760696 0.20615715 0.034188267 0.24257113 -0.17245626 0.18764703 0.06090185 0.058521897
0.21801864 0.01666334 0.0035098793 -0.106266126 -0.30482852 -0.13154924 -0.03430715 -0.05191464
0.0020904844 0.07013872 -0.17481038 0.032965798 -0.0025769947 -0.117208585 0.053728078 0.27029154
-0.008282331 0.06627082 -0.10044676 -0.0462583 0.0045995396 0.011282907 0.050200257 0.05019983
-0.07142809 -0.044872668 -0.030280314 0.010013927 0.040669028 -0.056513697 0.021979215 -0.08175244
0.12834778 0.05639585 0.030623673 0.00290758 0.025845733 0.06743934 0.033094592 -0.028046723
0.05667335 -0.024086494 0.034639925 -0.06130095 0.09854949 0.006009062 0.028460901 0.004507846
-0.07013543 0.0740299 -0.008795398 0.016817125 0.0024953214 0.089422084 0.016739024 -0.018734694
0.087483145 -0.0984719 -0.049545888 -0.13044845 0.09913178 0.0025946102 0.1287038 0.11778565
-0.09734482 -0.04145646 0.09798205 0.024965597 0.03442494 -0.076584 0.095738135 0.06048029
-0.077064335 -0.02062015 -0.024324149 0.016379654 0.03702234 -0.049015734 0.005342757 -0.0531938
-0.087059155 -0.0809169 -0.03977624 -0.02112538 -0.014748776 0.020809246 -0.08950595 0.05269292
-0.01694822 0.0369031 0.004780363 -0.047067735 0.08608838 -0.08308087 -0.042652335 -0.029942267
0.017242998 0.049375292 0.30555135 -0.06581714 -0.049255464 -0.1478853 -0.20994192 0.0045170407
-0.09184488 -0.026141472 0.035261452 0.06916591 0.020929707 0.06553981 0.03482817 -0.14019637
0.037500594 0.049193546 0.026452806 0.02229026 0.09390794 -0.024983028 -0.07912362 0.030311538
00000000: 1006 18bc 419a ba3d 287c 88bd 143c b6bd
00000010: db09 903e 2aaf 163d 186f edbc 5789 dc3b
00000020: 520f 8fbd 7322 8bbc 8957 26be 315f dc3d
00000030: 13ad 8b3d 2a9c ddba 4867 813c b295 353e
00000040: 8a74 1c3e 02d7 c43a 8909 693d a949 72bd
00000050: 86d9 b7ba e581 e0bd 853d 773b f097 093d
00000060: 9948 a3bb c759 3b3e 84af 643e fdb0 ba3d
00000070: 0b32 0b3e aff7 25bc 8565 f8bc 2a4f 92bb
00000080: 6fbd 163c 76e4 ad3c 6f97 9b3c b5f3 9cbd
00000090: a9e1 323c 9a20 1d3d ba7e 11be 75ac 08be
000000a0: 8232 713e 2a20 3d3d a3e7 cabd 5ab0 71bd
000000b0: 023b 853d 7660 bebd e1d5 a6bc 85c6 183e
000000c0: bd51 8cbd 5d23 19bd 52d2 4e3a febe bc3e
000000d0: abf9 c5bc d5e0 7d3a 92c8 8c3e 1aa8 08bd
000000e0: dc4f 12bc 867e 49be 893c d83d 5107 043e
000000f0: 7998 aebc df33 92bd 81ab 2bbe 495d bbbd
00000100: 2451 aa3d 90a1 5dbb fbf9 92bd e4b1 cb3c
00000110: b5d5 4f3c b028 6f3c 5eb0 1abe ad67 c13c
00000120: b94f 37bd c2d8 7dbd 8043 a5bb 255a b0bc
00000130: 260c f33b 44db 373e c288 603e ed12 903d
00000140: ba00 0fbe 3f58 3abe 8b09 933d 1ecf 92bd
00000150: e373 a7bc 60fd efbd 7ac2 04bd 6a58 303e
00000160: 4f95 123e c889 c73d a589 223c e6fb f23d
00000170: 19dc 673d 79a8 ca3d d408 0d3e ea7d 2f3d
00000180: 9750 2d3d 6d21 853d f482 7dbb 4b53 59be
00000190: 8fe0 ed3c 4296 b7bb c634 953b 7feb babd
000001a0: f485 9dbd eacf cabc f6ad 71bc 3495 5cbd
000001b0: 243e e3bd bc2f 2c3b 5473 94bc ba5c 56bc
000001c0: 2c08 f63b a203 ae3b 8536 123c 9649 e139
000001d0: 7453 033b 5fec 273c de08 f8bc d8c4 463e
000001e0: 71d4 fcbc e5ac 8b3d 6838 7bbc 5279 5f3e
000001f0: 487c a9bc 3f38 58bd 2358 cebd aa55 563d
00000200: 28e6 c7bd dc1a 533e ff08 0c3d 9164 783e
00000210: 6098 30be 8b26 403e 3874 793d a8b4 6f3d
00000220: 4740 5f3e 8f81 883c 0106 663b 0ea2 d9bd
00000230: 7c12 9cbe d8b4 06be a785 0cbd 72a4 54bd
00000240: 8200 093b e4a4 8f3d 7e01 33be 2507 073d
00000250: cce2 28bb 0e0b f0bd f911 5c3d a763 8a3e
00000260: 9db2 07bc ffb8 873d 08b7 cdbd 5879 3dbd
00000270: bcb7 963b f1db 383c c99e 4d3d 569e 4d3d
00000280: e448 92bd 67cc 37bd 6c0e f8bc 7411 243c
00000290: 9194 263d e87a 67bd c10d b43c d36d a7bd
000002a0: 9a6d 033e 56ff 663d 7fde fa3c 198d 3e3b
000002b0: 6eba d33c a31d 8a3d 328e 073d 3ec2 e5bc
000002c0: 5122 683d 0a51 c5bc 98e2 0d3d b416 7bbd
000002d0: 51d4 c93d aae7 c43b d626 e93c 8eb6 933b
000002e0: 2aa3 8fbd fd9c 973d 931a 10bc 11c4 893c
000002f0: 8c88 233b ed22 b73d 4720 893c 8079 99bc
00000300: 5d2a b33d a3ab c9bd a1f0 4abd 4794 05be
00000310: 9a05 cb3d 560a 2a3b eeca 033e 9a39 f13d
00000320: b95c c7bd 40ce 29bd d0aa c83d a784 cc3c
00000330: 2a01 0d3d 12d8 9cbd 5b12 c43d 2eba 773d
00000340: e8d3 9dbd 97eb a8bc 7043 c7bc a02e 863c
00000350: bda4 173d b9c4 48bd 4b12 af3b bee1 59bd
00000360: 124c b2bd c2b7 a5bd 69ec 22bd 220f adbc
00000370: daa4 71bc 2778 aa3c e54e b7bd 88d4 573d
00000380: fed6 8abc b427 173d 97a4 9c3b 19ca 40bd
00000390: 1b4f b03d 4e26 aabd 37b4 2ebd 7c49 f5bc
000003a0: 3041 8d3c bf3d 4a3d 3a71 9c3e 23cb 86bd
000003b0: 19c0 49bd 3e6f 17be 04fb 56be af03 943b
000003c0: 2b19 bcbd a426 d6bc 506e 103d dba6 8d3d
000003d0: c774 ab3c bc39 863d fca7 0e3d a38f 0fbe
000003e0: 399a 193d 2c7f 493d 8eb3 d83c 109a b63c
000003f0: ce52 c03d 35a9 ccbc 910b a2bd e74f f83c

conv2.bias f4 [16]
-0.096872196 0.08970273 -0.1652948 0.122222744 0.10751819 0.0502541 0.10553582 0.1305498
0.13755587 0.087462895 0.17857209 -0.015832314 0.15676801 0.029908892 0.06905817 0.021193631
00000000: ee64 c6bd 11b6 b73d 0a43 29be eb4f fa3d
00000010: 7f32 dc3d 3ed7 4d3d 2a23 d83d d9ae 053e
00000020: 72db 0c3e bf1f b33d 9adb 363e c5b2 81bc
00000030: cb87 203e 7e03 f53c 5f6e 8d3d 449e ad3c

conv2.lin.weight f4 [16, 16]
0.68397963 0.70168686 0.17801325 0.34943825 -0.15916717 0.00070980383 0.16533107 -0.16035204
-0.16718091 0.51930624 0.35006988 0.64519787 -0.11288473 0.41979533 -0.21163626 0.06944408
-0.69396955 0.38053203 0.04928873 -0.34205344 -0.4451166 -0.8196175 -0.38255167 0.41056767
0.5875369 0.048000652 -0.549662 0.34342393 0.47093144 -0.5021771 -0.40085095 0.8251926
0.38444597 0.32514304 -0.23445636 0.56901264 -0.6998441 0.0808653 0.5232667 0.15569822
-0.5903934 0.74269 0.3388911 -0.2156996 -0.33576593 0.14253898 0.095731825 0.27115974
0.25129437 -0.16711628 -0.40549168 -0.3438028 0.6554158 0.6604915 -0.6805182 -0.8819865
0.4791763 -0.5711367 0.0123531055 0.45358455 -0.72520393 0.48748818 -0.11066444 0.32863963
-0.38360533 -0.010365267 0.62660944 0.18977341 0.025722366 0.25204608 0.29055503 0.21569301
-0.15388194 -0.28007722 0.5340949 -0.29390922 0.89315945 -0.69842273 0.45216253 -0.27763948
-0.4780307 -0.2740536 0.6448419 0.3008045 0.17532703 -0.4965391 0.47493854 0.39365572
-0.004156899 -0.4692096 -0.49443817 -0.08077754 -0.08948679 -0.15906985 0.8349254 -0.51781464
-0.6778766 -0.40550774 0.26049146 0.11449849 0.5861911 0.43311837 0.34259036 0.03733977
0.44678298 -0.3408015 -0.726871 -0.30562407 -0.37858903 -0.21620773 0.7343211 0.049953025
-0.4142466 -0.28785846 0.059519235 -0.1817261 0.70283616 0.6871003 -0.1989998 0.05614484
0.3280651 -0.15696906 0.3685975 -0.56666887 0.31834328 -0.4799288 0.19243677 -0.643489
-0.13047728 -0.1479448 -0.35839626 -0.45424968 -0.2980047 -0.1238123 -0.50228006 -0.3474858
1.0575172 -0.4930472 0.77984077 -0.4593521 0.34402296 -0.5506472 -0.39256567 0.5739939
-0.5313644 -0.427671 0.44934762 0.089359224 0.76890117 0.6185649 0.21403545 0.06898804
0.029720264 -0.3254907 -0.5407607 -0.24978925 -0.26844937 0.12629412 0.58629096 -0.6000914
-0.095961116 -0.7408236 -0.3498469 -0.4648694 0.29119134 0.5619673 -0.48394513 -0.2903183
0.8569775 -0.41583866 0.5835471 -0.33973414 0.28630647 -0.43034786 -0.4062049 0.39271587
0.33125928 -0.008676395 -0.3379977 0.52927047 -0.45907328 0.2821302 0.28371972 -0.13228728
-0.16351438 0.6883689 0.8650379 -0.3825738 0.43469977 -0.06303358 -0.38702828 -0.065055706
0.26906094 0.95099384 -0.027030103 -0.1918379 -0.14063902 -0.23339319 -0.31830558 -0.010150867
0.37500596 0.10836734 -0.15006788 0.9741005 -0.1268369 0.2644353 -0.42096278 0.17777736
0.4487294 0.42274803 0.13876444 -0.49101532 0.4866907 0.6451349 -0.20034088 -0.7409155
0.09260197 -0.6010814 0.1497044 0.34197658 -0.5298424 0.6472001 -0.45723125 -0.22103722
0.13625549 -0.23956378 0.38152304 0.6853665 -0.13902894 -0.099873126 0.6564258 0.30367997
-0.16676602 0.50638133 0.288946 -0.56904304 0.0141036585 -0.07704833 0.6995397 -0.28590792
-0.7351696 0.7502023 0.5881949 -0.5321193 -0.418705 -0.71624583 -0.023252029 0.6300848
0.1063238 -0.15260239 -0.6788738 0.3859453 0.55624574 -0.52704006 -0.0075614676 0.21984169
00000000: 4a19 2f3f c0a1 333f 1b49 363e 92e9 b23e
00000010: b8fc 22be 2112 3a3a 8c4c 293e 5333 24be
00000020: 7931 2bbe 41f1 043f 5c3c b33e b02b 253f
00000030: 1c30 e7bd 6aef d63e 2db7 58be b338 8e3d
00000040: fda7 31bf 18d5 c23e fbe2 493d a121 afbe
00000050: 53e6 e3be 74d2 51bf d0dd c3be ed35 d23e
00000060: d168 163f 559c 443d a6b6 0cbf 43d5 af3e
00000070: ed1d f13e ae8e 00bf 563c cdbe d23f 533f
00000080: 1ad6 c43e 2679 a63e 5415 70be d0aa 113f
00000090: fc28 33bf b59c a53d cef4 053f 5b6f 1f3e
000000a0: 0624 17bf ef20 3e3f 2283 ad3e 5be0 5cbe
000000b0: 83e9 abbe bdf5 113e 0c0f c43d 73d5 8a3e
000000c0: a8a9 803e 8820 2bbe 9b9c cfbe ec06 b0be
000000d0: 54c9 273f f915 293f 7136 2ebf dec9 61bf
000000e0: 9956 f53e 0436 12bf ae64 4a3c 3c3c e83e
000000f0: f7a6 39bf 0d98 f93e 0aa4 e2bd 7443 a83e
00000100: eb67 c4be 15d3 29bc 7a69 203f f653 423e
00000110: b6b7 d23c 2f0c 813e a1c3 943e a1de 5c3e
00000120: 3a93 1dbe 4866 8fbe 72ba 083f 457b 96be
00000130: 19a6 643f d5cb 32bf d981 e73e c326 8ebe
00000140: 71c0 f4be c150 8cbe 5c14 253f 0c03 9a3e
00000150: ee88 333e 5f3a febe 252b f33e 3e8d c93e
00000160: 9936 88bb 3e3c f0be 0027 fdbe b26e a5bd
00000170: da44 b7bd 35e3 22be acbd 553f 808f 04bf
00000180: 5289 2dbf b69e cfbe 235f 853e 2f7e ea3d
00000190: 9f10 163f b1c1 dd3e 0168 af3e 96f1 183d
000001a0: bdc0 e43e 897d aebe 3814 3abf c27a 9cbe
000001b0: 6cd6 c1be 8f65 5dbe 78fc 3b3f 8b9b 4c3d
000001c0: 2118 d4be 2f62 93be 71ca 733d 6816 3abe
000001d0: 12ed 333f cee5 2f3f 9bc6 4bbe 22f8 653d
000001e0: 26f8 a73e 7fbc 20be d0b8 bc3e 3611 11bf
000001f0: e4fd a23e 3ab9 f5be 250e 453e b2bb 24bf
00000200: d69b 05be d77e 17be b77f b7be 6a93 e8be
00000210: 1294 98be 4e91 fdbd 6d95 00bf a9e9 b1be
00000220: b95c 873f af70 fcbe a5a3 473f 3330 ebbe
00000230: c723 b03e 37f7 0cbf 5efe c8be 44f1 123f
00000240: 7f07 08bf b1f7 dabe e410 e63e f801 b73d
00000250: b5d6 443f 455a 1e3f 1c2c 5b3e 9a49 8d3d
00000260: e977 f33c b8a6 a6be 4b6f 0abf c1c8 7fbe
00000270: 3272 89be 3f53 013e 2a17 163f 979f 19bf
00000280: 4387 c4bd 9ea6 3dbf 221f b3be 5d03 eebe
00000290: 0817 953e 17dd 0f3f a8c7 f7be 9aa4 94be
000002a0: e162 5b3f cee8 d4be 5863 153f a2f1 adbe
000002b0: c396 923e 8e56 dcbe 17fa cfbe 0e12 c93e
000002c0: d19a a93e 7027 0ebc 090e adbe 457e 073f
000002d0: a70b ebbe 5f73 903e b643 913e 5176 07be
000002e0: 5070 27be f238 303f 2073 5d3f b7e0 c3be
000002f0: f890 de3e c017 81bd 9228 c6be ed3b 85bd
00000300: 5bc2 893e 5574 733f 3c6e ddbc 2871 44be
00000310: ad03 10be a0fe 6ebe f3f8 a2be d24f 26bc
00000320: c800 c03e b2ef dd3d 65ab 19be a65e 793f
00000330: 88e1 01be 1064 873e 6f88 d7be 450b 363e
00000340: dcbf e53e 6e72 d83e 4418 0e3e 5c66 fbbe
00000350: 862f f93e 9027 253f 2926 4dbe a3ac 3dbf
00000360: 1aa6 bd3d 78e0 19bf 1c4c 193e 8e17 af3e
00000370: c0a3 07bf e8ae 253f 371a eabe 9557 62be
00000380: 8f86 0b3e 3550 75be fd56 c33e 2e74 2f3f
00000390: 9a5d 0ebe 488a ccbd 850b 283f f17b 9b3e
000003a0: b6c4 2abe 35a2 013f bbf0 933e ceac 11bf
000003b0: 0813 673c 84cb 9dbd 0915 333f 8662 92be
000003c0: 1334 3cbf 420d 403f f193 163f f838 08bf
000003d0: 8060 d6be e35b 37bf 0a7b bebc 3d4d 213f
000003e0: 4bc0 d93d cd43 1cbe acca 2dbf 9f9a c53e
000003f0: 1f66 0e3f 19ec 06bf 30c6 f7bb 2e1e 613e

conv3.bias f4 [16]
0.122357756 -0.10321142 0.1858299 0.1380325 0.13713135 0.10529454 0.2023111 -0.045391507
0.10614154 0.20438825 0.2037931 0.06522911 0.076539285 0.170752 0.14245607 -0.02058589
00000000: b496 fa3d 8260 d3bd 314a 3e3e 6458 0d3e
00000010: 296c 0c3e aaa4 d73d a42a 4f3e 72ec 39bd
00000020: bc60 d93d 274b 513e 23af 503e d796 853d
00000030: a1c0 9c3d 9dd9 2e3e 01e0 113e bea3 a8bc

conv3.lin.weight f4 [16, 16]
0.17351934 -0.55608135 0.44039765 -0.43781877 0.034560576 0.6200466 0.55840623 -0.24266243
-0.614707 0.39900434 -0.81870604 0.2329971 -0.17524624 -0.28517127 0.62513435 -0.17626624
-0.3429911 -0.41208395 -0.40582627 0.0145969195 0.63956195 0.33473855 0.55192894 0.952796
-0.24550213 1.0292608 0.25286886 0.09418392 -0.8051971 0.15417962 0.19240874 0.0344586
0.18536751 0.0422238 -0.34398633 0.690009 -0.30589178 -0.096399054 0.052348092 -0.12506796
0.12325284 0.3895603 -0.077138916 -0.66236144 0.6234093 0.71038043 -0.7846682 0.5107341
0.2779689 0.32443854 0.2378998 -0.36041042 0.3331519 -0.56298685 -0.79567647 -0.0732512
0.29470837 -0.5986687 0.15720582 0.74159414 0.25481465 0.095990695 -0.1533304 0.41591355
0.4663597 0.0666653 -0.17902032 -0.29023486 0.18171082 0.76254797 0.06322432 -0.0989752
-0.51090187 0.149251 -0.4862145 -0.4381311 0.2593502 0.23818809 0.20363282 0.5758721
0.026220316 -0.72095335 -0.27935436 0.37169993 0.33934808 0.15000449 0.34872225 0.5259078
-0.29832014 0.83629614 0.09409826 -0.13414344 0.1072756 0.5557974 -0.029078785 -0.51764834
0.49759093 0.08265221 0.6026658 -0.105935946 -0.094251916 -0.17108978 -0.3458567 -0.46913666
-0.387695 -0.4033109 -0.5396178 0.29550427 0.56445014 0.48292935 0.19842961 0.25753576
0.47199103 -0.46997425 0.4299225 0.5799414 -0.19226693 -0.32191747 0.1383401 0.03818873
-0.3942425 0.33448386 -0.011725217 0.25053814 0.12773073 0.67558986 -0.10946279 -0.55723304
0.47045726 -0.5087991 0.42465875 0.23315053 -0.06635728 -0.16163096 -0.56720597 -0.13860191
0.1667674 -0.47543553 0.06751058 0.6586702 0.14871927 0.170954 0.3107625 -0.49638736
0.11814482 0.2229423 0.20529309 -0.86006063 0.83566743 0.38902527 -0.13092753 0.28738913
-0.21959381 0.09426628 -0.4167945 0.3564665 -0.10856467 -0.36359194 0.4119078 0.76641
0.09206287 0.21737942 0.6577974 -0.6363212 0.15044793 0.464251 0.34610564 -0.48374262
-0.70105594 0.28716367 -0.6312914 0.106779546 0.021366892 -0.41716343 0.71595037 0.33226648
-0.06720629 1.0010728 -0.3551209 -0.11397764 0.41813383 0.4725057 0.029061764 -0.17052612
0.6193789 -0.26996818 0.2701657 -0.27185068 0.07069526 -0.3664806 -0.023611313 0.9747745
0.309131 -0.63672924 0.43785325 0.32537407 0.35235414 -0.06367272 -0.4549847 0.25497633
0.12937522 -0.15838087 0.1205189 0.66833675 -0.22557797 0.6358011 0.14699067 -0.66095304
0.6805317 0.4076299 0.46760204 0.21389826 -0.0660211 -0.21586786 -0.18717857 -0.46260798
-0.0647171 -0.46799475 -0.15317851 0.047922876 0.6157999 0.15661833 -0.02044183 0.16178359
-0.08260277 0.5038976 -0.4157595 0.5223246 -0.2927573 -0.68575305 0.5036003 0.4843632
0.8562276 -0.29118893 0.9449841 0.0023191867 0.14622076 0.2678246 -0.6370652 -0.26072723
0.21711046 -0.20349458 0.30506 -0.36133716 0.6028143 -0.58514917 -0.41395319 0.33317584
0.095580414 -0.061411563 0.17617895 0.7642388 -0.30117813 -0.08905892 0.7489142 -0.049159795
00000000: 0eaf 313e 595b 0ebf cd7b e13e c829 e0be
00000010: 648f 0d3d 60bb 1e3f b6f3 0e3f 807c 78be
00000020: 705d 1dbf 4c4a cc3e b896 51bf cb96 6e3e
00000030: c073 33be f801 92be ce08 203f 237f 34be
00000040: 889c afbe abfc d2be 76c8 cfbe eb27 6f3c
00000050: 55ba 233f da62 ab3e 374b 0d3f 70ea 733f
00000060: e964 7bbe d1be 833f 0778 813e 80e3 c03d
00000070: 6621 4ebf 43e1 1d3e cc06 453e 7624 0d3d
00000080: fbd0 3d3e ddf2 2c3d fa1e b0be 6ea4 303f
00000090: d99d 9cbe de6c c5bd f46a 563d d111 00be
000000a0: fc6b fc3d 7374 c73e 02fb 9dbd 8590 29bf
000000b0: c097 1f3f 7edb 353f 04e0 48bf 78bf 023f
000000c0: f151 8e3e cf1c a63e 019c 733e b787 b8be
000000d0: e392 aa3e e81f 10bf 74b1 4bbf ba04 96bd
000000e0: 04e4 963e 5a42 19bf 90fa 203e 1dd9 3d3f
000000f0: 1177 823e c596 c43d a502 1dbe 9ff2 d43e
00000100: b3c6 ee3e d187 883d 1a51 37be aa99 94be
00000110: 6712 3a3e 5836 433f c17b 813d 82b3 cabd
00000120: 77ca 02bf 41d5 183e 1bf1 f8be b852 e0be
00000130: 8dc9 843e 94e7 733e 1f85 503e 5b6c 133f
00000140: fdcb d63c 6690 38bf 8907 8fbe 744f be3e
00000150: 08bf ad3e c79a 193e b98b b23e e5a1 063f
00000160: 6bbd 98be 8117 563f 97b6 c03d e65c 09be
00000170: 4fb3 db3d bd48 0e3f a236 eebc 9a84 04bf
00000180: 3dc4 fe3e 9045 a93d 4e48 1a3f f2f4 d8bd
00000190: 2607 c1bd 2932 2fbe 2114 b1be ae32 f0be
000001a0: f67f c6be c47e cebe 6424 0abf 564c 973e
000001b0: ce7f 103f 8442 f73e 2231 4b3e badb 833e
000001c0: cfa8 f13e 77a0 f0be cd1e dc3e 0a77 143f
000001d0: 9fe1 44be 5ed2 a4be 07a9 0d3e c96b 1c3d
000001e0: 27da c9be 7841 ab3e 201b 40bc 8946 803e
000001f0: d8cb 023e 75f3 2c3f 072e e0bd d3a6 0ebf
00000200: c6df f03e a840 02bf df6c d93e 03bf 6e3e
00000210: 53e6 87bd 9682 25be 6934 11bf a9ed 0dbe
00000220: 13c5 2a3e 496c f3be fd42 8a3d 9c9e 283f
00000230: dd49 183e 910e 2f3e 431c 9f3e 7c26 febe
00000240: e9f5 f13d fc4a 643e 5a38 523e ef2c 5cbf
00000250: 4dee 553f 522e c73e de11 06be ab24 933e
00000260: 33dd 60be ae0e c13d 1766 d5be c782 b63e
00000270: 2757 debd b928 babe 94e5 d23e 7233 443f
00000280: 758b bc3d b698 5e3e 6965 283f f2e5 22bf
00000290: 060f 1a3e 4fb2 ed3e c234 b13e 1dad f7be
000002a0: 6778 33bf 1e07 933e 509c 21bf 3caf da3d
000002b0: 9f09 af3c 7296 d5be 8648 373f d51e aa3e
000002c0: 74a3 89bd 2723 803f 68d2 b5be 1c6d e9bd
000002d0: a315 d63e 44ec f13e f012 ee3c 669e 2ebe
000002e0: 9e8f 1e3f 4539 8abe 2953 8a3e 0330 8bbe
000002f0: adc8 903d 58a3 bbbe 836c c1bc d28a 793f
00000300: 6b46 9e3e b000 23bf 4d2e e03e 6e97 a63e
00000310: c367 b43e d866 82bd c1f3 e8be 428c 823e
00000320: f07a 043e 982e 22be 9dd2 f63d 1e18 2b3f
00000330: e9fd 66be dcc3 223f b984 163e 3834 29bf
00000340: 5337 2e3f deb4 d03e 8969 ef3e 2508 5b3e
00000350: 1236 87bd 770c 5dbe bdab 3fbe f4da ecbe
00000360: 668a 84bd 029d efbe d4da 1cbe c74a 443d
00000370: 10a5 1d3f 8e60 203e a075 a7bc 99aa 253e
00000380: a42b a9bd 6fff 003f 6ede d4be 11b7 053f
00000390: 49e4 95be 838d 2fbf f3eb 003f 74fe f73e
000003a0: bb31 5b3f b716 95be 7aea 713f 7ffd 173b
000003b0: e5ba 153e 4e20 893e b416 23bf 0a7e 85be
000003c0: 3452 5e3e e260 50be d330 9c3e 2f01 b9be
000003d0: 0a52 1a3f 56cc 15bf acf1 d3be 0696 aa3e
000003e0: aabf c33d b18a 7bbd 4168 343e 27a5 433f
000003f0: 0534 9abe 8664 b6bd d7b8 3f3f c85b 49bd

conv4.bias f4 [7]
0.0023142172 0.010308338 0.114967816 0.3032587 -0.46901459 -0.24303606 0.61709267
00000000: 1faa 173b 4ee4 283c 3f74 eb3d b944 9b3e
00000010: ae22 f0be 72de 78be c9f9 1d3f

conv4.lin.weight f4 [7, 16]
-0.5143786 -0.21147169 0.2790938 0.4877304 0.58623123 -0.7945533 0.4930717 -0.53442127
-0.43551657 0.32290426 0.32993382 0.51428473 -0.6451492 0.35815546 0.07520541 -0.14357387
-0.80391777 0.42490804 -0.95828116 0.5394293 -0.6293767 0.18199736 -0.67272043 -0.52444255
0.31130183 0.17781195 -0.67129993 0.34063694 0.5706435 -0.96533716 0.4077407 0.594669
-0.3336391 0.6217005 0.4871497 -0.9850511 -0.5366993 0.7171193 -0.60534096 0.52257067
-0.87233776 -0.61361486 -0.5541037 -0.70182836 0.31371957 -1.0155449 0.5399501 -0.21638983
0.57988346 0.47737378 -0.21306303 -0.6885337 0.67680776 0.38938096 -0.3262398 -0.52775526
-0.4023596 0.28726962 0.6003377 0.26627624 -0.14934179 -0.5796588 -0.67248315 0.1232806
0.52998024 -0.39342394 -0.72391886 0.27528316 0.04091335 -0.864669 0.56086147 0.13942167
0.5273048 0.08410043 0.5607257 -0.32952753 0.41776124 0.2592598 -0.5754948 0.41945502
-0.7261849 -0.63977563 0.45810893 0.1397775 0.21861772 0.2521087 0.57102805 0.45888817
0.5645343 -1.0269806 -0.931964 -0.20161298 0.4679805 0.40145463 0.2951967 -0.2701814
-0.42445743 -0.74905634 0.43131238 0.19388103 -0.9137077 -0.618452 -0.44783443 -0.71438634
-0.35628447 -1.1674067 -1.1233813 0.79308766 -0.8263085 0.2884164 0.7767078 -1.3304718
00000000: 51ae 03bf 098c 58be 62e5 8e3e cdb7 f93e
00000010: 4013 163f d867 4bbf e573 fc3e d5cf 08bf
00000020: 07fc debe b553 a53e 16ed a83e 2aa8 033f
00000030: 7f28 25bf 2760 b73e 4b05 9a3d 0705 13be
00000040: 8ecd 4dbf 8c8d d93e ea51 75bf 0a18 0a3f
00000050: d51e 21bf 845d 3a3e 6837 2cbf de41 06bf
00000060: f462 9f3e 5614 363e 50da 2bbf f767 ae3e
00000070: b115 123f 5620 77bf 64c3 d03e 3a3c 183f
00000080: bed2 aabe c427 1f3f af6b f93e 4f2c 7cbf
00000090: 2065 09bf 2195 373f a0f7 1abf 31c7 053f
000000a0: 8751 5fbf dd15 1dbf bdd9 0dbf 06ab 33bf
000000b0: da9f a03e 60fd 81bf 2b3a 0a3f 4c95 5dbe
000000c0: 3e73 143f 566a f43e 322d 5abe bf43 30bf
000000d0: 4643 2d3f f15c c73e e708 a7be f81a 07bf
000000e0: 1402 cebe 0115 933e bbaf 193f 5c55 883e
000000f0: 0eed 18be 8564 14bf db27 2cbf 8a7a fc3d
00000100: c9ac 073f dd6e c9be bf52 39bf eaf1 8c3e
00000110: c294 273d f35a 5dbf 9e94 0f3f 8ec4 0e3e
00000120: 73fd 063f d93c ac3d b88b 0f3f d5b7 a8be
00000130: cde4 d53e b3bd 843e a153 13bf cfc2 d63e
00000140: 41e7 39bf 56c8 23bf 418d ea3e d521 0f3e
00000150: 53dd 5f3e 6414 813e e52e 123f 64f3 ea3e
00000160: 5285 103f 1a74 83bf 3195 6ebf a273 4ebe
00000170: 249b ef3e 768b cd3e 0624 973e 3755 8abe
00000180: 7c52 d9be 28c2 3fbf fad4 dc3e c088 463e
00000190: bfe8 69bf df52 1ebf 8e4a e5be 06e2 36bf
000001a0: eb6a b6be 956d 95bf f5ca 8fbf cb07 4b3f
000001b0: f488 53bf 50ab 933e 53d6 463f e64c aabf
