models/Cora_gcn_model.pth (torch, 96206 bytes, 6 tensors)

conv1.bias f4 [16]
000000 e6 4c 1c 3e 75 90 11 3e 96 0e 86 3e 41 87 a8 3d
       0.1526371 0.14215262 0.26183003 0.08228923
000010 30 8d 0b 3e 07 92 e1 3d 8d 8b 61 3e 7b 51 16 3e
       0.13628078 0.11014181 0.2202589 0.1467952
000020 d7 31 55 3e 37 a0 38 3e 33 5c 28 3e 2f b9 c0 3d
       0.20819794 0.18029867 0.16441421 0.09410321
000030 8d 90 1e 3e 63 f8 6e 3e a1 3e 15 3e 0d 70 10 3e
       0.15484829 0.2333694 0.14574672 0.14105244

conv1.lin.weight f4 [16, 1433]
000000 50 0d 43 bd 65 ce 85 3d 88 1d 78 3c a3 d0 d3 bc
       -0.047620118 0.06533507 0.01514376 -0.025856322
000010 cd 22 aa 3e 52 02 99 3d 68 0f 49 bd 71 32 5a bd
       0.33229676 0.07471146 -0.04908696 -0.05327076
000020 70 20 a1 3c e0 29 63 bc 6a 30 32 bb 88 29 76 3d
       0.019668788 -0.013864964 -0.0027189502 0.0600982
000030 b6 44 cf 3d 9d d8 8b bd b6 c8 8f 3d ab a3 33 3e
       0.101205274 -0.06828425 0.070207044 0.17542903
000040 cb 9d db bd ac 06 64 bc 96 48 0c bd 64 f5 6a be
       -0.10723456 -0.013917606 -0.03424891 -0.22945172
000050 21 01 ba 3a 91 a2 22 be 5b aa 2c bd 4e 71 c1 3b
       0.001419101 -0.15882327 -0.04215465 0.0059033995
000060 b8 c9 ee bb 1f f9 1e 3e 2a 65 76 3e a7 6d 4b 3d
       -0.0072872303 0.1552472 0.24062029 0.04966512
000070 df 3e 0d 3e 2c 44 38 3c 5c 22 8d bc 40 11 04 3d
       0.13793515 0.011246722 -0.017228298 0.032243013
000080 24 e4 fb 3b 63 80 11 3d a2 4a 15 3d 6f 08 77 bd
       0.0076871086 0.03552283 0.03644813 -0.060310777
000090 c3 74 09 bc b3 29 6c bd 3c 54 70 bd 5e f3 30 be
       -0.008389655 -0.057656955 -0.058674082 -0.17280337
0000a0 7b 55 92 3e 17 59 1a bc 33 b5 24 bd 95 f1 f9 3c
       0.2858084 -0.009420655 -0.040211868 0.030510703
0000b0 bc eb a1 bd 0f 34 09 be af 29 37 bd e6 10 65 be
       -0.07906291 -0.13398765 -0.044717487 -0.22369727
0000c0 36 89 72 3d ed a8 f3 bb eb c5 f8 bc 91 c1 63 be
       0.059212886 -0.007435909 -0.030367812 -0.22241808
0000d0 0d e2 e6 bc eb f5 f3 bc 23 9a cb 3e 54 d0 2a bc
       -0.028183961 -0.029780349 0.39766034 -0.010425646
0000e0 0a 9a 9f bd 99 cb 3e ba dd 94 15 be ee bf 91 3d
       -0.077930525 -0.0007278263 -0.14607568 0.07116686
0000f0 6f 22 94 3d 4e 50 d3 3c c7 80 0e bc 99 75 7b 3d
       0.0723313 0.025795128 -0.008697695 0.061391447
000100 6e 96 ae 3e b8 be 0a 3e ed 69 9e bd 9a b9 e0 bd
       0.34099144 0.13549316 -0.077350475 -0.10972901
000110 16 64 bc 3b 02 89 82 bd 78 7d 94 3c e3 13 54 bd
       0.005749236 -0.063737884 0.018126234 -0.051776778
000120 20 65 9b ba da 24 0d be f5 15 0d be bc 5f dd 3b
       -0.0011855699 -0.13783589 -0.13777907 0.006755797
000130 dc 52 37 bd f8 50 db 3c 96 1d 44 3e 14 9e ea 3c
       -0.044756755 0.026772007 0.19151911 0.02863983
000140 7c 36 5b bb 06 4b 99 be 3a 03 34 3d aa 39 8d bc
       -0.0033449223 -0.2994005 0.04394839 -0.01723941
000150 d5 74 e6 3c 66 47 c6 bb 8b 39 86 bd 8d df b7 bd
       0.028131882 -0.006050992 -0.06553944 -0.08978186
000160 8f 25 52 bc 82 88 12 3e cf e4 aa 3b db 15 5a bd
       -0.0128263375 0.14309886 0.0052152644 -0.0532435
000170 89 56 65 bd ef 53 4f 3e ca a6 59 3d a4 e7 18 3c
       -0.05599073 0.20246862 0.053137578 0.009332571
000180 d1 f1 0f 3c 42 99 b8 3d bb 1e 08 be 7c cd 50 be
       0.008785681 0.090136066 -0.13292973 -0.20390886
000190 84 04 9b bc ea dc c4 bb e8 c3 83 bd 3d 05 c0 bd
       -0.018923052 -0.0060077803 -0.064338505 -0.09375999
0001a0 3d 22 b5 bd cf f4 92 bd a0 01 29 bd 19 a9 4e bd
       -0.08844421 -0.071756 -0.041261315 -0.050454233
0001b0 ad a1 f3 bd b4 48 10 3d b9 e3 a0 3c 5f c1 0f 3d
       -0.118960716 0.035225585 0.019639837 0.035096522
0001c0 0f b0 27 3e ab ea fd bb 30 3f 9c 39 62 1c 21 bb
       0.16375755 -0.007748922 0.00029801717 -0.0024583568
0001d0 5b 27 15 bd 9a ef 1a bd b6 6d 53 3d 76 f3 01 3e
       -0.036414485 -0.037826158 0.0516183 0.12690529
0001e0 f5 34 f6 bd 40 1b 2c 3d d4 bc 2c 3e 0a ed 4d bc
       -0.120218195 0.042018175 0.16868907 -0.012568722
0001f0 ea cd 96 3b ae 46 ad 3c 9d b7 84 bd 2d 3b 15 bd
       0.0046021836 0.021151867 -0.06480334 -0.036433388
000200 ed af 4c 3c 30 9b 99 bc 04 9e c3 3c 54 4c f7 bd
       0.012493116 -0.018750757 0.023879059 -0.12075105
000210 e9 f8 71 bd eb e5 a1 bc 76 ba 41 bb 35 db 7e be
       -0.05907527 -0.019762954 -0.0029560602 -0.24888308
000220 ee 00 aa 3b 18 b7 ae bd 6e 93 9f bc 3c a3 18 bd
       0.005188099 -0.08531016 -0.01947948 -0.037265047
000230 4a 3b 24 be 3b fe 8d bd 00 9c 3c b9 91 bb ad 3c
       -0.16038242 -0.06933256 -0.00017987192 0.021207603
000240 b3 67 bc bd 17 e5 68 3c 1a fd e7 bc 59 a9 03 3e
       -0.091994666 0.0142147755 -0.02831893 0.1285757
000250 27 41 25 bd 3a a0 a3 3d 4d 1f c8 3c fa c2 a2 3d
       -0.040345337 0.07989545 0.024428988 0.07947345
000260 48 d0 ed 3d 43 9f 3c be 70 62 2b bb 05 2b bb bd
       0.11611992 -0.18420129 -0.0026151203 -0.09139065
000270 07 3c 01 3e d1 93 64 bd 3b c9 1b bd 41 fb 1b bd
       0.12620555 -0.05580503 -0.038033705 -0.03808141
000280 3a 0d 5d 3b 10 4b 9d bc a7 49 08 3b 95 b7 00 bc
       0.0033729807 -0.019200832 0.0020795853 -0.007856269
000290 51 8d 29 3d a7 79 43 3d 6c 77 f7 3a 81 38 5a 3d
       0.041394535 0.04772344 0.0018880195 0.053276543
0002a0 12 f7 c9 bd a5 58 e8 bd 28 b2 77 3d 5e 50 8b bc
       -0.09861578 -0.113450326 0.060472637 -0.017006095
0002b0 6f c2 05 be 8a 76 93 3d 00 ff b4 bc 26 f4 56 3d
       -0.13062452 0.07200344 -0.02209425 0.05247893
0002c0 ba 88 d2 bc 22 78 64 3c e0 4a 82 bc da 19 4c bc
       -0.025699962 0.0139446575 -0.015904844 -0.012457335
0002d0 67 58 e9 3c ae c9 f1 bb f9 12 74 bd e6 8c 2c 3c
       0.028484536 -0.0073787784 -0.059588406 0.01053164
0002e0 33 6a e4 3c ed 0b 03 3d 15 58 2d 3d b7 5c 23 3e
       0.027882671 0.031993795 0.04232033 0.15953337
0002f0 4a 24 8f bc a6 10 9e 3d 32 d1 a7 bc 37 2b ad 3d
       -0.017473359 0.07718019 -0.020485494 0.08455508
000300 c6 ff 03 3d 53 9f 03 be c6 ba da bc aa 95 6b 3d
       0.032226346 -0.12853746 -0.026700389 0.057515778
000310 58 ba da 3c 1f 76 9f bd c2 f7 b6 3c 88 9b ad 3c
       0.026700184 -0.07786202 0.022334937 0.021192327
000320 db 81 b9 bd fb 97 05 3b 91 76 9f bd a7 2d ec bc
       -0.09057971 0.0020384777 -0.077862866 -0.028830362
000330 fb 66 16 bd 3e 98 4c bd c6 01 f1 bb 5a fa b5 bd
       -0.036719304 -0.049949877 -0.0073549477 -0.088856414
000340 0a ac 60 3c d1 d2 f6 bb 7a 39 77 3d 0c 14 b6 3d
       0.013712892 -0.0075324555 0.06035755 0.088905424
000350 8c 53 13 3d 6c 13 c9 bb 79 b2 06 bc e1 6e 86 bd
       0.03596835 -0.0061363485 -0.008221262 -0.06564117
000360 54 65 59 3a 8d 09 45 bd c6 60 c0 bc d2 3d 8b bb
       0.0008292992 -0.04810481 -0.023483645 -0.004249313
000370 a7 e3 07 bd 3d ff 19 be 84 be 14 3d d8 24 eb bc
       -0.03317609 -0.15038772 0.036314502 -0.028704092
000380 c3 a7 26 3c a5 e7 3b 3d 92 a4 59 3d 38 00 40 bd
       0.010171833 0.04587521 0.053135462 -0.04687521
000390 d2 7f 02 bd b9 02 20 bd 64 1e b0 bd 64 e2 2b bd
       -0.03186018 -0.039065097 -0.085995466 -0.04196395
0003a0 fc c1 1a bd ce 2b 4f bc 2d 93 72 3e 27 75 0f bd
       -0.037782654 -0.012644721 0.23688956 -0.035023835
0003b0 61 b0 24 3d 51 c6 a1 3a f6 91 0a be f5 be 09 3d
       0.04020727 0.0012342428 -0.13532242 0.033629376
0003c0 72 95 7f bd 6f 1c f6 bc a8 51 7c 3d ba 94 a3 3c
       -0.06239838 -0.030042855 0.06160131 0.01996838
0003d0 fb 68 5f 3d c1 7f 93 3c 28 2b ca bd cd 51 1d 3e
       0.054543477 0.018005254 -0.09871513 0.15363236
0003e0 07 42 23 3d 64 16 56 bc f9 4c 31 3d 75 bf b5 3c
       0.03985789 -0.013066862 0.043286297 0.02218602
0003f0 19 1c 19 3d ad 84 85 bd f0 c2 98 3d 01 70 e0 3c
       0.03738031 -0.065194465 0.074590564 0.027397158

conv2.bias f4 [16]
000000 ba 44 a1 3d d0 ec 22 3e 85 35 b3 3d e8 93 0b 3e
       0.07874437 0.1591065 0.087504424 0.1363064
000010 27 03 49 3e 03 b8 17 3e 38 b5 be 3e 24 28 d4 3d
       0.19630109 0.14816289 0.37247634 0.10359219
000020 d7 7e 8d 3d 86 d1 da 3d 61 0f d2 3c f6 44 b1 3e
       0.069089584 0.10684495 0.025642099 0.34622926
000030 ac 36 1e 3e 7d 1c ce 3c 3f 1b aa 3e 8b 20 f7 3d
       0.15450543 0.025160069 0.33223912 0.12066754

conv2.lin.weight f4 [16, 16]
000000 69 70 bf be 3c 6e e1 ba a6 c7 16 3f be c4 06 3e
       -0.3739045 -0.001719899 0.5889839 0.13160989
000010 c6 1d 35 bf 39 b7 0f 3e 3a de 6f be c2 6b 28 bd
       -0.70748556 0.14034738 -0.23424616 -0.04111839
000020 91 9a 61 bf 4f 9d 28 3e b6 d6 36 bf 11 65 98 3f
       -0.88126475 0.16466258 -0.7142137 1.1905843
000030 0d 2b dd 3f 68 b1 df 3d 2e 79 7b 3e 2c 44 9c 3e
       1.7278763 0.109225094 0.24557945 0.3052076
000040 b7 7b 3d be 70 76 d4 3d 37 9d b1 bd 3a 13 aa 3f
       -0.18504225 0.10374153 -0.086725645 1.3287117
000050 ec 83 69 3e 11 97 92 3d d7 8c 8c be 8a 9a c2 3e
       0.2280423 0.0715772 -0.27451202 0.3800853
000060 65 f9 6d bf 13 84 66 bd 78 e0 47 be 60 81 a6 3f
       -0.9295867 -0.0562783 -0.19519222 1.3008232
000070 30 3f 50 3a b4 e0 e5 be 7f b3 7f 3f 33 34 42 be
       0.0007943986 -0.44897997 0.99883264 -0.18965225
000080 28 cd 43 3f 63 98 fd be ca 5f 19 3f c3 d9 e6 3e
       0.7648492 -0.49530324 0.5991179 0.45088014
000090 12 92 a5 3f c7 d0 0d 3e 08 4c 08 be 1c 22 1f 3f
       1.2935202 0.13849173 -0.13310254 0.6216142
0000a0 55 15 89 be fc fe 10 3d 1d 34 88 bd 4a 17 36 3d
       -0.26774088 0.035399422 -0.06650565 0.044455804
0000b0 69 73 ba be 16 54 a6 bd 51 26 a8 3f cb 35 26 bf
       -0.36416176 -0.08121507 1.3136693 -0.6492583
0000c0 32 7e f4 3c 62 e8 52 3e 5f e5 97 3e 5a a5 ba 3e
       0.02984533 0.2059646 0.29667184 0.36454278
0000d0 26 f0 4b be 27 b4 85 bd 26 de 5f bf c9 60 06 3f
       -0.19915828 -0.06528502 -0.87448347 0.5249143
0000e0 5b 5b 48 3e 11 a7 57 bf 27 37 2d bf d0 3d 0b be
       0.195661 -0.842393 -0.6766228 -0.13597798
0000f0 e3 a9 1d 3e f6 0e 8f 3f ad 6d c1 be 53 bc a3 3f
       0.15396838 1.1176441 -0.37778988 1.2791847
000100 24 43 9d 3e 7d 34 26 3f 60 22 05 bf 56 62 99 be
       0.30715287 0.6492384 -0.5200558 -0.29957837
000110 7d 83 9d be 43 42 8f be 02 64 72 3f b0 a9 45 3e
       -0.3076438 -0.2798024 0.9468385 0.19303012
000120 e5 a1 94 3d 78 5e 9d 3f 5a e4 8e bd 00 28 87 3f
       0.072574414 1.2294455 -0.06977148 1.0559082
000130 69 b5 9e 3e bb c0 5d bf 54 65 cf be 2a 89 b3 bd
       0.3099778 -0.8662221 -0.40506995 -0.08766396
000140 ad 34 c7 3e f2 13 65 3f 90 5d 92 be bc 00 a0 bd
       0.38907376 0.8948356 -0.28587008 -0.0781264
000150 06 e6 4d 3e cf 8b fb be dc 13 a5 be 45 03 a7 3e
       0.20107278 -0.49130103 -0.32241714 0.32619682
000160 5f 14 6d 3f 33 ce e4 be ea b3 a5 be 90 bf 48 bd
       0.9260921 -0.44688568 -0.32363826 -0.049010813
000170 d4 5f 8b be cc 3c c3 3c 00 c0 2b bf 31 ec a6 3f
       -0.2722155 0.023832701 -0.67089844 1.304083
000180 f1 90 19 bf b9 6e 81 3f 61 63 45 bf 6a 06 12 3f
       -0.5998679 1.0111915 -0.77104765 0.5704104
000190 f4 ec 45 3d fa 46 d2 3d cd 01 e3 3e b6 cb 0e bf
       0.04832168 0.10267444 0.4433731 -0.5577959
0001a0 26 74 b7 3e 78 bf 2f bc cc a7 9c 3f 80 b9 cb be
       0.35830802 -0.010726802 1.2238708 -0.39789963
0001b0 e3 be 0d bf 43 de 1a bf 13 fc 62 3e 38 cf 8c be
       -0.55369395 -0.60495394 0.22166471 -0.27501845
0001c0 55 0f 67 3f 21 8f fd be ab 9d e6 3e 08 87 5a 3e
       0.9025777 -0.4952326 0.45042166 0.21340573
0001d0 a5 ff be 3f 62 a7 6a 3e 32 90 ca bd 21 c9 15 3f
       1.4921767 0.22915414 -0.09890784 0.58510023
0001e0 70 dd a9 be 0d a0 6a 3d a8 12 ec bc 2b f8 c0 bc
       -0.33176756 0.057281543 -0.02881749 -0.023555836
0001f0 78 ef 9c be 3d 6b ee bd d4 d5 a4 3f c8 e8 1d bf
       -0.3065145 -0.11641548 1.2877755 -0.6168332
000200 8a be 87 3f 3b c1 21 be 0d e6 17 3e 99 08 46 bf
       1.0605023 -0.15796368 0.14833851 -0.7735687
000210 e9 62 9a 3d fb 98 fc bd cd bf 8d 3f 7f 48 03 3e
       0.07538397 -0.12333866 1.1074158 0.12820624
000220 89 8c 8d 3f 8f d1 86 3f 7c bf 34 3d 2e 55 ea bd
       1.1058513 1.0532702 0.044127926 -0.11442028
000230 1c 70 96 bd 5b b0 3f be a3 2e 8a be 05 1e ef bd
       -0.07345602 -0.18719618 -0.26988706 -0.11675648
000240 66 a7 df 3e 75 d8 d8 be dc 42 5c bd 24 e4 c7 be
       0.43682402 -0.42352644 -0.0537747 -0.39041245
000250 30 64 95 3f 65 41 bc 3f f8 ba 21 be 85 e1 8e be
       1.16712 1.4707457 -0.15793979 -0.27906433
000260 68 78 f9 be 24 80 56 3b 92 8f 70 be c2 6a a1 3d
       -0.48724675 0.0032730186 -0.23492268 0.078816906
000270 9d e3 64 3f 75 f1 9b bd 01 c9 82 bd 0e 95 72 3e
       0.8940981 -0.07614414 -0.06385995 0.23689672
000280 6c 50 84 3f a6 99 38 bf 0a 61 c0 3e 8e b8 83 bf
       1.0337043 -0.7210945 0.37574035 -1.0290697
000290 27 cd 1a 3f b3 88 34 3f 9a e7 a5 3d 07 22 8f bc
       0.6046929 0.70521086 0.08100815 -0.01747228
0002a0 60 c8 ca 3d 6a 51 84 3e 3e eb 34 bf 8a 06 ff bd
       0.099015 0.25843364 -0.7067145 -0.12452419
0002b0 99 9b 40 3f e2 b9 90 3e 02 4d e4 be 4b 78 5b 3e
       0.75237423 0.28266817 -0.44590002 0.21432607
0002c0 23 43 d4 be 84 57 64 3f e3 be 0a bf 99 0f 4b 3e
       -0.4145747 0.8919604 -0.5419752 0.19830169
0002d0 34 da 30 3e 21 d9 90 3f 8b c8 25 3f 45 84 05 bf
       0.17270738 1.1316262 0.6475913 -0.5215495
0002e0 74 2e cb be 45 91 06 3f 0d 93 61 3f 41 33 f1 3e
       -0.39683878 0.52565414 0.88115007 0.47109416
0002f0 3c f6 82 3f 04 f0 40 bf 78 2e 27 be 54 7d 50 3d
       1.0231395 -0.75366235 -0.1632632 0.050900772
000300 2e dd 00 3f 59 70 f4 be 83 19 9e 3f 48 59 a7 be
       0.50337493 -0.47741964 1.2351536 -0.32685304
000310 a9 6d fa be bf 31 af be 38 80 56 3f 95 3b 30 3e
       -0.4891179 -0.3421764 0.83789396 0.17210229
000320 a5 c7 33 3f 1a a8 92 3f 9f 80 e0 3c 66 57 82 be
       0.7022651 1.145755 0.027405081 -0.25457305
000330 cb d4 b9 bb ae 31 5d 3f 0d c0 88 3e 23 27 8e be
       -0.005671119 0.8640393 0.26709023 -0.27764234
000340 9d 58 e9 3e cf 8e d0 3e 88 9e 1a 3e b8 2e 50 3f
       0.4557542 0.40733954 0.15099537 0.8132129
000350 72 0e 8f be ff 08 72 bf ae a7 13 bf 82 e3 9e 3f
       -0.27940708 -0.94544977 -0.57677734 1.241318
000360 53 ee d4 3e e5 c8 2b bf b3 72 26 bf fc 2f b7 3e
       0.41588077 -0.67103416 -0.6501877 0.35778797
000370 84 f3 2d bf 37 0f dd 3e 33 c7 83 bd 38 17 e1 3e
       -0.679497 0.4317567 -0.064344786 0.43963027
000380 d2 02 df bd 24 47 3a 3f 70 f7 8e be d6 0d 22 be
       -0.1088921 0.727648 -0.27923155 -0.1582559
000390 5b 5d 43 3e 18 20 ba 3e 1c d6 64 bd 95 41 db be
       0.19078581 0.3635261 -0.055868253 -0.42823473
0003a0 c7 e6 93 3f 8b 51 e7 be 20 04 af 3f 69 fd 74 bf
       1.1554803 -0.451794 1.3673134 -0.95699173
0003b0 46 dd 39 be b7 93 c3 3e b3 d7 87 be c6 5f 56 3f
       -0.18150815 0.38198635 -0.26531753 0.8373989
0003c0 d2 5a 36 bf c8 5d 40 be f4 c9 b3 3e 53 07 15 3f
       -0.7123233 -0.18785775 0.35115016 0.582143
0003d0 fa 9e 70 bd 1a 61 4e 3f 46 8d 16 bf bd 55 db be
       -0.058745362 0.80616915 -0.58809316 -0.4283885
0003e0 f3 0f 25 bf 98 d4 1e bf 2a f1 d2 3e c9 e1 0a bf
       -0.6447746 -0.6204314 0.4119962 -0.5425077
0003f0 7a 0c 58 3e 35 0f 74 3f d5 29 38 3f 26 63 41 bd
       0.2109851 0.95335704 0.7193883 -0.047213696

conv3.bias f4 [7]
000000 a7 2c ec be 68 fb a5 3e f9 b4 36 ba 59 3d 88 3f
       -0.46127817 0.3241837 -0.0006969716 1.0643722
000010 81 98 9a be a9 e4 9b be 55 f9 26 bd
       -0.30194476 -0.3044789 -0.040765125

conv3.lin.weight f4 [7, 16]
000000 df 14 1b 3f 2a 31 2b 3f b0 68 28 3f 9a b5 8d bf
       0.6057872 0.66871893 0.6578474 -1.1071045
000010 df 92 57 3f e8 65 ab bf 49 5b 10 bf 1e cd d5 3e
       0.8420848 -1.3390474 -0.5638929 0.41758054
000020 7d c6 67 3f f3 35 0e 3f d9 b5 32 3f d5 6f f7 3e
       0.90537244 0.5555107 0.6980873 0.4832751
000030 6d ca 05 3f 8c de c9 be ce ff c2 bf c7 50 09 bf
       0.52262 -0.39427602 -1.5234315 -0.5363888
000040 4c eb 2c 3f 00 8e 41 3f 21 71 53 bf c2 4e 32 3f
       0.67546535 0.756073 -0.82594496 0.69651425
000050 d6 4e 49 3f 71 50 64 3f ed d3 9f 3e db 61 a5 bf
       0.7863592 0.89185244 0.31216374 -1.2920488
000060 72 8d 37 bf 70 04 cc be 3d ae 74 bf a1 d3 f5 3e
       -0.71700203 -0.39847136 -0.95578367 0.48013023
000070 0a e1 b6 bf e7 1f 7b 3f d0 30 f1 bc 02 7a 75 bf
       -1.4287426 0.98095554 -0.02944222 -0.95889294
000080 e5 00 4b 3f 6c e3 af bf 1f 43 7d bf 6f 08 4c 3f
       0.7929824 -1.3741279 -0.98930544 0.7970037
000090 a1 e1 8f bf 10 b7 b0 3e 54 36 74 bf 3f f3 96 bf
       -1.1240731 0.34514666 -0.953954 -1.1792983
0000a0 b3 c3 32 bf 9a 7f 40 3f 90 ee 5c 3f 19 36 cc 3e
       -0.69829863 0.75194705 0.8630152 0.39885023
0000b0 c9 36 00 3d b8 70 ef be d1 b3 a4 3e 30 35 79 3f
       0.031302247 -0.46765685 0.3216844 0.9734678
0000c0 91 6e 86 bf dd 06 aa bf 9e 5b 75 bf a4 4f 71 bf
       -1.0502492 -1.3283345 -0.9584292 -0.94262147
0000d0 eb 55 5e 3f b1 f1 8b 3d 4b 97 82 3f 1f a8 8f bf
       0.8684985 0.06833208 1.0202421 -1.1223181
0000e0 00 aa 89 3f af c7 95 bf 76 48 46 bf d4 95 20 3f
       1.0755005 -1.1701564 -0.77454317 0.6272862
0000f0 f6 68 19 3f 28 97 64 bf 51 f3 0b 3f 95 74 14 bf
       0.5992578 -0.89293146 0.54668146 -0.5799039
000100 a9 c9 9a bf 45 41 4b 3f 3f 83 41 3f 5c 32 88 bf
       -1.2092792 0.7939647 0.7559089 -1.0640368
000110 c2 70 1c bf 85 ad 11 bf 56 84 8b 3f 5f 0d 0c 3f
       -0.61109555 -0.56905395 1.0899761 0.547079
000120 3c ab 74 bf a2 e6 f6 3e f6 5a 25 bf 75 a0 2c 3f
       -0.9557378 0.48222834 -0.6459192 0.6743234
000130 e3 bf b9 bf 58 b4 2a bf f0 28 06 3f bc ac 59 3f
       -1.4511684 -0.6668143 0.52406216 0.85029197
000140 fe 52 96 bf 2b 53 50 bf 0a 11 18 3f 25 d2 25 3f
       -1.1744077 -0.81376904 0.59401 0.6477378
000150 20 5e 0c bf cf 33 6f 3f 21 04 87 bf 2b d9 b0 3e
       -0.54831123 0.9343843 -1.0548135 0.34540686
000160 21 27 69 3f 5b da c6 3d ad 7e 3e 3f 51 60 a7 bf
       0.9107533 0.09709617 0.7441204 -1.3076268
000170 2f 5f 01 3f 16 a7 65 3f 04 d2 44 3e 9a 4e 08 bf
       0.50535864 0.8970808 0.1922074 -0.53244936
000180 69 74 05 3f 1f 39 41 3f 02 cb 50 3f 46 6f 02 3f
       0.5213075 0.75477785 0.81559765 0.5095104
000190 22 02 69 bf ba d5 77 bf 25 2f 0e bf cb e2 e7 3e
       -0.9101888 -0.96810496 -0.55540687 0.45290217
0001a0 5e 85 c3 be 53 c7 b1 bf e5 1d 10 bf 30 c6 a0 bf
       -0.3818769 -1.3888954 -0.56295615 -1.2560482
0001b0 e7 58 39 3f 61 b7 75 3f 28 12 af bf d7 b6 4d 3f
       0.7240128 0.9598294 -1.3677416 0.80357116
