models/Cora_gcn2_model.pth (torch, 94488 bytes, 4 tensors)

conv1.bias f4 [16]
000000 10 97 14 3e 2a 7f a8 3d 9a e5 45 3e f1 fa 26 3e
       0.14510751 0.082273796 0.19325867 0.16306664
000010 41 d8 11 3e fa d3 59 3e a0 a4 14 3e 06 13 c0 3e
       0.1424265 0.21272269 0.14515924 0.37514514
000020 43 1f 75 3e 24 4f 91 3d 6d 68 a1 3e a6 39 a0 3d
       0.23937707 0.07095173 0.31524983 0.078234956
000030 50 57 a2 3d 92 e5 1e 3e ee 5b 1e 3e 85 d1 9b 3d
       0.0792681 0.15517262 0.15464756 0.07608322

conv1.lin.weight f4 [16, 1433]
000000 bd 9a 6a 3d fa 65 dd 3d 16 2c 2b be 5d 6d f1 bd
       0.057276476 0.10810466 -0.16716036 -0.117884375
000010 76 b7 97 3e 12 ee 12 3c da a3 0f 3e 1d f2 8b bd
       0.29632157 0.008967893 0.14027348 -0.06833289
000020 42 78 3b 3d de ec 9f bc 27 30 1e bc 0d b6 69 3b
       0.045768984 -0.019522127 -0.009655035 0.003566149
000030 a8 38 7a 3e bf a4 2a bd 3b f5 01 3d 6e 9e ba 3c
       0.24435675 -0.04166102 0.03172801 0.022780623
000040 b3 9d ac bd e7 2c 3f bd 65 76 52 3c 08 af d5 be
       -0.08428516 -0.04667368 0.01284561 -0.417351
000050 17 23 13 3a 83 58 a4 bd 45 1c 14 3c 7c ca b5 bc
       0.0005612834 -0.08024695 0.009039943 -0.022191279
000060 c9 de d8 3c 63 d0 8f 3e 08 d1 37 3e 99 e8 dc bd
       0.02647342 0.28088674 0.17950833 -0.10786552
000070 48 12 07 3e ce e4 52 bd 81 72 10 3e 0c 02 c3 bd
       0.13190567 -0.051487736 0.1410618 -0.09521875
000080 f4 bf 26 3c 37 b0 af bb e2 71 91 3d 73 ea d8 3d
       0.010177601 -0.0053615826 0.071017995 0.10591593
000090 64 6b e9 3c 73 b4 5d 3d 31 16 b1 3d dd 0b e3 bd
       0.02849359 0.054127168 0.08646811 -0.11086247
0000a0 66 2d 10 3e f3 ec 28 bd f2 85 a4 bd d4 58 a9 3d
       0.14079818 -0.041241597 -0.080333605 0.08268896
0000b0 11 c7 81 3e 8d 27 e1 bb 6d 59 d4 3d f6 0f 8b 3d
       0.25347188 -0.00687117 0.10368619 0.06790154
0000c0 f5 98 18 3e 60 b8 57 3c fa 34 36 3e ae a0 6b be
       0.14902098 0.013166517 0.17793646 -0.23010513
0000d0 8b 57 35 3d df 33 66 bc f2 4c ea 3e 6f ac a8 bc
       0.04427294 -0.014050453 0.4576183 -0.020590035
0000e0 22 65 f5 bb 26 e1 e8 3c 7c 65 33 be 87 26 a9 3d
       -0.0074888626 0.028427672 -0.17519182 0.08259302
0000f0 d9 b3 e6 3c b4 5d 05 bd 24 0a eb bc 9f 4a 19 bd
       0.02816193 -0.032560065 -0.028691359 -0.03742468
000100 33 db 27 3b 8a a3 e1 bd 4c b3 1c bd c8 d5 c2 bd
       0.002561283 -0.11017521 -0.03825693 -0.09513432
000110 27 c5 0c bd 4b c7 22 be e9 bd ed 3d 0f 95 36 bd
       -0.034367707 -0.15896337 0.11608488 -0.044575747
000120 94 5a f1 3b 05 b2 ab bc fe 1f 7a 3d 76 c0 d5 bb
       0.007365534 -0.02095891 0.061065666 -0.0065231873
000130 1f c4 8a 3d 67 30 34 bd 0d 6e 1b 3e 53 a7 96 3c
       0.067756884 -0.043991473 0.151787 0.018390333
000140 12 89 32 be ed 9c 66 3e c9 8d 8c 3d 9f fa a4 bc
       -0.174351 0.225208 0.06862981 -0.020139037
000150 22 76 85 3d f6 15 ff bd 17 68 cf be ae 39 c6 bd
       0.06516673 -0.124553606 -0.40509102 -0.0967897
000160 2c 30 97 bd 23 ba fc bc d8 f3 ba 3b 3d 82 18 3d
       -0.07382235 -0.030850476 0.005705338 0.03723358
000170 d4 f2 04 3c 8f 04 49 3e a6 64 61 3d 5c a6 0f bd
       0.008114535 0.19630645 0.055027626 -0.035070762
000180 d8 23 f2 b9 e2 ee 92 bc 74 b5 a1 bc 47 85 c8 3d
       -0.00046184543 -0.017936174 -0.019739844 0.09791046
000190 03 12 5e bd 92 41 74 bc c6 b8 8f bc 30 62 3a bd
       -0.054216396 -0.014908211 -0.017544162 -0.045503795
0001a0 04 a9 a8 bd cf 29 bd 3c 84 69 bf 3e 3e 90 43 3d
       -0.08235362 0.023091225 0.3738519 0.047744982
0001b0 f3 86 0c 3e 7c d1 13 be ea 90 42 bc 1f d6 c6 bd
       0.13723354 -0.1443538 -0.0118753705 -0.09708809
0001c0 2d 7c 87 bd 01 57 e0 3c a2 7d a4 3c 71 d7 de bc
       -0.066154815 0.027385237 0.020079438 -0.02720234
0001d0 2c 15 a8 3c e6 13 03 3d dd 1a 68 3e 53 c5 03 3e
       0.020517908 0.0320014 0.22666498 0.12868242
0001e0 49 10 6e 3d 38 67 33 bd dd f2 ae 3d d3 cd b3 3d
       0.058121 -0.04379961 0.08542416 0.08779492
0001f0 78 af e5 bd 0f 32 37 be 62 ae 0b 3e fd d5 63 3d
       -0.11215109 -0.1789019 0.1364074 0.055623997
000200 45 74 3f bd dd f9 14 bd 83 d3 00 bd b8 34 d5 3d
       -0.046741743 -0.0363711 -0.031451713 0.10410446
000210 44 68 f6 3c 79 ae 1c be 73 4b 4a 3d c1 db 92 be
       0.030079015 -0.15300931 0.04938836 -0.28683284
000220 ff fd 61 3d 7d 76 1f bd c7 f5 1f 3c 47 69 ed 3d
       0.05517387 -0.03893136 0.009763188 0.11592346
000230 86 28 8b 3e 16 5e 30 3e 57 a5 0e 3e a3 e5 05 be
       0.27179354 0.17223391 0.1393026 -0.1307588
000240 00 47 1c 3c 62 fe f9 39 8c 55 ed bc 3f eb d2 3d
       0.009538412 0.0004768251 -0.028971456 0.10298776
000250 2c bc bb 3c 4e ca 4d 3d a7 b5 00 3d 96 0d f1 3c
       0.022916876 0.05024176 0.031423237 0.029425424
000260 d8 e6 2a 3d 65 18 0e bd d8 3d 0a 3c ad 31 0c bd
       0.041724056 -0.034691233 0.008437596 -0.034227062
000270 7d 8c ab 3d 3d b5 b7 3d e3 40 09 3e a0 6e f9 3d
       0.083764054 0.08970115 0.13403659 0.12179303
000280 09 3e 93 bc b4 fc 20 bc b1 23 13 bd 94 20 bf 3c
       -0.017973917 -0.009825874 -0.03592271 0.023330964
000290 08 6f 96 bc be 01 00 bd 1e 51 15 3d 10 73 0d 3d
       -0.01836349 -0.03125166 0.036454313 0.03453356
0002a0 6a cb 07 be c2 62 94 bd 47 08 ad 3d 62 b0 c4 bc
       -0.1326119 -0.07245399 0.084488444 -0.024009887
0002b0 89 1a 58 bd a3 bc 23 3d 64 e1 ca 3d f0 0d c2 3c
       -0.05275968 0.03997482 0.09906271 0.023688287
0002c0 99 a4 80 be 59 fb db b9 1a 03 6c 3d 0d 70 40 bd
       -0.25125578 -0.00041958204 0.057620145 -0.04698186
0002d0 4b 3a 3b bd 0c b2 10 3d 4b 1b c9 3d 70 45 a2 3b
       -0.04570989 0.03532605 0.09819659 0.0049521253
0002e0 08 29 c4 bd 59 2b f5 3c 77 57 a0 bb 40 6d 5c 3e
       -0.095781386 0.029927896 -0.004893239 0.2152605
0002f0 ca 28 93 3d 5a 59 9c 3c 4e 59 e6 3c 3f 9a ee 3e
       0.07185514 0.019085575 0.028118756 0.46602055
000300 30 a6 49 3e 9e 8c 2e 3d 1e 30 86 3d ad 6f 44 be
       0.19692302 0.04261457 0.065521464 -0.19183226
000310 ee b9 5b be 63 2c 94 3a 07 3b 1a bc ec 19 b7 bb
       -0.21457645 0.0011304732 -0.009413487 -0.005587807
000320 58 b0 38 3d fc dc 45 3c 27 bb 18 be 9c dc 08 be
       0.04509005 0.012076613 -0.14915143 -0.13365406
000330 81 58 19 3e 8c 9f c0 bd 67 bc 7f bd 84 66 df bc
       0.14975168 -0.09405431 -0.062435534 -0.027270563
000340 58 64 e3 bd 84 4a bc bc c1 85 ce 3c 93 09 f7 3d
       -0.111031234 -0.02298475 0.025210263 0.12062373
000350 a3 72 1d be 63 db 7f 3d 79 8d 25 bc 1c 73 35 bc
       -0.15375762 0.062465083 -0.0101045305 -0.0110748075
000360 23 62 8b bd ae ab 57 bd 1d 20 30 bd 80 90 3f 3a
       -0.068058275 -0.05265396 -0.042999376 0.0007307604
000370 07 29 ff 3b 48 af 20 b9 82 39 86 bd 4c 6d bd 3d
       0.0077868733 -0.00015324086 -0.065539375 0.09249362
000380 0a 31 91 3d 10 cb 17 bc d4 47 e9 3d 70 e9 fb 3c
       0.070894316 -0.0092647225 0.11390653 0.03075096
000390 97 54 88 3e 6a 79 29 bc 5a 75 ec bd 72 dc 1c 3d
       0.26627037 -0.010343889 -0.115458205 0.03829617
0003a0 a0 f2 98 bd af 0b d3 3d a3 d7 c1 3e de 01 17 3d
       -0.07468152 0.10304963 0.3785983 0.036867015
0003b0 2a 7b 79 bd 0d 59 82 3d 64 d9 a8 be 62 d2 64 bd
       -0.060908474 0.06364641 -0.32978356 -0.0558647
0003c0 5a 30 e3 bb 0c 3e bf bc 4a 7e a7 3d 8e f9 32 bd
       -0.006933254 -0.023345016 0.081783846 -0.043695025
0003d0 07 24 08 bd de 9c 7d bd 72 bf 79 bd ec 29 c0 3c
       -0.033237483 -0.06191718 -0.060973592 0.02345749
0003e0 8e 61 ee bc 14 1e 8b bc a9 76 9b bd c4 32 0b bd
       -0.029099252 -0.016982116 -0.07590992 -0.03398396
0003f0 8f 43 d0 3d 66 53 44 bd b5 79 0f be fa d2 d1 bc
       0.10169136 -0.047931097 -0.14011271 -0.025613297

conv2.bias f4 [7]
000000 bf ba 73 3e 9e ff e6 be 20 57 1f be 57 b9 27 3f
       0.23801707 -0.45116895 -0.1556058 0.6551718
000010 f0 3e 9c be 39 7f e3 3e ab e6 72 3e
       -0.30516768 0.44433 0.23720805

conv2.lin.weight f4 [7, 16]
000000 43 30 fd be 3e c2 ae bf 78 4c 85 3f 78 07 2b 3f
       -0.49450883 -1.3653028 1.0413961 0.6680827
000010 9a 6d 2c 3f 02 7e 8d bf 3c ae 65 3f e6 ec 1d 3f
       0.6735474 -1.105408 0.89718986 0.61689603
000020 66 80 6c 3f 7c aa 92 bf e4 8d a6 bf a9 14 70 bf
       0.9238342 -1.1458278 -1.3012052 -0.93781525
000030 65 09 2e 3f 56 20 54 3f f2 51 a3 bf 5d b5 7c bf
       0.67983085 0.8286184 -1.2759383 -0.9871424
000040 34 d5 d9 be 15 a1 27 3f c9 d6 4f 3f 07 c0 8d bf
       -0.42545474 0.65480167 0.8118711 -1.1074227
000050 4d 7b 4a bf 9c de 69 bf 95 fd 13 3f 34 6a 81 bf
       -0.7909439 -0.913553 0.5780881 -1.0110536
000060 71 bf f0 be 9b 45 2a 3f 1f ee 30 3e 48 53 de 3e
       -0.47021058 0.6651246 0.17278336 0.43422914
000070 8f 46 2d 3f 5d f6 0c 3f 65 c7 77 3e ba c8 7b 3f
       0.6768579 0.5506342 0.24197157 0.9835316
000080 25 f3 13 3f 60 e9 9f bf f1 1c 7a 3f 03 47 75 bf
       0.57792884 -1.2493095 0.9770041 -0.9581148
000090 41 09 82 bf 78 3f 7b 3f 69 0f 88 bf 50 da 48 3f
       -1.0159074 0.9814372 -1.0629703 0.7845812
0000a0 14 4d 09 3f 20 6f 2e 3f 90 21 74 3f 6c ba 1f 3f
       0.53633237 0.68138313 0.9536371 0.6239383
0000b0 f1 18 9c bf b5 49 45 bf 75 14 8e bf 0d 16 1c bf
       -1.2195112 -0.77065593 -1.1099993 -0.60971147
0000c0 ff b7 77 bf ef 38 a8 bf c3 1a 94 bf db 03 4d 3f
       -0.9676513 -1.3142375 -1.1570667 0.8008401
0000d0 07 a2 96 bf d5 eb 7b bf 56 4c 07 bf 17 39 7c 3f
       -1.1768197 -0.98406726 -0.52850854 0.9852461
0000e0 92 44 35 3f 07 84 5d bf 87 c6 81 3f 09 b3 6b bf
       0.70807755 -0.8652958 1.0138711 -0.9207006
0000f0 ff c7 4a 3e 64 0c 84 bf 2b 1b 86 3f 99 7e 81 3f
       0.19802855 -1.0316281 1.0477041 1.011676
000100 eb 36 4c bf 1f 6c 83 3f 1e ae 51 bf 64 05 60 bf
       -0.797713 1.0267371 -0.81906307 -0.87508225
000110 8d ff 59 3f eb fa 83 3f 0e a7 58 3f a7 91 7e 3f
       0.85155565 1.0310949 0.84629905 0.99441
000120 85 02 81 bf 1e 0a 7a bf 76 f5 7c 3f b2 e1 82 bf
       -1.0078894 -0.9767169 0.98812044 -1.0225127
000130 c4 97 8f bf 7c 1f 6a 3f 21 7e c6 3e a2 69 5f bf
       -1.121819 0.9145429 0.38768104 -0.8727056
000140 5c 88 59 3f d9 df 26 bd ca f6 96 bf 76 63 a8 be
       0.8497369 -0.04074082 -1.1794064 -0.32888383
000150 f1 e2 80 3f d9 75 8b bf 83 ab ba be 0c 14 95 bf
       1.0069257 -1.0895339 -0.36458978 -1.1646743
000160 d1 50 2f 3f 81 96 18 3f f5 c6 93 bf 0a 1e 24 3f
       0.6848269 0.5960465 -1.1545092 0.64108336
000170 2a 6c 75 bf d0 9d 8f bf e9 09 75 3f ea a3 94 bf
       -0.9586817 -1.1220036 0.95718247 -1.1612523
000180 5e 94 4b 3f 12 06 76 3f e5 58 a0 3e 92 a1 43 3f
       0.79523265 0.9610301 0.3131782 0.7641841
000190 b5 69 10 3f 2f 22 76 3f 4e 1f 98 bf ea 4a 72 bf
       0.56411296 0.9614591 -1.1884553 -0.9464556
0001a0 dc 8f 88 bf bd ba 9b bf 92 4d 43 bf 69 dc 8d bf
       -1.0668902 -1.2166363 -0.7629024 -1.1082889
0001b0 b0 0e 49 3f ac 62 88 bf 11 da 99 bf c7 47 6e bf
       0.78538036 -1.0655112 -1.2019674 -0.93078274
