models/Cora_sage_model.pth (torch, 190308 bytes, 9 tensors)

conv1.lin_l.weight f4 [16, 1433]
3.5920815 3.5467632 3.581877 3.5549154 3.5554578 3.5643313 3.5194125 3.5803213
3.5456347 3.5471623 3.5456355 3.581404 3.5456543 3.5892074 3.5784957 3.5538476
3.6017811 3.5463219 3.5650349 3.5866385 3.561152 3.5520844 3.534138 3.5708838
3.5822854 3.5698326 3.552461 3.5484273 3.5669458 3.5813994 3.540734 3.5837953
3.53725 3.5709393 3.5833547 3.5547428 3.5613527 3.5577855 3.5782504 3.5933874
3.564896 3.5788405 3.5590446 3.5871832 3.5471458 3.558932 3.5518587 3.5934954
3.5472808 3.5437322 3.5614407 3.5881524 3.576067 3.5301387 3.5859268 3.5516765
3.5562513 3.56656 3.5930727 3.5509608 3.5790696 3.5936623 3.5494003 3.5843284
3.5451336 3.5968926 3.5659518 3.590178 3.5878546 3.5764067 3.5874383 3.5829482
3.489661 3.497113 3.5553486 3.4687312 3.569989 3.5775256 3.5751042 3.5790915
3.5946121 3.592765 3.580778 3.5933669 3.5446851 3.524243 3.5560637 3.5485811
3.5690129 3.5711634 3.580821 3.5831149 3.5883553 3.5618255 3.5814247 3.5757992
3.5662217 3.5442114 3.567923 3.571183 3.579711 3.4796011 3.5909991 3.5742004
3.5881035 3.5482793 3.5405426 3.5647545 3.5625734 3.5736148 3.5509176 3.5582302
3.576506 3.514994 3.5442014 3.548524 3.5749593 3.551801 3.565097 3.5493598
3.5746439 3.5888093 3.581786 3.5853887 3.594485 3.5827386 3.5959046 3.5862246
3.5761971 3.5531383 3.5961351 3.5606706 3.5465174 3.589451 3.5192626 3.5822303
3.5797744 3.559975 3.547042 3.5679672 3.5071232 3.5586607 3.5597746 3.5616758
3.5613563 3.5593283 3.5471447 3.5776842 3.5188906 3.560827 3.5747738 3.5981674
3.583014 3.5600357 3.5821543 3.5628312 3.5729783 3.565762 3.5708635 3.5775619
3.4986582 3.5842497 3.5712094 3.4927015 3.5486717 3.5900247 3.582543 3.5470536
3.5481944 3.5303485 3.588934 3.5094693 3.581742 3.5888941 3.5766098 3.5642414
3.5705 3.565742 3.5674539 3.544528 3.593249 3.55196 3.5758994 3.554932
3.576779 3.5801687 3.5545366 3.568362 3.5701227 3.5554981 3.563308 3.5413
3.570657 3.5848258 3.5702252 3.580714 3.561111 3.5692747 3.569467 3.5564065
3.5473604 3.4917867 3.5583024 3.553015 3.5796473 3.5663092 3.5521047 3.5604825
3.5689373 3.535124 3.5545375 3.5727155 3.5688214 3.556293 3.5493515 3.5691698
3.5557308 3.5678074 3.5786583 3.5444348 3.5891447 3.5471146 3.5960126 3.4868066
3.5568187 3.553899 3.545945 3.531226 3.5579019 3.5986094 3.5837734 3.5711105
3.5607228 3.589049 3.5422275 3.5517385 3.5688546 3.559903 3.5991488 3.5502052
3.561701 3.5636482 3.584827 3.5901372 3.5711799 3.5574057 3.5845895 3.5618813
3.5632381 3.5915656 3.594751 3.5897143 3.558786 3.585802 3.5754519 3.5682232
00000000: aae4 6540 2bfe 6240 793d 6540 bc83 6340
00000010: 9f8c 6340 011e 6440 0e3e 6140 fc23 6540
00000020: aeeb 6240 b504 6340 b1eb 6240 b935 6540
00000030: 00ec 6240 93b5 6540 1306 6540 3d72 6340
00000040: 9583 6640 f0f6 6240 8829 6440 7c8b 6540
00000050: eae9 6340 5a55 6340 512f 6240 5c89 6440
00000060: 2a44 6540 2378 6440 855b 6340 6f19 6340
00000070: d748 6440 a635 6540 639b 6240 e75c 6540
00000080: 4e62 6240 458a 6440 af55 6540 e880 6340
00000090: 34ed 6340 c2b2 6340 0e02 6540 0ffa 6540
000000a0: 4227 6440 b90b 6540 63c7 6340 6994 6540
000000b0: 7004 6340 8bc5 6340 a751 6340 d4fb 6540
000000c0: a606 6340 82cc 6240 a5ee 6340 4aa4 6540
000000d0: 48de 6440 cbed 6140 d37f 6540 ab4e 6340
000000e0: 9f99 6340 8542 6440 e7f4 6540 f142 6340
000000f0: 7a0f 6540 90fe 6540 6029 6340 a365 6540
00000100: 78e3 6240 7d33 6640 8e38 6440 7ac5 6540
00000110: 699f 6540 d9e3 6440 9798 6540 064f 6540
00000120: 9b56 5f40 b3d0 5f40 d58a 6340 b1ff 5d40
00000130: b37a 6440 2ef6 6440 82ce 6440 d60f 6540
00000140: 200e 6640 ddef 6540 772b 6540 b9f9 6540
00000150: 1fdc 6240 338d 6140 8c96 6340 f41b 6340
00000160: b56a 6440 f18d 6440 2c2c 6540 c151 6540
00000170: 9da7 6540 f3f4 6340 1036 6540 e5d9 6440
00000180: fa3c 6440 5cd4 6240 da58 6440 438e 6440
00000190: fc19 6540 c9b1 5e40 eed2 6540 b3bf 6440
000001a0: 7da3 6540 0217 6340 4098 6240 f024 6440
000001b0: 3401 6440 1bb6 6440 3c42 6340 0bba 6340
000001c0: 79e5 6440 a9f5 6040 32d4 6240 041b 6340
000001d0: 22cc 6440 b550 6340 8d2a 6440 b628 6340
000001e0: f7c6 6440 0daf 6540 fb3b 6540 0277 6540
000001f0: 0b0c 6640 974b 6540 4d23 6640 b484 6540
00000200: 6ae0 6440 9e66 6340 1427 6640 07e2 6340
00000210: 24fa 6240 91b9 6540 993b 6140 4343 6540
00000220: 061b 6540 a1d6 6340 bc02 6340 9359 6440
00000230: b574 6040 19c1 6340 59d3 6340 7ff2 6340
00000240: 43ed 6340 09cc 6340 6b04 6340 c7f8 6440
00000250: 8135 6140 97e4 6340 18c9 6440 6048 6640
00000260: 1a50 6540 a0d7 6340 0442 6540 6d05 6440
00000270: adab 6440 7235 6440 0789 6440 c6f6 6440
00000280: 04ea 5f40 5964 6540 b28e 6440 6c88 5f40
00000290: 701d 6340 f7c2 6540 6248 6540 ed02 6340
000002a0: 9e15 6340 3bf1 6140 18b1 6540 259b 6040
000002b0: 433b 6540 71b0 6540 2de7 6440 881c 6440
000002c0: 1283 6440 1e35 6440 2a51 6440 8cd9 6240
000002d0: cbf7 6540 5053 6340 89db 6440 0284 6340
000002e0: f2e9 6440 7c21 6540 877d 6340 0b60 6440
000002f0: e47c 6440 488d 6340 3d0d 6440 a9a4 6240
00000300: a585 6440 c96d 6540 927e 6440 6b2a 6540
00000310: 3ee9 6340 ff6e 6440 2672 6440 2a9c 6340
00000320: f407 6340 6f79 5f40 3abb 6340 9964 6340
00000330: f118 6540 693e 6440 af55 6340 f2de 6340
00000340: 7869 6440 793f 6240 8b7d 6340 5fa7 6440
00000350: 9267 6440 4e9a 6340 9328 6340 476d 6440
00000360: 1891 6340 f556 6440 bd08 6540 05d8 6240
00000370: 8cb4 6540 ed03 6340 1225 6640 d727 5f40
00000380: eba2 6340 1573 6340 c3f0 6240 9bff 6140
00000390: aab4 6340 9e4f 6640 8b5c 6540 138d 6440
000003a0: e2e2 6340 fbb2 6540 dbb3 6240 af4f 6340
000003b0: 1d68 6440 73d5 6340 7458 6640 9036 6340
000003c0: e9f2 6340 d012 6440 ce6d 6540 cfc4 6540
000003d0: 368e 6440 89ac 6340 ea69 6540 ddf5 6340
000003e0: 180c 6440 36dc 6540 6610 6640 e1bd 6540
000003f0: 26c3 6340 c87d 6540 34d4 6440 c55d 6440

conv1.lin_l.bias f4 [16]
3.5504093 3.429699 3.5605764 3.5527577 3.5596228 3.448268 3.5631425 3.5860412
3.5886803 3.5206196 -0.052925628 3.5814853 3.5576432 3.5242546 3.5867245 3.53256
00000000: e839 6340 3080 5b40 7ce0 6340 6260 6340
00000010: dcd0 6340 6cb0 5c40 870a 6440 b381 6540
00000020: f0ac 6540 d551 6140 8bc8 58bd 0e37 6540
00000030: 6db0 6340 638d 6140 e58c 6540 7715 6240

conv1.lin_r.weight f4 [16, 1433]
3.5746944 3.5754957 3.5489817 3.5459177 3.5931814 3.5493522 3.52909 3.5636146
3.5416698 3.5477319 3.5620067 3.54897 3.5425189 3.5798917 3.5679471 3.5814157
3.592969 3.4989653 3.5767925 3.5480118 3.577139 3.5452557 3.5548346 3.541476
3.5445108 3.5615995 3.596639 3.564156 3.5543928 3.5837107 3.547352 3.5698278
3.579095 3.5900316 3.561124 3.5846887 3.5772667 3.5345933 3.5831044 3.583978
3.5565891 3.5749881 3.5543318 3.5862112 3.5697126 3.5731316 3.551476 3.5849307
3.5495164 3.5805824 3.5523498 3.56243 3.5903 3.5617898 3.5551367 3.553512
3.5607376 3.5988135 3.5905473 3.5673273 3.5661063 3.5867615 3.560671 3.5843775
3.5536718 3.5970106 3.5605009 3.5686104 3.5501513 3.5814753 3.5774055 3.5787928
3.5282729 3.4872944 3.5819478 3.4909785 3.57111 3.6018314 3.542823 3.5517592
3.5571322 3.56616 3.5834708 3.5530052 3.5507133 3.4906154 3.5520031 3.5671844
3.523015 3.548044 3.5904527 3.592102 3.5605328 3.58498 3.5781496 3.6009362
3.5559528 3.551631 3.5705397 3.5871136 3.59437 3.5299702 3.579795 3.5750556
3.591082 3.5801811 3.5648582 3.569399 3.5853062 3.561646 3.5425224 3.5564837
3.5754662 3.480318 3.5237439 3.5499427 3.5959098 3.5697439 3.5437446 3.5456533
3.561077 3.548116 3.5636394 3.546931 3.5696676 3.550357 3.55342 3.5665922
3.5492811 3.6008768 3.5949903 3.565149 3.5882177 3.547862 3.556007 3.563454
3.5762458 3.5654397 3.5362782 3.5874364 3.5167556 3.592361 3.5472784 3.5195012
3.6019924 3.5579484 3.5931091 3.5385022 3.5175583 3.5652118 3.586596 3.5502875
3.5224974 3.5801105 3.5507255 3.584453 3.5948884 3.5683863 3.5532982 3.5726779
3.4959292 3.5190477 3.5542872 3.523939 3.5396621 3.586403 3.5842807 3.5092995
3.5942185 3.574926 3.5777318 3.52493 3.5984876 3.5491145 3.5798628 3.5456476
3.5976872 3.5932584 3.5956564 3.5523646 3.5562913 3.5545402 3.5463164 3.5503073
3.5921197 3.5864377 3.5750384 3.5903306 3.554916 3.5244493 3.5756578 3.5677047
3.548577 3.5633416 3.5362043 3.5869386 3.5757296 3.576277 3.543559 3.5217052
3.5632932 3.540127 3.5648208 3.569271 3.5979416 3.5504508 3.5695593 3.5605862
3.5440402 3.5993516 3.5953393 3.5628102 3.5818174 3.5884666 3.5927203 3.5257676
3.539163 3.5311146 3.5307148 3.5632422 3.5567427 3.5750084 3.6001568 3.5738993
3.583098 3.5501232 3.5417032 3.5443034 3.552215 3.5527291 3.574823 3.5768287
3.563343 3.5422058 3.5634243 3.5655239 3.5799773 3.5470488 3.5750794 3.5507808
3.5421655 3.606142 3.5455763 3.5480611 3.5665817 3.5723805 3.5788972 3.568405
3.5954576 3.5809948 3.5669758 3.5882645 3.5706854 3.5747638 3.5918348 3.574137
00000000: cbc7 6440 ecd4 6440 8422 6340 51f0 6240
00000010: aff6 6540 9628 6340 9cdc 6140 4312 6440
00000020: b8aa 6240 0a0e 6340 ebf7 6340 5322 6340
00000030: a1b8 6240 f21c 6540 3f59 6440 ea35 6540
00000040: 34f3 6540 0cef 5f40 2bea 6440 a012 6340
00000050: d8ef 6440 78e5 6240 6982 6340 8ba7 6240
00000060: 44d9 6240 3ff1 6340 552f 6640 221b 6440
00000070: 2c7b 6340 845b 6540 d107 6340 0f78 6440
00000080: e40f 6540 14c3 6540 75e9 6340 8a6b 6540
00000090: f0f1 6440 c736 6240 9551 6540 e55f 6540
000000a0: 289f 6340 9bcc 6440 2c7a 6340 7c84 6540
000000b0: 2c76 6440 30ae 6440 624b 6340 816f 6540
000000c0: 472b 6340 4328 6540 b359 6340 dafe 6340
000000d0: 7ac7 6540 5df4 6340 5c87 6340 be6c 6340
000000e0: 20e3 6340 f652 6640 87cb 6540 174f 6440
000000f0: 163b 6440 808d 6540 09e2 6340 7166 6540
00000100: 5c6f 6340 6c35 6640 3fdf 6340 1d64 6440
00000110: ae35 6340 e436 6540 36f4 6440 f10a 6540
00000120: 39cf 6140 d52f 5f40 a23e 6540 316c 5f40
00000130: 118d 6440 6884 6640 9dbd 6240 0650 6340
00000140: 0ea8 6340 f73b 6440 9657 6540 7064 6340
00000150: e33e 6340 3e66 5f40 0554 6340 c04c 6440
00000160: 1479 6140 2713 6340 fac9 6540 00e5 6540
00000170: c5df 6340 5070 6540 6700 6540 bd75 6640
00000180: bb94 6340 ec4d 6340 b983 6440 4593 6540
00000190: 280a 6640 08eb 6140 5c1b 6540 b6cd 6440
000001a0: 4ad4 6540 b021 6540 a326 6440 0971 6440
000001b0: a875 6540 02f2 6340 b0b8 6240 6e9d 6340
000001c0: 70d4 6440 88bd 5e40 0585 6140 4332 6340
000001d0: 6323 6640 af76 6440 b6cc 6240 fceb 6240
000001e0: b0e8 6340 5514 6340 ab12 6440 eb00 6340
000001f0: 6f75 6440 0d39 6340 3c6b 6340 0c43 6440
00000200: 6c27 6340 c474 6640 5214 6640 672b 6440
00000210: 5ca5 6540 2c10 6340 9e95 6340 a10f 6440
00000220: 36e1 6440 2a30 6440 6252 6240 8f98 6540
00000230: 8612 6140 3ee9 6540 9c06 6340 823f 6140
00000240: 0b87 6640 6db5 6340 80f5 6540 d276 6240
00000250: ad1f 6140 6e2c 6440 ca8a 6540 e937 6340
00000260: 9970 6140 8820 6540 163f 6340 ae67 6540
00000270: a712 6640 7160 6440 3d69 6340 c1a6 6440
00000280: 4ebd 5f40 1438 6140 7179 6340 3788 6140
00000290: d389 6240 a087 6540 db64 6540 5d98 6040
000002a0: ad07 6640 96cb 6440 8ff9 6440 7498 6140
000002b0: 9f4d 6640 b124 6340 791c 6540 e4eb 6240
000002c0: 8240 6640 f2f7 6540 3c1f 6640 f159 6340
000002d0: 479a 6340 967d 6340 d9f6 6240 3c38 6340
000002e0: 4ae5 6540 3288 6540 6ecd 6440 fac7 6540
000002f0: be83 6340 9490 6140 94d7 6440 4655 6440
00000300: e31b 6340 ca0d 6440 2c51 6240 6790 6540
00000310: c1d8 6440 b9e1 6440 acc9 6240 9e63 6140
00000320: ff0c 6440 7191 6240 0626 6440 f06e 6440
00000330: ad44 6640 963a 6340 a973 6440 a5e0 6340
00000340: 8ed1 6240 c75b 6640 0a1a 6640 1505 6440
00000350: 7f3c 6540 70a9 6540 21ef 6540 2da6 6140
00000360: a681 6240 c8fd 6140 3bf7 6140 290c 6440
00000370: aca1 6340 f0cc 6440 f868 6640 c4ba 6440
00000380: 7a51 6540 3835 6340 44ab 6240 ded5 6240
00000390: 7e57 6340 ea5f 6340 e6c9 6440 c3ea 6440
000003a0: d00d 6440 80b3 6240 250f 6440 8b31 6440
000003b0: 591e 6540 d902 6340 1ace 6440 fe3f 6340
000003c0: d7b2 6240 08cb 6640 b9ea 6240 6f13 6340
000003d0: e042 6440 e2a1 6440 a70c 6540 bf60 6440
000003e0: fa1b 6640 052f 6540 5549 6440 20a6 6540
000003f0: 1c86 6440 eec8 6440 9fe0 6540 a9be 6440

conv2.lin_l.weight f4 [16, 16]
3.7746599 3.2734559 3.3527818 3.719015 3.4878376 3.5642612 3.5118208 3.2981882
3.5499496 3.656722 -0.015590866 3.477766 3.5819976 3.7163134 3.397717 3.6935992
3.3563583 3.380743 3.3525803 3.3503623 3.374431 3.32716 3.3748808 3.3556857
3.312305 3.345038 5.2765046e-07 3.324211 3.3717935 3.3741574 3.376659 3.3605418
3.7080867 3.3872087 3.7370882 3.3478925 3.5008712 3.340367 3.716745 3.355636
3.36612 3.315911 -0.008080803 3.5073655 3.5264008 3.704047 3.626457 3.7380419
3.7051423 3.230281 3.6224537 3.5068717 3.456906 3.0680234 3.5850425 3.2944353
3.3516552 3.7780876 2.6871649e-06 3.3718684 3.3649032 3.592959 3.6185126 3.6946967
3.2889931 3.577841 3.3370228 3.407784 3.5895543 3.7997718 3.4140284 3.6952558
3.6719842 3.5596793 2.0424873e-06 3.6601183 3.5140882 3.3864 3.7071605 3.1934836
3.4584374 3.5045795 3.601985 3.7345705 3.5241098 3.6379757 3.4980803 3.290977
3.694852 3.362531 5.662788e-06 3.629579 3.3077862 3.5065553 3.7635574 3.597075
3.562018 3.4930844 3.2821252 3.6528387 3.270522 3.3289504 3.3228657 3.3340523
3.5316417 3.2775438 -7.265476e-05 3.3499994 3.7498395 3.6694741 3.51494 3.245683
3.396889 3.437638 3.4446554 3.407392 3.5234194 3.4691365 3.4371858 3.4051507
3.4201133 3.4453561 6.278824e-07 3.4033267 3.376615 3.436617 3.5256026 3.4229457
3.4161725 3.409506 3.6932342 3.2676325 3.769541 3.47264 3.415226 3.693717
3.5576782 3.5751681 1.2005683e-05 3.6257846 3.730142 3.3994768 3.6795874 3.5842278
3.2915409 3.296857 3.281772 3.3075123 3.2657769 3.3373811 3.2946248 3.2877882
3.2631686 3.3169808 -2.6304906e-06 3.2971876 3.3088706 3.2966058 3.2899084 3.2846808
3.7632782 3.4321127 3.3931355 3.7102401 3.6062093 3.3199897 3.630064 3.729368
3.714691 3.355322 -0.025547175 3.651889 3.4834266 3.4598331 3.6426852 3.3992658
3.3544102 3.4271948 3.4456344 3.695704 3.7237766 3.6696484 3.6829288 3.6339114
3.4685018 3.7348845 6.026981e-07 3.7028646 3.6765845 3.29501 3.5788212 3.531609
3.6313608 3.4119053 3.3658228 3.6903322 3.4648778 3.591908 3.4868276 3.6178455
3.2152908 3.6657662 5.1028064e-07 3.5941005 3.656146 3.3563323 3.4696274 3.5576563
3.6987484 3.5488462 3.57673 3.359543 3.729414 3.4092834 3.683022 3.753175
3.2888343 3.4308941 1.5694316e-06 3.7530732 3.7201185 3.5314202 3.5283852 3.5078046
1.7058184 1.647432 1.6959765 1.6815681 1.6698447 1.6976817 1.6811913 1.6653066
1.7364103 1.6614072 -0.022213876 1.6815671 1.6967309 1.6338259 1.6746702 1.6969343
0.075978406 -0.03391472 -0.010385712 -0.06093565 0.032569353 0.00016749234 -0.0841422 0.0037119093
-0.13942474 0.010224124 -0.020967048 0.016919868 -0.03603023 -0.03511586 -0.1964071 0.008427797
00000000: 0794 7140 4d80 5140 fa93 5640 5704 6e40
00000010: bb38 5f40 db1c 6440 acc1 6040 8415 5340
00000020: 6032 6340 bc07 6a40 d570 7fbc b893 5e40
00000030: 733f 6540 14d8 6d40 3274 5940 ee63 6c40
00000040: 93ce 5640 185e 5840 ad90 5640 566c 5640
00000050: adf6 5740 30f0 5440 0cfe 5740 8ec3 5640
00000060: cefc 5340 1a15 5640 dda3 0d35 dfbf 5440
00000070: 77cb 5740 32f2 5740 2e1b 5840 1e13 5740
00000080: 4b51 6d40 07c8 5840 742c 6f40 df43 5640
00000090: 460e 6040 93c8 5540 26df 6d40 bdc2 5640
000000a0: 836e 5740 e337 5440 5865 04bc ad78 6040
000000b0: 8db0 6140 1b0f 6d40 df17 6840 143c 6f40
000000c0: 0d21 6d40 edbc 4e40 48d6 6740 9670 6040
000000d0: f33d 5d40 7f5a 4440 5671 6540 07d8 5240
000000e0: 8581 5640 30cc 7140 2455 3436 b1cc 5740
000000f0: 935a 5740 0af3 6540 b695 6740 e975 6c40
00000100: dd7e 5240 59fb 6440 c891 5540 2219 5a40
00000110: 42bb 6540 762f 7340 717f 5a40 127f 6c40
00000120: ca01 6b40 c9d1 6340 aa11 0936 613f 6a40
00000130: d2e6 6040 c7ba 5840 1e42 6d40 0962 4c40
00000140: 0a57 5d40 084b 6040 ec86 6640 3403 6f40
00000150: 048b 6140 98d4 6840 8ce0 5f40 5e9f 5240
00000160: 7578 6c40 b533 5740 fb02 be36 064b 6840
00000170: c5b2 5340 676b 6040 20de 7040 7a36 6640
00000180: 1af8 6340 b28e 5f40 570e 5240 1cc8 6940
00000190: 3c50 5140 860d 5540 d5a9 5440 1d61 5540
000001a0: 6b06 6240 47c3 5140 3a5e 98b8 6466 5640
000001b0: 5ffd 6f40 aad8 6a40 c7f4 6040 45b9 4f40
000001c0: a166 5940 4302 5c40 3c75 5c40 b612 5a40
000001d0: b47f 6140 5506 5e40 dafa 5b40 fded 5940
000001e0: 23e3 5a40 b780 5c40 c08b 2835 1bd0 5940
000001f0: 761a 5840 88f1 5b40 79a3 6140 8b11 5b40
00000200: 92a2 5a40 5935 5a40 f35d 6c40 e420 5140
00000210: 2940 7140 bc3f 5e40 1093 5a40 dc65 6c40
00000220: 00b1 6340 8ecf 6440 046c 4937 db0c 6840
00000230: a6ba 6e40 0791 5940 5c7e 6b40 fd63 6540
00000240: 9ba8 5240 b5ff 5240 8d08 5240 48ae 5340
00000250: 7d02 5140 a797 5540 22db 5240 1f6b 5240
00000260: c1d7 5040 6a49 5440 7c87 30b6 1f05 5340
00000270: 89c4 5340 97fb 5240 dc8d 5240 3638 5240
00000280: 8dd9 7040 bca7 5b40 2229 5940 9374 6d40
00000290: 22cc 6640 b67a 5440 f852 6840 f7ad 6e40
000002a0: 7fbd 6d40 98bd 5640 4f48 d1bc 8db8 6940
000002b0: 76f0 5e40 e86d 5d40 c121 6940 928d 5940
000002c0: a8ae 5640 2957 5b40 4685 5c40 6a86 6c40
000002d0: 5b52 6e40 85db 6a40 1bb5 6b40 0192 6840
000002e0: effb 5d40 5908 6f40 19c9 2135 bcfb 6c40
000002f0: 294d 6b40 72e1 5240 680b 6540 e205 6240
00000300: 3768 6840 a85c 5a40 a469 5740 672e 6c40
00000310: 8fc0 5d40 d2e1 6540 2f28 5f40 c88a 6740
00000320: 53c7 4d40 ea9b 6a40 38fa 0835 be05 6640
00000330: 4cfe 6940 26ce 5640 600e 5e40 a4b0 6340
00000340: 4bb8 6c40 4c20 6340 25e9 6440 c102 5740
00000350: b8ae 6e40 b331 5a40 a2b6 6b40 0534 7040
00000360: 437c 5240 c593 5b40 42a5 d235 5a32 7040
00000370: 6c16 6e40 ca02 6240 10d1 6140 df7f 6040
00000380: 4258 da3f 0ddf d23f c215 d93f a03d d73f
00000390: 79bd d53f a24d d93f 4731 d73f c428 d53f
000003a0: b142 de3f fea8 d43f e0f9 b5bc 973d d73f
000003b0: 7a2e d93f 3521 d13f 985b d63f 2535 d93f
000003c0: 919a 9b3d 29ea 0abd d528 2abc a997 79bd
000003d0: 7167 053d e2a0 2f39 bf52 acbd 8143 733b
000003e0: 5cc5 0ebe 1683 273c 16c3 abbc 899b 8a3c
000003f0: 6f94 13bd a6d5 0fbd f11e 49be be14 0a3c

conv2.lin_l.bias f4 [16]
3.2580364 3.0091565 3.2999187 3.2969043 3.2618961 3.133984 3.198669 2.924811
3.2782447 2.8856108 3.2773335 2.888576 2.801384 2.9014623 1.6639081 0.15079603
00000000: ab83 5040 0596 4040 de31 5340 7b00 5340
00000010: e8c2 5040 3293 4840 feb6 4c40 1a30 3b40
00000020: c3ce 5140 d9ad 3840 d5bf 5140 6ede 3840
00000030: e049 3340 8fb1 3940 f1fa d43f 466a 1a3e

conv2.lin_r.weight f4 [16, 16]
3.6162179 3.650647 3.579637 3.392724 3.6450393 3.600793 3.5114007 3.4620745
3.3784482 3.6853402 0.0010503937 3.6241896 3.479106 3.417283 3.767063 3.5363677
3.3290823 3.3621078 3.3712823 3.3262596 3.3508902 3.3360243 3.3552394 3.3637407
3.3718424 3.357442 6.497083e-07 3.321795 3.302665 3.3604822 3.3615 3.3559256
3.653645 3.3252547 3.353166 3.6230624 3.2938206 3.5177968 3.6427817 3.4331868
3.5423603 3.2984827 -0.012994793 3.441086 3.5992122 3.5034578 3.2903707 3.4131124
3.435096 3.2400844 3.452099 3.495075 3.2887046 3.1958244 3.7221735 3.4202313
3.4526055 3.4468443 1.5460323e-06 3.5892067 3.6022425 3.7144506 3.4372954 3.6648452
3.3192122 3.3335924 3.6671329 3.4001236 3.6325173 3.4312804 3.588442 3.5465734
3.6267717 3.2637742 -4.957853e-06 3.3128464 3.63712 3.5930612 3.650231 3.2318134
3.595144 3.2862456 3.301161 3.2858593 3.5171692 3.0948186 3.5524232 3.2384458
3.5930862 3.3873367 1.7123838e-06 3.5101082 3.525195 3.5875347 3.5651577 3.3966224
3.6312907 3.4925315 3.4290013 3.5617623 3.7249029 3.3046246 3.418819 3.748458
3.567293 3.4600928 -0.00013399553 3.3170612 3.6974773 3.4585686 3.6803246 3.674499
3.4454095 3.4536982 3.4229631 3.442944 3.428642 3.464364 3.4125881 3.4296322
3.4000125 3.353638 1.2130572e-06 3.3156302 3.4052231 3.4522886 3.3103602 3.335281
3.7694178 3.7002382 3.7725048 3.420433 3.6204507 3.0926554 3.4960716 3.444481
3.623639 3.3140683 9.531537e-05 3.4470978 3.3523402 3.3890367 3.3922005 3.5711586
3.2992327 3.3409634 3.2723331 3.3032234 3.2684247 3.2891235 3.2953691 3.2637582
3.2968416 3.3115926 -3.1643515e-07 3.2799973 3.2712164 3.2584796 3.2731438 3.2835746
3.5558143 3.4719203 3.6673362 3.4490042 3.6336453 3.6752892 3.650673 3.7740133
3.6001635 3.5423608 -0.03612678 3.7418995 3.7522137 3.581948 3.5162156 3.4717286
3.5055406 3.473327 3.5771456 3.6309893 3.5532978 3.311094 3.3216138 3.4642513
3.5547516 3.3658795 -4.276461e-06 3.3824399 3.466221 3.4640045 3.59474 3.7524092
3.2953398 3.3346972 3.2884912 3.2732465 3.6231673 3.5725777 3.285814 3.4895546
3.452026 3.6238968 -5.3867925e-06 3.700394 3.3229074 3.543129 3.6067562 3.6293328
3.5154915 3.538159 3.3805697 3.6990995 3.6817787 3.3561678 3.759427 3.4915464
3.6576953 3.6379132 -2.3642738e-06 3.522191 3.4444172 3.570149 3.6013386 3.3075416
1.7052538 1.7120386 1.6977688 1.6974281 1.7072283 1.6987015 1.7168864 1.7118279
1.6857107 1.6876869 0.015157537 1.7041086 1.7006615 1.7411557 1.6848325 1.6988217
-0.19862755 0.013096202 -0.018266918 -0.037184235 -0.03409007 -0.00024922358 0.00852248 -0.11875504
-0.07598867 0.0017421313 -0.020803038 -0.052390963 0.012644726 -0.020102808 -0.011842631 -0.08980843
00000000: 1d70 6740 33a4 6940 c618 6540 6422 5940
00000010: 5348 6940 6473 6640 caba 6040 a192 5d40
00000020: 7f38 5840 9ddc 6b40 5dad 893a b9f2 6740
00000030: aca9 5e40 c4b4 5a40 8f17 7140 d953 6240
00000040: af0f 5540 c62c 5740 17c3 5740 70e1 5440
00000050: fc74 5640 6c81 5540 3ebc 5640 8747 5740
00000060: 44cc 5740 54e0 5640 9d67 2e35 4a98 5440
00000070: dd5e 5340 2412 5740 d122 5740 7cc7 5640
00000080: 52d5 6940 f9d0 5440 469a 5640 41e0 6740
00000090: f5cd 5240 9523 6140 5623 6940 55b9 5b40
000000a0: 08b6 6240 571a 5340 1de8 54bc c13a 5c40
000000b0: 7e59 6640 a738 6040 6f95 5240 6f70 5a40
000000c0: 9dd8 5b40 8b5d 4f40 31ef 5c40 4faf 5f40
000000d0: 237a 5240 6388 4c40 1738 6e40 12e5 5a40
000000e0: 7df7 5c40 1999 5c40 4481 cf35 90b5 6540
000000f0: 248b 6640 8fb9 6d40 a6fc 5b40 d38c 6a40
00000100: f96d 5440 9459 5540 4eb2 6a40 a09b 5940
00000110: 2a7b 6840 199a 5b40 09a9 6540 0ffb 6240
00000120: 071d 6840 ade1 5040 a25b a6b6 ad05 5440
00000130: 93c6 6840 b7f4 6540 629d 6940 08d6 4e40
00000140: d716 6640 d951 5240 3946 5340 854b 5240
00000150: 4d19 6140 8211 4640 e75a 6340 b242 4f40
00000160: 20f5 6540 20ca 5840 0fd5 e535 9da5 6040
00000170: cb9c 6140 2b9a 6540 8b2b 6440 4362 5940
00000180: 1167 6840 a385 5f40 c274 5b40 eaf3 6340
00000190: cf64 6e40 f87e 5340 eecd 5a40 bce6 6f40
000001a0: 874e 6440 2972 5d40 2781 0cb9 bb4a 5440
000001b0: 78a3 6c40 3059 5d40 708a 6b40 fe2a 6b40
000001c0: 9781 5c40 6409 5d40 d411 5b40 3259 5c40
000001d0: df6e 5b40 24b8 5d40 d867 5a40 187f 5b40
000001e0: ce99 5940 01a2 5640 54d0 a235 4933 5440
000001f0: 2def 5940 4cf2 5c40 f1dc 5340 3e75 5540
00000200: 243e 7140 b4d0 6c40 b870 7140 60e8 5a40
00000210: 77b5 6740 11ee 4540 a3bf 5f40 6072 5c40
00000220: b4e9 6740 b219 5440 0de4 c738 409d 5c40
00000230: be8c 5640 fae5 5840 d019 5940 dd8d 6440
00000240: a126 5340 58d2 5540 e86d 5140 0368 5340
00000250: df2d 5140 0081 5240 54e7 5240 6ae1 5040
00000260: 74ff 5240 22f1 5340 84e2 a9b4 7aeb 5140
00000270: 9c5b 5140 ee8a 5040 307b 5140 1626 5240
00000280: 7692 6340 f133 5e40 a3b5 6a40 7cbc 5c40
00000290: a58d 6840 f037 6b40 a0a4 6940 6f89 7140
000002a0: 1469 6640 0ab6 6240 adf9 13bd 487b 6f40
000002b0: 4524 7040 a33e 6540 ad09 6140 cd30 5e40
000002c0: c75a 6040 fd4a 5e40 f4ef 6440 2162 6840
000002d0: 3b69 6340 f7e8 5340 5295 5440 4bb6 5d40
000002e0: 0d81 6340 926a 5740 857e 8fb6 e579 5840
000002f0: 91d6 5d40 40b2 5d40 3810 6640 7927 7040
00000300: d9e6 5240 ae6b 5540 a476 5240 df7c 5140
00000310: f9e1 6740 1da5 6440 c74a 5240 dd54 5f40
00000320: feed 5c40 eded 6740 32c0 b4b6 41d3 6c40
00000330: 84aa 5440 a0c2 6240 18d5 6640 fd46 6840
00000340: d0fd 6040 3271 6240 415b 5840 0cbe 6c40
00000350: 43a2 6b40 74cb 5640 749a 7040 7f75 5f40
00000360: ae17 6a40 92d3 6840 eaa9 1eb6 946b 6140
00000370: 5571 5c40 527d 6440 557c 6640 c3ae 5340
00000380: c245 da3f 1524 db3f 7d50 d93f 5345 d93f
00000390: 7586 da3f 0d6f d93f efc2 db3f 2d1d db3f
000003a0: 5ec5 d73f 2006 d83f 5157 783c 3b20 da3f
000003b0: 47af d93f 31de de3f 97a8 d73f fd72 d93f
000003c0: 0565 4bbe 7491 563c 81a4 95bc 7f4e 18bd
000003d0: 07a2 0bbd 39aa 82b9 dfa1 0b3c d835 f3bd
000003e0: f39f 9bbd 3a58 e43a 226b aabc e897 56bd
000003f0: d32b 4f3c a5ae a4bc 9807 42bc 7bed b7bd

conv3.lin_l.weight f4 [7, 16]
3.5917892 3.3329136 3.721349 3.7555292 3.4376383 3.7348335 3.6086712 3.503748
3.4922357 3.2954135 3.6987684 3.4320772 3.6273625 3.437385 1.8473722 0.0051668533
3.7143154 3.3357062 3.6507056 3.757949 3.5172389 3.541459 3.7398696 3.4104564
3.725764 3.3086336 3.5944867 3.3533108 3.4477568 3.3155336 1.6509204 0.15606621
3.5659742 3.3486025 3.8030949 3.4074745 3.675019 3.3614244 3.4250207 3.4267569
3.360305 3.2801144 3.6498666 3.5862272 3.493503 3.7046928 1.7764596 0.032959912
3.35394 3.3258166 3.5931096 3.4588835 3.5829298 3.4571571 3.641696 3.4152539
3.5841508 3.2920923 3.724924 3.4858067 3.377971 3.5292635 1.5971923 -0.03788005
3.7321782 3.369874 3.3729093 3.7235067 3.4644318 3.3930695 3.354878 3.437683
3.4305584 3.313895 3.5138254 3.607187 3.7178698 3.626477 1.6073458 -0.10903765
3.4743805 3.3782725 3.7278552 3.3935409 3.4345849 3.5805604 3.442705 3.3896112
3.6491344 3.277078 3.7162895 3.6742861 3.399594 3.4978805 1.6211797 0.15478249
3.7896357 3.3762684 3.5938816 3.7488549 3.4257731 3.5507698 3.6042879 3.4365027
3.6386287 3.2797964 3.7721894 3.656713 3.594393 3.7037249 1.64783 -0.058354873
00000000: e0df 6540 754e 5540 952a 6e40 975a 7040
00000010: 4402 5c40 8307 6f40 78f4 6640 683d 6040
00000020: ca80 5f40 0ee8 5240 9fb8 6c40 27a7 5b40
00000030: b526 6840 1efe 5b40 b176 ec3f b54e a93b
00000040: 58b7 6d40 367c 5540 29a5 6940 3d82 7040
00000050: 711a 6140 44a7 6240 065a 6f40 eb44 5a40
00000060: eb72 6e40 a7c0 5340 120c 6640 a59c 5640
00000070: 0ca8 5c40 b431 5440 5c51 d33f d2cf 1f3e
00000080: ec38 6440 814f 5640 e865 7340 1014 5a40
00000090: 8333 6b40 9421 5740 8a33 5b40 fc4f 5b40
000000a0: 3d0f 5740 65ed 5140 6a97 6940 bf84 6540
000000b0: 8e95 5f40 b019 6d40 0763 e33f f900 073d
000000c0: f4a6 5640 2eda 5440 82f5 6540 595e 5d40
000000d0: b94e 6540 1042 5d40 8c11 6940 8593 5a40
000000e0: ba62 6540 a4b1 5240 2865 6e40 7517 5f40
000000f0: ad30 5840 74df 6140 cc70 cc3f 1c28 1bbd
00000100: 02dc 6e40 04ac 5740 bfdd 5740 ef4d 6e40
00000110: 40b9 5d40 0d28 5940 52b6 5640 0003 5c40
00000120: 458e 5b40 db16 5440 84e2 6040 27dc 6640
00000130: 94f1 6d40 3318 6840 82bd cd3f 224f dfbd
00000140: 405c 5e40 9e35 5840 2e95 6e40 c62f 5940
00000150: 3dd0 5b40 e727 6540 4755 5c40 64ef 5840
00000160: 6b8b 6940 a5bb 5140 b0d7 6d40 8127 6b40
00000170: f392 5940 46dd 5f40 d182 cf3f 4d7f 1e3e
00000180: 6489 7240 c814 5840 2802 6640 3ded 6f40
00000190: de3f 5b40 d03f 6340 a7ac 6640 a9ef 5b40
000001a0: 4bdf 6840 2fe8 5140 8d6b 7140 9607 6a40
000001b0: 890a 6640 d409 6d40 18ec d23f 8505 6fbd

conv3.lin_l.bias f4 [7]
2.0268512 2.1099784 2.2308416 2.20391 1.8564847 2.1468503 2.1002665
00000000: eeb7 0140 e309 0740 1cc6 0e40 dd0c 0d40
00000010: 4aa1 ed3f ff65 0940 c46a 0640

conv3.lin_r.weight f4 [7, 16]
3.5965667 3.3652556 3.659422 3.3387039 3.5925698 3.7226512 3.7658992 3.5050795
3.537322 3.2962806 3.297445 3.6060042 3.667826 3.7052646 1.650111 -0.11783467
3.321319 3.3629549 3.7963188 3.7217207 3.7121298 3.7830293 3.3303769 3.4125135
3.766624 3.2814333 3.7314832 3.6261892 3.3292065 3.4035485 1.7205552 -0.10468235
3.474083 3.341896 3.705505 3.4349403 3.801551 3.6234019 3.6172016 3.4514437
3.6299272 3.2647314 3.4708836 3.5893004 3.5476913 3.7214859 1.7780925 0.00094849453
3.558401 3.3760102 3.397584 3.425704 3.6233168 3.3989408 3.6323133 3.4062624
3.6667724 3.3121495 3.4974694 3.5704925 3.3208716 3.5774617 1.7527871 0.115492985
3.7997448 3.3255079 3.504424 3.5609937 3.3367379 3.4641826 3.3798904 3.4146547
3.5615666 3.2866426 3.7306247 3.6802354 3.394691 3.448207 1.6649129 0.109725766
3.6739292 3.38936 3.4655855 3.620337 3.8159125 3.7683578 3.565991 3.4136157
3.803215 3.2832432 3.7668324 3.5150928 3.4165392 3.6613927 1.6207405 0.025579315
3.791206 3.362925 3.5323596 3.7768679 3.4656944 3.6491613 3.411777 3.4283392
3.3220322 3.269733 3.544055 3.3651395 3.49925 3.6291163 1.7537194 0.1307514
00000000: 262e 6640 5960 5740 f833 6a40 53ad 5540
00000010: aaec 6540 eb3f 6e40 7e04 7140 3953 6040
00000020: 7c63 6240 43f6 5240 5709 5340 c6c8 6640
00000030: a9bd 6a40 0e23 6d40 d636 d33f 4e53 f1bd
00000040: 7e90 5440 a73a 5740 e3f6 7240 ac30 6e40
00000050: 8993 6d40 271d 7240 e524 5540 9f66 5a40
00000060: 5e10 7140 0103 5240 9fd0 6e40 7c13 6840
00000070: b811 5540 bdd3 5940 273b dc3f b363 d6bd
00000080: 6057 5e40 a0e1 5540 fe26 6d40 10d6 5b40
00000090: 9d4c 7340 d1e5 6740 3b80 6740 74e4 5c40
000000a0: ba50 6840 5cf1 5040 f522 5e40 19b7 6540
000000b0: 600d 6340 d32c 6e40 8998 e33f 64a4 783a
000000c0: d8bc 6340 8d10 5840 0472 5940 bc3e 5b40
000000d0: 6ce4 6740 3f88 5940 d277 6840 3400 5a40
000000e0: 66ac 6a40 42fa 5340 8ad6 5f40 f382 6440
000000f0: 2989 5440 22f5 6440 545b e03f 9687 ec3d
00000100: 052f 7340 1fd5 5440 7c48 6040 52e7 6340
00000110: 1d8d 5540 2bb5 5d40 2050 5840 b489 5a40
00000120: b5f0 6340 5a58 5240 8ec2 6e40 fa88 6b40
00000130: 9e42 5940 6caf 5c40 de1b d53f e7b7 e03d
00000140: a821 6b40 46eb 5840 27cc 5d40 9ab3 6740
00000150: e937 7440 c62c 7140 3239 6440 ae78 5a40
00000160: e067 7340 a820 5240 c813 7140 48f7 6040
00000170: 94a8 5a40 4254 6a40 6d74 cf3f b68b d13c
00000180: 1ea3 7240 2a3a 5740 2e12 6240 34b8 7140
00000190: f0cd 5d40 dc8b 6940 8e5a 5a40 e969 5b40
000001a0: 2d9c 5440 4e43 5140 ccd1 6240 725e 5740
000001b0: b6f3 5f40 7143 6840 e179 e03f b2e3 053e
