models/Facebook_gcn_model.pth (torch, 40950 bytes, 6 tensors)

conv1.bias f4 [16]
0.17911823 -0.06549872 -0.055085137 0.13537942 -0.049762763 -0.050669495 0.006909075 -0.05183461
-0.063078485 -0.05023754 0.022881111 0.038945626 0.2657308 0.00044821267 0.017356018 -0.010106249
00000000: c56a 373e 3124 86bd f4a0 61bd e7a0 0a3e
00000010: 0ad4 4bbd d18a 4fbd 8665 e23b 8750 54bd
00000020: 4b2f 81bd e1c5 4dbd 2b71 bb3c 7385 1f3d
00000030: de0d 883e 16fe ea39 352e 8e3c ae94 25bc

conv1.lin.weight f4 [16, 573]
-0.0020902476 -0.02651335 -0.07774589 -0.021861771 0.058057882 0.11878682 0.028772524 0.16838378
0.08773802 0.04072331 -0.028242864 -0.04150846 -0.0060411403 -0.012934393 0.0050166366 -0.032447476
-0.0016504672 0.002540753 0.006975928 -0.00683445 0.00093860674 0.015456723 -0.010897184 0.018646695
-0.008123137 -0.026302526 -0.025410937 0.00865971 -0.0352745 -0.011114454 0.00435542 0.070602395
-0.032147612 -0.00041922234 -0.009054981 -0.0031210782 -0.007784867 0.0031536121 -0.00091622124 0.008072998
0.0060754158 -0.0022759212 0.00099124 -0.004566782 -0.013207889 -0.00684939 -0.028933505 0.0016958261
-0.0057733613 0.002834486 -0.044258606 -0.0059625604 0.0014977353 -0.0054838136 -0.0008402392 0.0020975985
0.005445801 -0.0009515397 -0.031006867 0.0158519 -0.02336728 0.0074110394 -0.00057014055 -0.050755776
-0.011374402 0.0023969405 0.01046818 -0.004897155 0.0021784664 0.0022935616 -0.008037797 -0.008858362
0.0076529584 0.0002646227 0.0039933445 -0.033615507 -0.0016281481 0.005941036 0.003995675 -0.045531545
0.05306525 -0.011172252 -0.025434319 -0.016793488 -0.008897447 -0.012754896 -0.055798594 -0.0044328272
0.029615188 0.003320659 0.010830588 -0.03598451 0.0067136404 0.010855669 -0.00465124 -0.016258756
0.010885209 0.061494034 0.017492624 -0.056073777 -0.004402225 0.004173871 0.039413292 0.0025425625
0.080234654 -0.007846404 -0.032673202 -0.035418406 0.0017907936 0.008048067 0.13686357 -0.05526597
-0.005242221 0.008900194 -0.004069933 0.011665202 -0.0068493783 0.0041829897 0.0031006425 0.0036296654
-0.028682461 -0.007286912 6.6310866e-05 -0.008497514 0.000659145 0.00935926 0.01384626 -0.00733451
-0.0023337055 -0.0037613718 0.0009658792 -0.00074852095 0.0029933907 -0.06710927 0.007991847 0.0009530955
0.0032325827 0.0018184688 -0.011463129 0.004063058 -0.0031715264 0.0068487027 -0.022324272 -0.025633272
0.002112181 0.011692084 -0.025776414 0.01641254 -0.00017243405 0.0004861848 -0.008529523 -0.0063163387
0.0020341773 0.0022028757 -0.015795412 0.10890838 -0.00043779443 -0.010410299 -0.026230859 0.0022989307
-0.0018823728 -0.011391448 -0.006194846 -0.019553723 0.0055299513 0.0048939064 -0.014230978 0.0021531777
0.0014970918 0.0035776172 -0.0098132985 0.0012208194 -0.022313584 -0.034216963 0.00366401 -0.021261988
0.009091105 0.01911377 0.020632543 0.025833055 0.00032007846 -0.00020708732 -0.008276156 0.0118710715
0.0025307378 0.0030392532 -0.003890629 0.00021729444 0.0032324502 -0.075337894 0.0059884954 0.028283564
0.0018075623 0.00071453495 -0.00888037 0.008087606 -0.00083015347 -0.0025015962 0.0033849909 0.01844095
-0.031236121 -0.011511577 0.0076538655 -0.001515021 0.005345232 -0.012851562 0.007568578 -0.018364172
0.0029569236 0.0018338879 0.002381114 -0.0088391015 -0.0028439325 -0.02938773 -0.023001991 0.021268142
0.022556907 0.0036732403 -0.055695966 0.17283049 0.0020449972 0.0037425521 0.002466603 0.008382036
-0.0042527933 0.110268034 0.10805376 0.0049948394 -0.037874117 -0.0356217 0.15217224 0.060747948
0.15525979 0.04497987 0.12262838 0.064750284 0.14854968 -0.05821123 -0.021532927 0.025982218
-0.15308233 -0.0007838363 0.015608676 -0.009502755 0.03281387 -0.034298383 0.009073649 -0.00097462203
0.0028210622 -0.0033903832 0.0010490436 0.0062895752 0.012171654 -0.008078422 -0.0037234318 -0.012316262
00000000: 89fc 08bb 8632 d9bc 3d39 9fbd 7517 b3bc
00000010: 1ace 6d3d 8146 f33d 5bb4 eb3c cc6c 2c3e
00000020: feaf b33d 7ccd 263d 945d e7bc c604 2abd
00000030: c2f4 c5bb c7ea 53bc 9962 a43b a5e7 04bd
00000040: 7d54 d8ba c382 263b 5396 e43b 86f3 dfbb
00000050: d50c 763a 323e 7d3c 1a8a 32bc f4c0 983c
00000060: e816 05bc 6578 d7bc 992a d0bc 75e1 0d3c
00000070: fe7b 10bd 6619 36bc e9b7 8e3b fd97 903d
00000080: 37ad 03bd 12cb dbb9 585b 14bc 018b 4cbb
00000090: 3318 ffbb d5ac 4e3b 912e 70ba 9c44 043c
000000a0: 4814 c73b 9f27 15bb 7fec 813a f2a4 95bb
000000b0: e765 58bc d970 e0bb f505 edbc 7b46 de3a
000000c0: 772e bdbb c9c2 393b 8348 35bd 9561 c3bb
000000d0: a84f c43a 90b1 b3bb 8043 5cba dd77 093b
000000e0: b172 b23b c070 79ba 1d02 febc d8db 813c
000000f0: bd6c bfbc 4ed8 f23b 7c75 15ba 4ae5 4fbd
00000100: b35b 3abc fd15 1d3b bb82 2b3c 5078 a0bb
00000110: 9ac4 0e3b 944f 163b f7b0 03bc aa22 11bc
00000120: abc5 fa3b 0fbd 8a39 9ada 823b 6ab0 09bd
00000130: 9667 d5ba 06ad c23b 27ee 823b 497f 3abd
00000140: f35a 593d d20b 37bc a25b d0bc 7f92 89bc
00000150: 99c6 11bc e9f9 50bc 118d 64bd 4041 91bb
00000160: 8d9b f23c 6a9f 593b c772 313c 7e64 13bd
00000170: 19fe db3b fadb 313c 6e69 98bb 1531 85bc
00000180: e057 323c 2be1 7b3d b14c 8f3c 9ead 65bd
00000190: 8a40 90bb f8c4 883b d56f 213d 1fa1 263b
000001a0: 1152 a43d 348e 00bc 56d4 05bd e412 11bd
000001b0: 10b9 ea3a 0adc 033c f725 0c3e 925e 62bd
000001c0: f0c6 abbb 1fd2 113c 135d 85bb 671f 3f3c
000001d0: c070 e0bb 7611 893b 2634 4b3b aedf 6d3b
000001e0: 7bf7 eabc 0cc7 eebb 6010 8b38 2839 0bbc
000001f0: 79ca 2c3a 9557 193c 6cdb 623c 5456 f0bb
00000200: 15f1 18bb 5981 76bb 0e33 7d3a 6438 44ba
00000210: c32c 443b 9670 89bd 3cf0 023c 28d9 793a
00000220: bdd9 533b b059 ee3a d9cf 3bbc 6723 853b
00000230: 62d9 4fbb 156b e03b 64e1 b6bc defc d1bc
00000240: 846c 0a3b 2890 3f3c 0f29 d3bc 9773 863c
00000250: 6acf 34b9 9fe6 fe39 6abf 0bbc 4af9 cebb
00000260: d54f 053b 1f5e 103b 6165 81bc 5b0b df3d
00000270: c687 e5b9 f58f 2abc 19e2 d6bc a8a9 163b
00000280: f3b9 f6ba 32a3 3abc 22fe cabb 212f a0bc
00000290: 9834 b53b 105d a03b 0c29 69bc 541c 0d3b
000002a0: 113a c43a 7576 6a3b f5c7 20bc e703 a03a
000002b0: faca b6bc 1627 0cbd e31f 703b 9f2d aebc
000002c0: dcf2 143c 7b94 9c3c 9405 a93c d89f d33c
000002d0: 34d0 a739 9425 59b9 b798 07bc e27e 423c
000002e0: bcda 253b 352e 473b ecf9 7ebb 88d9 6339
000002f0: 84d7 533b c14a 9abd 243b c43b efb2 e73c
00000300: baeb ec3a a14f 3b3a f97e 11bc e181 043c
00000310: a89e 59ba d2f1 23bb b9d6 5d3b 7a11 973c
00000320: e5e2 ffbc 0e9b 3cbc 47cd fa3b ab93 c6ba
00000330: 0e27 af3b 5c8f 52bc d501 f83b 7670 96bc
00000340: f2c8 413b 115f f03a 770c 1c3b e1d1 10bc
00000350: 4561 3abb 89be f0bc ac6e bcbc 873a ae3c
00000360: 43c9 b83c bfba 703b 7421 64bd 7afa 303e
00000370: 5c05 063b 9b45 753b bba6 213b cf54 093c
00000380: 045b 8bbb 35d4 e13d 4a4b dd3d c0ab a33b
00000390: e421 1bbd 0fe8 11bd 0ad3 1b3e d7d2 783d
000003a0: 6cfc 1e3e d03c 383d 9724 fb3d cc9b 843d
000003b0: 681d 183e e66e 6ebd d265 b0bc a9d8 d43c
000003c0: 9dc1 1cbe 5d7a 4dba 88bb 7f3c 71b1 1bbc
000003d0: d667 063d 767c 0cbd a4a9 143c c77d 7fba
000003e0: 92e1 383b 3131 5ebb 1080 893a c818 ce3b
000003f0: 9e6b 473c 5c5b 04bc d204 74bb 26ca 49bc

conv2.bias f4 [16]
0.20373918 0.35720307 -0.06339767 -0.08205084 0.028450117 0.08118886 0.086631656 0.0967187
0.32773697 0.03177165 -0.033449203 0.4820713 0.34107858 0.028711872 0.26331294 -0.060432605
00000000: 01a1 503e 52e3 b63e a3d6 81bd 450a a8bd
00000010: 3810 e93c 5846 a63d f06b b13d 7414 c63d
00000020: 24cd a73e fd22 023d 0802 09bd 0dd2 f63e
00000030: daa1 ae3e 2935 eb3c f4d0 863e 2e88 77bd

conv2.lin.weight f4 [16, 16]
0.6326424 1.3104211e-05 6.216742e-06 0.44641855 6.7054725e-06 0.0019811587 -0.16280068 4.7342503e-05
4.512918e-06 1.9646499e-05 0.068540774 0.2741919 -0.034580193 0.122207165 0.4922814 -2.5687607e-06
0.4369913 8.456531e-06 -4.9818e-06 -0.18152429 -9.4356365e-06 -2.3762895e-07 -0.13261132 -1.2979337e-05
5.4453963e-06 -1.5654289e-06 -0.31416515 -0.034700733 0.94192755 -0.038269628 -0.44960162 -3.0148824e-06
-0.15470351 0.032692634 0.05470551 -0.049527936 -1.9530441e-07 -9.252412e-06 0.11029743 -1.3979302e-05
0.13544585 0.081665136 -0.021705274 -0.008150054 -3.898273e-06 -0.07015705 -0.14991347 5.575997e-06
0.056377735 0.00010701885 -1.606141e-05 -0.05438036 8.527239e-06 2.6634052e-06 0.0007301767 -9.759511e-06
-2.4894718e-05 3.311298e-07 -0.040284023 0.004928557 -0.011304113 0.013631664 0.0029627937 -3.236026e-06
0.25958058 0.04567679 -0.017571932 0.0076040896 0.05086012 0.00011344244 -0.17803682 -4.992804e-05
0.088057786 -0.07561087 -0.17629759 -0.43386376 0.9239054 -0.18229643 0.045064595 2.9098892e-05
0.36270005 -1.7815269e-06 1.1414268e-06 0.26476255 2.2653614e-06 2.321062e-06 0.20839022 -8.905527e-06
-1.081438e-05 -0.00014789612 -0.0037696618 0.386095 -0.5795729 -0.054896526 0.72387004 8.203345e-06
-0.049961235 0.15328623 -0.06755598 0.23966335 0.0024701706 -0.034225747 0.60925925 0.015982991
0.013081104 -0.027342603 0.46276015 0.19738503 -0.81190854 0.22917645 0.323904 2.716764e-06
0.37382182 -0.05515948 -0.008896399 0.40320745 -1.844507e-06 -0.009657022 0.4015511 -0.042880725
0.00503182 0.029558579 0.50862646 -0.026921138 -0.68600625 0.2694518 0.4651326 2.3126613e-05
0.06278162 1.1685499e-06 -4.6976465e-06 0.44832173 -1.3100623e-07 4.9933496e-06 0.18218473 1.0681249e-06
-8.127865e-06 2.1327094e-05 0.5274596 0.30143377 0.27970004 0.22576386 0.17863595 -1.060698e-05
-0.14367427 -3.7241643e-06 2.7232768e-06 0.08932443 1.5999838e-05 -3.9541454e-05 0.40688345 -2.8138833e-05
1.554684e-05 1.42590925e-05 0.19439892 0.48533833 -0.2209693 0.3564854 0.5683338 3.1583993e-06
-2.2344553e-05 -1.5852855e-05 -1.2555279e-05 -1.5382673e-05 2.973849e-06 -6.203067e-06 -1.2392405e-05 -3.917327e-06
0.00023959241 4.9826144e-06 2.7979691e-05 1.2374515e-05 -6.904839e-07 0.00013367357 -1.3477539e-06 -1.391671e-06
0.11855632 -1.6573656e-05 1.7907569e-06 -0.04546453 -9.0761005e-06 -1.7157568e-06 -0.55790246 1.9793615e-06
-9.020885e-06 -7.4276277e-06 0.0009208146 -0.2921849 0.97939897 -0.24979064 -0.48974085 4.4124e-06
0.2773989 -1.1732827e-05 1.347373e-05 0.30596718 2.1677083e-06 -1.6666769e-05 0.13403273 -8.462899e-06
-2.1303417e-06 4.639079e-06 0.36843935 -0.19762969 0.759695 -0.1893392 -0.24457783 -8.628034e-06
0.15394007 0.030196529 -0.042718664 -0.31463802 0.00022848794 -0.03438548 0.46574757 -0.038249142
-0.009305426 0.021779949 0.37018493 0.5386213 -0.63361406 0.36914158 0.71274924 9.52414e-06
0.21631682 -0.00773098 0.01922175 0.6259944 -2.5381391e-06 -0.0024737576 0.107926145 -0.0002918027
-0.00855917 0.0044539724 0.2514405 0.26306555 0.5042336 0.16801254 0.15042645 1.8243092e-06
-0.08973888 -0.058746833 -0.00032267065 -0.018289143 0.014124558 1.4992834e-05 0.027973652 0.00012869685
0.0960855 -8.0751066e-05 -0.025841473 -0.016323876 0.00041974604 0.07274847 0.04289893 5.49895e-06
00000000: daf4 213f 28da 5b37 6899 d036 f990 e43e
00000010: 92ff e036 54d6 013b 39b5 26be a091 4638
00000020: ac6d 9736 89ce a437 1b5f 8c3d e162 8c3e
00000030: f6a3 0dbd c047 fa3d 4f0c fc3e f962 2cb6
00000040: 53bd df3e 86e0 0d37 5629 a7b6 81e1 39be
00000050: c04d 1eb7 f326 7fb4 43cb 07be d4c1 59b7
00000060: 99b7 b636 ba1b d2b5 41da a0be 5b22 0ebd
00000070: 2a22 713f 9dc0 1cbd 2f32 e6be 4953 4ab6
00000080: 996a 1ebe b6e8 053d e312 603d cedd 4abd
00000090: deb4 51b4 cf3a 1bb7 9ee3 e13d a588 6ab7
000000a0: 51b2 0a3e 0d40 a73d 42cf b1bc ce87 05bc
000000b0: e9cd 82b6 80ae 8fbd eb82 19be 7319 bb36
000000c0: 57ec 663d 4f6f e038 9ebb 86b7 f1bd 5ebd
000000d0: 3610 0f37 f4bc 3236 5469 3f3a c8bc 23b7
000000e0: 00d5 d0b7 22c6 b134 dc00 25bd bc7f a13b
000000f0: e334 39bc 5857 5f3c 6e2b 423b 812a 59b6
00000100: bfe7 843e 9617 3b3d 03f3 8fbc ba2b f93b
00000110: b452 503d f2e7 ed38 494f 36be d369 51b8
00000120: a457 b43d dfd9 9abd 5b87 34be 6423 debe
00000130: 1085 6c3f eaab 3abe a795 383d 6519 f437
00000140: d2b3 b93e cc1c efb5 2033 9935 f58e 873e
00000150: 9d06 1836 8bc3 1b36 3f64 553e f268 15b7
00000160: 696f 35b7 9014 1bb9 6e0c 77bb 3eae c53e
00000170: e45e 14bf 2edb 60bd 8c4f 393f 19a1 0937
00000180: 27a4 4cbd 11f7 1c3e ca5a 8abd 4f6a 753e
00000190: 96e2 213b 4c30 0cbd 6af8 1b3f c3ee 823c
000001a0: 2052 563c 98fd dfbc e6ee ec3e 4d1f 4a3e
000001b0: 3dd9 4fbf 3bad 6a3e bfd6 a53e a651 3636
000001c0: 9365 bf3e e8ee 61bd 34c2 11bc 3571 ce3e
000001d0: c790 f7b5 7c38 1ebc 1b98 cd3e b3a3 2fbd
000001e0: f7e1 a43b d524 f23c 5835 023f b889 dcbc
000001f0: 1b9e 2fbf 96f5 893e dc25 ee3e 0600 c237
00000200: a693 803d 12d7 9c35 7aa0 9db6 6d8a e53e
00000210: b8aa 0cb4 8c8c a736 a28e 3a3e 7e5c 8f35
00000220: ea5c 08b7 96e7 b237 9807 073f 8755 9a3e
00000230: d834 8f3e a42e 673e 58ec 363e a2f4 31b7
00000240: 591f 13be a8ec 79b6 8ac1 3636 baef b63d
00000250: 6437 8637 50d9 25b8 0753 d03e af0b ecb7
00000260: 966a 8237 563a 6f37 8310 473e 447e f83e
00000270: c745 62be 4185 b63e 537e 113f e3f4 5336
00000280: 9070 bbb7 bffb 84b7 83a4 52b7 0a0a 81b7
00000290: 5692 4736 f123 d0b6 f9e8 4fb7 9571 83b6
000002a0: 193b 7b39 5530 a736 eeb5 ea37 239c 4f37
000002b0: b159 39b5 ba2a 0c39 79e4 b4b5 74c9 bab5
000002c0: a8cd f23d a807 8bb7 f059 f035 0439 3abd
000002d0: 8e45 18b7 f448 e6b5 b2d2 0ebf 2cd5 0436
000002e0: 6858 17b7 d63a f9b6 d262 713a 4299 95be
000002f0: e4b9 7a3f 1ec9 7fbe 50bf fabe 3a0e 9436
00000300: 3b07 8e3e 1cd8 44b7 3b0d 6237 bba7 9c3e
00000310: f278 1136 9dcf 8bb7 e03f 093e e0fb 0db7
00000320: fef6 0eb6 63a9 9b36 15a4 bc3e 705f 4abe
00000330: 5f7b 423f 23e2 41be 9c72 7abe 20c1 10b7
00000340: 77a2 1d3e b65e f73c c4f9 2ebd 3c18 a1be
00000350: 4496 6f39 cad7 0cbd 7776 ee3e 22ab 1cbd
00000360: c975 18bc dd6b b23c e188 bd3e 16e3 093f
00000370: 8834 22bf 2000 bd3e bc76 363f dfc9 1f37
00000380: 2882 5d3e 2954 fdbb ee76 9d3c 2b41 203f
00000390: e654 2ab6 c41e 22bb 6208 dd3d 18fd 98b9
000003a0: c33b 0cbc a1f2 913b cfbc 803e 87b0 863e
000003b0: 7415 013f 7b0b 2c3e 6409 1a3e c9da f435
000003c0: 05c9 b7bd 85a0 70bd 1f2c a9b9 1dd3 95bc
000003d0: b16a 673c bb89 7b37 0029 e53c ccf2 0639
000003e0: 7ac8 c43d e658 a9b8 7fb1 d3bc a6b9 85bc
000003f0: 5c11 dc39 26fd 943d cab6 2f3d 9f83 b836

conv3.bias f4 [3]
-0.03725575 0.20491974 -0.22997122
00000000: 7c99 18bd 7bd6 513e 937d 6bbe

conv3.lin.weight f4 [3, 16]
0.48890677 0.5477675 0.06668176 -0.01355429 0.6106926 -0.081502564 -0.45038268 -0.2955317
0.20140903 -0.13691647 3.3637932e-06 0.84050417 0.008241391 -0.5443885 0.26116928 -0.003867513
0.5570473 -0.13211975 -0.17883162 -0.006721182 -0.6524492 0.3552717 0.15099348 0.013388153
0.21628915 0.4812363 8.798024e-06 -0.1397192 -0.1525916 0.75519925 0.24938859 -0.10599179
-0.48886138 -0.8171697 -0.06998849 0.0012428195 0.11294779 -0.7871783 -0.6287459 -0.7649061
-0.43115285 0.10660438 -1.0565432e-05 -0.76352024 -0.89820987 0.27877614 -0.7556444 0.010589817
00000000: fd51 fa3e 7e3a 0c3f 7290 883d d012 5ebc
00000010: 5a56 1c3f d1ea a6bd 8f98 e6be ee4f 97be
00000020: 2b3e 4e3e d533 0cbe 87bd 6136 482b 573f
00000030: e606 073c 0b5d 0bbf fbb7 853e 1a76 7dbb
00000040: a79a 0e3f 664a 07be a31f 37be 5c3d dcbb
00000050: e906 27bf 2ce6 b53e 099e 1a3e fc59 5b3c
00000060: e77a 5d3e 9b64 f63e 3a9b 1337 8d12 0fbe
00000070: f940 1cbe bd54 413f b95f 7f3e 3912 d9bd
00000080: 0a4c fabe 0932 51bf 2056 8fbd 1ae6 a23a
00000090: 2c51 e73d 8484 49bf 7ef5 20bf e3d0 43bf
000000a0: 11c0 dcbe 6653 da3d 2f42 31b7 1076 43bf
000000b0: 15f1 65bf bfbb 8e3e e971 41bf e980 2d3c
