models/FacebookPage_gcn_model.pth (torch, 12638 bytes, 6 tensors)

conv1.bias f4 [16]
-0.2325178 -0.008972036 -0.15120989 -0.047342885 -0.003354257 0.00032227917 -0.01831965 -0.07987633
-0.34780577 -0.18908618 -0.3060053 0.0022894223 -0.1098266 -0.085173436 -0.108422026 -0.07282964
00000000: 2519 6ebe 72ff 12bc c4d6 1abe 9dea 41bd
00000010: 18d3 5bbb 94f7 a839 1713 96bc 3496 a3bd
00000020: 9913 b2be cf9f 41be baac 9cbe 220a 163b
00000030: c5ec e0bd 696f aebd 5e0c debd b527 95bd

conv1.lin.weight f4 [16, 128]
0.07587631 -0.14459673 -0.014434119 -0.061606884 0.17980954 0.05187429 -0.064663514 -0.01720767
-0.043614488 0.031974692 -0.11080195 0.08012888 -0.06842179 0.039198555 -0.09426005 -0.07354131
0.14012018 -0.030641684 0.12764616 -0.11047689 -0.107870586 -0.35166463 0.17185946 -0.06591288
-0.3157926 -0.07931608 0.16561712 0.03631807 0.081955574 0.20373231 -0.02588702 0.24642861
-0.17175744 0.09222818 -0.12390472 -0.06879863 -0.20537245 -0.04586551 -0.39732853 -0.33045268
-0.34686676 0.11005823 -0.022302253 -0.28801805 0.035502672 0.08947469 -0.007814184 0.0033383577
-0.12023861 0.051224228 0.27303535 0.13027474 0.14993262 -0.045784604 0.3289837 0.05565758
-0.3070371 0.50379044 0.093376525 0.024125518 -0.13481201 -0.14782813 -0.07117869 -0.25925565
0.0039059413 -0.009459296 -0.21689698 0.21898213 -0.057959024 -0.006355837 -0.15533137 0.06104092
-0.4638528 -0.08466927 -0.057649765 0.1313775 -0.041393735 -0.11526008 0.045986325 -0.030397838
-0.044214126 0.17115784 -0.08921595 0.00452914 -0.07362264 -0.030814528 -0.10355885 0.0075902734
-0.0052635344 -0.1609894 -0.25945696 -0.24209064 -0.14100268 -0.043119602 0.06608123 -0.21151966
0.032479685 -0.012117181 0.12186813 -0.17821577 -0.43364027 0.112707905 0.012354999 0.4790238
0.010817687 0.04617267 0.018326003 -0.028722733 -0.022657413 -0.24387936 0.14862579 0.17315555
-0.051181063 -0.09225403 -0.38479194 0.0053742947 0.04095973 -0.2700357 0.10014459 0.04128796
-0.09906043 -0.03291246 0.11752039 -0.019314762 -0.1345751 -0.016584147 0.14634474 0.0777418
-0.25799683 -0.20096602 -0.020947263 0.011313207 -0.17882371 -0.17202495 -0.06743948 -0.28661296
-0.039013132 0.26975843 0.27752212 0.16957599 -0.18184221 -0.12944731 -0.4294149 -0.19485688
-0.05290679 0.004223018 0.08733226 0.18409656 0.2181596 0.21098125 -0.1639929 0.19337499
0.10196382 0.022103162 0.089566685 0.10878045 0.10045769 0.11188478 0.045080014 0.059380244
0.16660681 -0.23796226 0.04973081 -0.0922744 -0.069457434 0.22720172 0.49036494 0.44554374
0.006621396 0.26390415 0.10503577 0.26040825 -0.0256414 0.0029632756 0.12349182 0.018316798
0.17247474 -0.12194531 -0.29271364 -0.14758167 -0.09839824 -0.19268109 -0.47005987 0.07596875
0.23638253 -0.5409204 0.06782035 0.12338665 -0.06619259 0.06236849 -0.20021096 0.2120332
0.112947404 0.023163527 -0.15114228 -0.21071042 0.22104178 -0.07479455 0.06449837 0.097446084
0.07595148 -0.36580363 0.06031499 0.15448149 0.18336633 0.056064654 -0.105531156 -0.08585831
0.18369806 -0.025023922 0.023129473 -0.02024183 -0.06531855 -0.03800129 0.059164304 0.018333185
0.15915729 0.18270539 -0.059360243 0.029636923 0.13356873 0.17035608 0.06554749 0.026921563
0.2678647 -0.0812182 -0.021064809 0.016470022 0.208424 -0.34912613 -0.027969334 -0.48706472
0.024738137 -0.06550522 0.10856651 -0.32851228 0.006571356 0.26312676 0.19693123 -0.030161355
0.00589062 0.15261158 -0.083010085 0.1360278 -0.023038436 0.2612431 -0.027461031 0.001509635
-0.006728458 -0.07004865 -0.14213297 0.13215332 0.071477816 0.0022028345 -0.17015316 -0.13719074
00000000: 0a65 9b3d 2a11 14be 157d 6cbc 8057 7cbd
00000010: fe1f 383e 237a 543d 4e6e 84bd 19f7 8cbc
00000020: 1ba5 32bd e5f7 023d 22ec e2bd 9c1a a43d
00000030: b920 8cbd aa8e 203d 6a0b c1bd d49c 96bd
00000040: aa7b 0f3e 4504 fbbc adb5 023e b541 e2bd
00000050: 41eb dcbd 630d b4be edfb 2f3e 55fd 86bd
00000060: 91af a1be 7870 a2bd 8997 293e 42c2 143d
00000070: 53d8 a73d 349f 503e 0411 d4bc c857 7c3e
00000080: 2fe1 2fbe 21e2 bc3d c2c1 fdbd 4ce6 8cbd
00000090: 284d 52be 79dd 3bbd a56e cbbe 1831 a9be
000000a0: 8598 b1be 3666 e13d 37b3 b6bc 1a77 93be
000000b0: 406b 113d 823e b73d 1007 00bc 59c8 5a3b
000000c0: a93f f6bd 7fd0 513d 4acb 8b3e be66 053e
000000d0: f087 193e a388 3bbd 8d70 a83e 34f9 633d
000000e0: f733 9dbe 69f8 003f 313c bf3d e1a2 c53c
000000f0: 290c 0abe 4260 17be 22c6 91bd 28bd 84be
00000100: d2fa 7f3b 2afb 1abc 3e1a 5ebe da3c 603e
00000110: 7166 6dbd a044 d0bb 300f 1fbe 0b06 7a3d
00000120: 1d7e edbe 1567 adbd 2922 6cbd d387 063e
00000130: 7a8c 29bd 7a0d ecbd 285c 3c3d e304 f9bc
00000140: df19 35bd 0044 2f3e dab6 b6bd 2e69 943b
00000150: 77c7 96bd c06e fcbc aa16 d4bd d4b7 f83b
00000160: ba79 acbb 68da 24be 8bd7 84be 9ce6 77be
00000170: 0263 10be 2e9e 30bd 9955 873d 9c98 58be
00000180: 6b09 053d 2487 46bc 0096 f93d 327e 36be
00000190: 1906 debe 67d3 e63d 9f6c 4a3c 9c42 f53e
000001a0: ab3c 313c 8e1f 3d3d 6a20 963c f04b ebbc
000001b0: 0a9c b9bc 83bb 79be 5c31 183e b04f 313e
000001c0: 3ca3 51bd aeef bcbd 7303 c5be da1a b03b
000001d0: 64c5 273d 1f42 8abe 9b18 cd3d 901d 293d
000001e0: 32e0 cabd 37cf 06bd 88ae f03d fe39 9ebc
000001f0: 0ece 09be 7adb 87bc 65db 153e 1837 9f3d
00000200: 2918 84be 09ca 4dbe 9899 abbc 085b 393c
00000210: 901d 37be 4f27 30be b61d 8abd efbe 92be
00000220: 3ccc 1fbd c71d 8a3e 6117 8e3e 54a5 2d3e
00000230: d834 3abe d68d 04be 45dc dbbe 9088 47be
00000240: cab4 58bd 3e61 8a3b 42db b23d cf83 3c3e
00000250: 3b65 5f3e 780b 583e c1ed 27be 1804 463e
00000260: 68d2 d03d b111 b53c bd6e b73d 49c8 de3d
00000270: c3bc cd3d d923 e53d d2a5 383d b338 733d
00000280: fa9a 2a3e 61ac 73be 89b2 4b3d 5cfa bcbd
00000290: b33f 8ebd 91a7 683e 1d11 fb3e 4f1e e43e
000002a0: 4cf8 d83b 721e 873e fe1c d73d 3b54 853e
000002b0: ea0d d2bc 8433 423b 48e9 fc3d 1c0d 963c
000002c0: 389d 303e 76be f9bd 90de 95be a61f 17be
000002d0: 0485 c9bd 314e 45be b0ab f0be 8195 9b3d
000002e0: 430e 723e c279 0abf 65e5 8a3d 24b2 fc3d
000002f0: fb8f 87bd 1a76 7f3d 1a04 4dbe 3b1f 593e
00000300: f850 e73d 70c1 bd3c 0bc5 1abe 79c4 57be
00000310: c758 623e e32d 99bd b917 843d d091 c73d
00000320: 738c 9b3d 9d4a bbbe da0c 773d 6530 1e3e
00000330: 62c4 3b3e 0da4 653d b820 d8bd 7bd6 afbd
00000340: 581b 3c3e f8fe ccbc 057a bd3c 32d2 a5bc
00000350: bbc5 85bd 3ea7 1bbd 4556 723d 7a2f 963c
00000360: 21fa 223e 1f17 3b3e ba23 73bd 22c9 f23c
00000370: 3ec6 083e d371 2e3e c33d 863d 9c8a dc3c
00000380: 9025 893e ba55 a6bd 1b90 acbc 24ec 863c
00000390: 1a6d 553e a9c0 b2be f21f e5bc 8c60 f9be
000003a0: a2a7 ca3c 9a27 86bd 1e58 de3d c332 a8be
000003b0: 8854 d73b 8db8 863e 57a8 493e f214 f7bc
000003c0: 1a06 c13b 3646 1c3e 3101 aabd df4a 0b3e
000003d0: 1abb bcbc a8c1 853e f5f5 e0bc f2de c53a
000003e0: 667a dcbb ab75 8fbd 4e8b 11be 3353 073e
000003f0: f662 923d 6e5d 103b a13c 2ebe bb7b 0cbe

conv2.bias f4 [16]
0.29107773 0.2400985 0.21993609 0.2097086 0.18511127 0.0670521 0.17608456 0.15587738
0.106720164 0.19185302 0.17121844 0.08444656 0.1495297 0.21303836 0.19328244 0.22592074
00000000: 2408 953e 62dc 753e ed36 613e dabd 563e
00000010: cf8d 3d3e 9d52 893d 834f 343e 529e 1f3e
00000020: 1a90 da3d 1e75 443e e353 2f3e 51f2 ac3d
00000030: 501e 193e ba26 5a3e d5eb 453e c457 673e

conv2.lin.weight f4 [16, 16]
-0.6056092 0.5349901 0.30140966 -0.15122212 0.40652525 0.5611833 -0.6580541 -0.039407834
-0.21568257 -0.06631531 0.043842815 0.063599944 0.35002202 0.17589726 -0.27603182 -0.34826532
-0.32173023 0.12314028 0.26961985 0.019621821 -0.00976398 0.4013995 -0.46569934 0.33650717
0.03790319 -0.32369795 -0.47194293 -0.31017777 0.3346896 0.54483455 -0.074458584 -0.11665582
0.05764975 -0.19938137 -0.53330916 -0.5501114 0.1532147 0.46974927 -0.3686593 -0.038236525
0.32134074 -0.010281871 0.17810303 0.40650392 -0.022907473 0.15785226 -0.49288052 0.054166015
-0.62824625 0.03286449 -0.49282414 -0.5060739 -0.04839884 0.3382648 -0.24266252 0.05308966
0.27585614 0.4808945 0.26864445 0.5312666 -0.34707043 0.070402265 -0.4909051 0.067880265
0.41365868 -0.4744607 -0.23143613 -0.09403357 -0.55505 0.09717587 -0.15629579 0.25685924
0.8430305 0.18916391 0.0005363116 0.09072375 -0.41602522 0.37521607 0.08310328 0.6538205
0.08718147 -0.030996803 0.444503 0.7148529 -0.028153608 -0.21794327 0.17129566 0.06538747
-0.28454754 -0.014922691 -0.25808144 -0.19361044 0.31855738 0.2568915 0.51824677 0.035353914
0.08164461 0.0029047725 -0.13716057 0.035317436 0.08213396 -0.35437912 0.21124929 -0.939713
-0.009710471 0.74096406 0.5553281 0.49022642 -0.037604723 -0.4786524 0.22232142 -0.033170633
0.18999486 0.14854135 -0.2509139 -0.37535366 0.34141517 -0.08893028 0.050129518 -0.8306542
-0.07463467 0.630174 0.46035966 0.4162081 0.0134805525 -0.5696085 -0.17659158 -0.32245675
0.15092106 -0.5810389 0.40430468 0.51615053 -0.2545287 -0.2534852 0.25405386 -0.46659413
0.044424403 0.34167966 0.07127827 0.02423631 -0.06196947 0.027416788 0.39754978 0.025522782
0.351635 -0.48559663 -0.2792903 -0.19371979 -0.57534534 0.11247934 0.083511196 0.21421497
0.9352253 0.20721795 -0.059309185 0.12991033 -0.42308086 0.40119922 0.12938082 0.6442927
0.50419873 -0.33657566 -0.0321223 0.1816302 -0.25983885 -0.5274639 0.23114249 -0.28747356
0.35398355 0.19052409 0.13880034 0.043898154 -0.20827536 0.041200608 0.4492111 0.22427785
-0.23251474 0.12375859 0.26053277 0.35041815 0.01079887 0.37719494 -0.1358511 0.34773642
0.13196176 -0.44604602 -0.47843233 -0.09597128 0.35883817 0.65807694 -0.09272976 -0.3112877
0.4658636 -0.029739406 -0.028936751 -0.0004921133 0.10925556 -0.34901604 0.44116485 -0.8048197
0.08999709 0.7343667 0.55288184 0.48660907 -0.10790966 -0.5009483 0.07614206 -0.0919265
-0.42397672 0.53881186 0.3299208 -0.01226902 0.68829495 -0.058885228 -0.31813514 -0.27955455
-0.21243423 -0.04852058 0.48947698 0.012530775 0.55425566 -0.29801562 -0.18495356 -0.6517344
0.21990044 -0.36179197 -0.35851768 -0.21209806 -0.3901189 0.10242742 0.46792462 0.09175977
0.796433 0.08990113 -0.07663182 0.121945284 -0.28662083 0.29860625 0.50515455 0.41594315
-0.34351575 -0.06460887 -0.49317878 -0.68548423 -0.07490859 0.4867934 0.02400457 0.05995822
0.36526254 0.34539953 0.2802753 0.51179457 -0.38641793 0.12934321 -0.42394394 0.025333248
00000000: 3409 1bbf 1cf5 083f 5e52 9a3e f9d9 1abe
00000010: 1424 d03e b5a9 0f3f 3c76 28bf 1c6a 21bd
00000020: e4db 5cbe 52d0 87bd 8694 333d b040 823d
00000030: 1636 b33e 691e 343e 0b54 8dbe d54f b2be
00000040: d3b9 a4be f930 fc3d 9d0b 8a3e f1bd a03c
00000050: 1af9 1fbc 3c84 cd3e 2570 eebe ab4a ac3e
00000060: 6040 1b3d bdbb a5be 81a2 f1be 9fcf 9ebe
00000070: 6f5c ab3e 477a 0b3f be7d 98bd 3fe9 eebd
00000080: 2522 6c3d a12a 4cbe f386 08bf 1ad4 0cbf
00000090: 50e4 1c3e fa82 f03e e9c0 bcbe e79d 1cbd
000000a0: c686 a43e 4b75 28bc a460 363e 4821 d03e
000000b0: 74a8 bbbc 06a4 213e d65a fcbe 2fdd 5d3d
000000c0: bfd4 20bf ea9c 063d 7253 fcbe 0f8e 01bf
000000d0: dd3d 46bd 0b31 ad3e 867c 78be 8b74 593d
000000e0: 043d 8d3e ce37 f63e c48b 893e 1701 083f
000000f0: 37b3 b1be 102f 903d ea57 fbbe cf04 8b3d
00000100: 12cb d33e 83ec f2be 98fd 6cbe ac94 c0bd
00000110: c217 0ebf 2404 c73d 010c 20be 0e83 833e
00000120: d9d0 573f 2fb4 413e 4397 0c3a 60cd b93d
00000130: 4201 d5be 521c c03e 0d32 aa3d c860 273f
00000140: 338c b23d 02ed fdbc e695 e33e 9a00 373f
00000150: 65a2 e6bc 852c 5fbe 2168 2f3e dee9 853d
00000160: 37b0 91be 4d7e 74bc 4023 84be d141 46be
00000170: f419 a33e 4887 833e d2ab 043f 44cf 103d
00000180: 4a35 a73d ff5d 3e3b d273 0cbe 04a9 103d
00000190: da35 a83d 2e71 b5be bc51 583e 0891 70bf
000001a0: ab18 1fbc d2af 3d3f fb29 0e3f f5fe fa3e
000001b0: 6907 1abd ed11 f5be 3aa8 633e eedd 07bd
000001c0: 038e 423e 391b 183e c977 80be 5b2e c0be
000001d0: f8cd ae3e 1421 b6bd 9c54 4d3d c1a5 54bf
000001e0: 10da 98bd 1553 213f 43b4 eb3e 3a19 d53e
000001f0: 89dd 5c3c ddd1 11bf 6cd4 34be 0d19 a5be
00000200: 0d8b 1a3e f7be 14bf 0601 cf3e 7122 043f
00000210: 9651 82be d0c8 81be 5913 823e 6de5 eebe
00000220: 5df6 353d a3f0 ae3e 57fa 913d 3a8b c63c
00000230: b3d3 7dbd 2c99 e03c a58b cb3e 2715 d13c
00000240: 8109 b43e 1fa0 f8be 23ff 8ebe 7b5e 46be
00000250: d549 13bf 915b e63d eb07 ab3d 2b5b 5b3e
00000260: ed6a 6f3f f130 543e 30ee 72bd 3707 053e
00000270: 0e9e d8be fc69 cd3e 687c 043e 5ef0 243f
00000280: 2b13 013f a553 acbe ac92 03bd 44fd 393e
00000290: 9909 85be e007 07bf 9eb0 6c3e bc2f 93be
000002a0: 553d b53e bf18 433e ad21 0e3e 8dce 333d
000002b0: 2346 55be f8c1 283d fffe e53e 18a9 653e
000002c0: 5818 6ebe 2575 fd3d 8d64 853e 026a b33e
000002d0: beed 303c b21f c13e 8d1c 0bbe 820a b23e
000002e0: fc20 073e 2560 e4be 15f5 f4be 978c c4bd
000002f0: a3b9 b73e bb77 283f 1ae9 bdbd 1a61 9fbe
00000300: ac85 ee3e 0ea0 f3bc c40c edbc 2a01 01ba
00000310: 61c1 df3d 3bb2 b2be 5ce0 e13e aa08 4ebf
00000320: 6550 b83d 75ff 3b3f aa89 0d3f d324 f93e
00000330: bdff dcbd 263e 00bf 5ef0 9b3d f643 bcbd
00000340: 7a13 d9be 93ef 093f 61eb a83e 0004 49bc
00000350: 1934 303f a331 71bd 9ce2 a2be c621 8fbe
00000360: 5c88 59be 84bd 46bd ba9c fa3e e14d 4d3c
00000370: b3e3 0d3f 8195 98be 7764 3dbe 11d8 26bf
00000380: 952d 613e cc3c b9be a18f b7be 3c30 59be
00000390: aabd c7be 78c5 d13d d193 ef3e 8cec bb3d
000003a0: 08e3 4b3f 151e b83d 25f1 9cbd 73be f93d
000003b0: f7bf 92be ebe2 983e cf51 013f 80f6 d43e
000003c0: 4ce1 afbe a851 84bd ee81 fcbe e57b 2fbf
000003d0: ad69 99bd fc3c f93e 3ba5 c43c c096 753d
000003e0: b103 bb3e 35d8 b03e 3e80 8f3e f804 033f
000003f0: 92d8 c5be 8c72 043e 2e0f d9be ac87 cf3c

conv3.bias f4 [4]
-0.2991625 -0.0954226 0.13705626 0.61678314
00000000: d42b 99be ed6c c3bd 7a58 0c3e 80e5 1d3f

conv3.lin.weight f4 [4, 16]
0.22146712 0.42036697 0.27767035 0.6300847 0.65304184 -0.3105222 -0.74869704 -1.0066943
-0.35208774 0.500344 -0.09194435 0.21191752 -0.3635158 -0.56688523 0.48665795 0.7210198
-0.9756092 -0.33582824 -0.4494934 -0.23892663 0.5998495 0.29115295 0.5288708 0.18370786
0.69278234 0.48381278 0.47117764 -0.17918493 0.55663663 -0.27281615 0.5247681 0.053868916
0.6134906 -0.5545266 0.20962498 0.56984067 -0.8599669 -0.59002703 0.6386929 0.79162526
-0.50039095 -0.8925948 -0.54871035 -0.49129832 0.5824841 0.5981931 -0.3980543 0.46189573
0.85363585 0.77192855 -0.73138446 -0.7371509 -0.78178006 0.4480641 -0.48212 -0.2671085
0.03226082 -0.93818545 -0.8701663 0.6418043 -0.4434784 0.6957288 -0.7703116 -0.73047674
00000000: 47c8 623e 573a d73e cf2a 8e3e 3b4d 213f
00000010: c02d 273f c4fc 9ebe 9caa 3fbf 5cdb 80bf
00000020: d844 b4be 8b16 003f 524d bcbd e800 593e
00000030: be1e babe 641f 11bf 3b2b f93e c194 383f
00000040: 86c1 79bf aef1 abbe 0024 e6be 2fa9 74be
00000050: bd8f 193f 0012 953e 1464 073f ea1d 3c3e
00000060: 2f5a 313f 4fb6 f73e 323e f13e 417c 37be
00000070: bd7f 0e3f 8fae 8bbe 3457 063f a7a5 5c3d
00000080: b80d 1d3f 75f5 0dbf eea7 563e 14e1 113f
00000090: ca26 5cbf 030c 17bf 6181 233f f4a7 4a3f
000000a0: 9f19 00bf 1881 64bf 4878 0cbf 748b fbbe
000000b0: ae1d 153f 2f23 193f c6cd cbbe 997d ec3e
000000c0: e187 5a3f 1c9d 453f 033c 3bbf ecb5 3cbf
000000d0: bd22 48bf a868 e53e 6fd8 f6be 72c2 88be
000000e0: ec23 043d ec2c 70bf 38c3 5ebf 494d 243f
000000f0: 9a0f e3be 481b 323f 2433 45bf 8600 3bbf
