models/facebook100_gcn_model.pth (torch, 60308 bytes, 6 tensors)

conv1.bias f4 [16]
0.115451194 0.14220516 0.23848762 -0.057278343 0.12501323 0.10848502 -0.036350783 -0.027843855
-0.07980477 -0.058253434 -0.037976474 0.18488896 -0.04887918 0.057142474 -0.008793848 -0.030811794
00000000: ad71 ec3d 3b9e 113e 1936 743e b29c 6abd
00000010: 7803 003e 652d de3d 8fe4 14bd cc18 e4bc
00000020: af70 a3bd 279b 6ebd 388d 1bbd 8853 3d3e
00000030: 8935 48bd 3a0e 6a3d 1214 10bc 0469 fcbc

conv1.lin.weight f4 [16, 873]
0.09962572 0.18237367 -0.32895312 0.019247454 0.025752036 -0.029047824 -0.009833524 -0.06530235
0.1486083 0.02645797 0.097072996 0.13878995 -0.05143356 0.13712965 -0.14010476 0.028952157
-0.06550201 -0.05956418 0.019639838 0.0019901088 0.06327718 0.07137494 -0.00017078337 -0.06138917
0.057708617 -0.0074798516 -0.27195737 -0.04234564 0.110007 0.099950224 0.013633524 -0.0061537363
0.021227939 0.0060781506 -0.12158276 0.27229008 0.034665346 0.019312195 0.07415911 -0.052380458
0.06024463 0.01530691 -0.011979462 0.007280612 -0.0035271905 0.2283218 -0.048262563 0.039528623
0.032153085 0.014505281 0.17552105 0.12216173 -0.057071485 0.16490258 -0.010703157 -0.084479116
-0.13345218 0.052169546 0.0043102666 0.055839907 0.006628128 0.044710297 0.0034185143 0.026464466
0.07196831 -0.029351806 0.043462373 -0.00213156 0.008545034 0.09825687 -0.020178724 -0.00979245
0.10210859 -0.0030754565 0.083111085 0.07304691 -0.054188218 0.057056013 0.081869945 0.020027699
-0.006869577 0.021201639 0.06097553 -0.1496794 0.027593141 -0.05248796 0.044141248 -0.00042799732
0.0018505494 -0.01962803 0.07877444 0.18341962 0.002345445 -0.005497024 0.010891315 0.0016192411
0.06850664 0.23660858 0.12648433 0.03202377 -0.011241724 -0.04939117 0.074824914 -0.0069327336
-0.0059232223 -0.0055010747 -0.19458568 -0.07811279 0.19844393 -0.005147338 -0.018287687 -0.064918876
-0.084428236 0.14280677 0.1359141 -0.09733138 0.2024354 0.27640697 -0.11124526 0.34888682
0.11332272 0.058055516 0.016096568 -0.10909896 0.028513525 -0.10587923 -0.09667198 -0.07412761
-0.4604648 -0.4258385 0.042508606 0.2489591 0.26122808 0.31713355 0.022637097 0.01568558
-0.010258934 0.0083716335 0.0015075121 0.009323802 -0.049733195 0.0012887191 0.010340087 0.012201944
0.00372359 -0.0045265257 0.0109102065 -0.023090309 -0.0021314458 -0.002864349 0.008399791 -0.0086616315
-0.00097617554 -0.0011570095 -0.0077327625 -0.0099525545 -0.01292291 -0.033276666 0.0029904067 0.0010143036
-0.002889932 -0.009288511 0.003116266 0.003192176 0.0029400343 0.00034274271 -0.0049094195 0.014761476
-0.0010751678 0.013072914 -0.011314503 0.0018614661 0.0072264913 0.0019940338 0.010536833 -0.008982061
-0.016883021 -0.026770916 -0.0022688962 0.0056458195 0.0010123122 -0.025259603 -0.0066417204 0.019357638
0.00101906 -0.0018063553 0.03405246 0.0031186147 0.01246657 0.0020777914 0.011650827 -0.014487932
-0.003752718 0.0064946064 0.00036792376 0.011109519 -0.004184757 -0.0005361729 -0.0038522677 0.0033415367
-0.029077353 -0.0098383855 0.019759638 -0.00029165135 0.0018205122 0.0017546648 -0.009541144 -0.012377666
-0.0062930216 -0.0047153216 -0.007341402 -0.004226365 0.009806606 -0.0057882136 0.036947113 0.0020537754
-0.023912076 0.03424639 0.0036822977 0.0013230613 0.008387303 -0.006659141 0.008332823 -0.00017593656
0.006423165 0.0021890954 0.011746754 0.0041376166 -0.0054401713 -0.020242618 -0.007126847 0.0064340355
0.007108443 -0.005241889 -0.011145113 -0.025327422 -0.059392158 0.0021411614 -0.014884527 -0.026238069
0.0021809014 0.010993125 0.006829917 -0.0021770871 -0.00161067 -0.00021021656 0.0016750225 -0.011418256
0.004252981 -0.0005872258 -0.023971759 0.0047885207 0.0020485916 -0.013557466 -0.026362328 -0.006231204
00000000: 9208 cc3d 2ac0 3a3e 8b6c a8be d6ac 9d3c
00000010: eff5 d23c b4f5 edbc ca1c 21bc 3dbd 85bd
00000020: c62c 183e 62be d83c 35ce c63d f41e 0e3e
00000030: ffab 52bd b76b 0c3e 9f77 0fbe 132d ed3c
00000040: eb25 86bd 92f9 73bd bae3 a03c 7c6c 023b
00000050: 7797 813d 062d 923d 5014 33b9 3673 7bbd
00000060: df5f 6c3d 8b19 f5bb ff3d 8bbe 9f72 2dbd
00000070: 5a4b e13d b4b2 cc3d 255f 5f3c 48a5 c9bb
00000080: 37e6 ad3c 392b c73b 6200 f9bd 9b69 8b3e
00000090: 40fd 0d3d 9c34 9e3c bbe0 973d e48c 56bd
000000a0: 13c3 763d d5c9 7a3c 8145 44bc 3392 ee3b
000000b0: 7028 67bb 31cd 693e f7ae 45bd c4e8 213d
000000c0: f4b2 033d 8fa7 6d3c cabb 333e ee2f fa3d
000000d0: cac3 69bd 39dc 283e 4b5c 2fbc 6303 adbd
000000e0: b0a7 08be bcaf 553d 233d 8d3b 63b8 643d
000000f0: c430 d93b 2522 373d 2709 603b 02cc d83c
00000100: 1f64 933d 3373 f0bc 9a05 323d a4b1 0bbb
00000110: 7800 0c3c e63a c93d da4d a5bc 8370 20bc
00000120: 4f1e d13d 998d 49bb 2536 aa3d 9e99 953d
00000130: 77f4 5dbd 91b3 693d 6eab a73d 2111 a43c
00000140: 301a e1bb 0faf ad3c 7ac1 793d 8e45 19be
00000150: 030b e23c 9dfd 56bd 74cd 343d d464 e0b9
00000160: 228e f23a f6ca a0bc 7e54 a13d 5ad2 3b3e
00000170: 0ab6 193b 6120 b4bb 7c71 323c b73c d43a
00000180: 364d 8c3d 8549 723e 1c85 013e 5b2b 033d
00000190: 352f 38bc 654e 4abd ce3d 993d fc2b e3bb
000001a0: 9717 c2bb 5c42 b4bb 7841 47be 99f9 9fbd
000001b0: e334 4b3e 00ab a8bb 0fd0 95bc 30f4 84bd
000001c0: b6e8 acbd f03b 123e 112d 0b3e ad55 c7bd
000001d0: 3a4b 4f3e 3785 8d3e 8ed4 e3bd 4ba1 b23e
000001e0: be15 e83d 9fcb 6d3d f3dc 833c 476f dfbd
000001f0: 3295 e93c 36d7 d8bd f6fb c5bd 37d0 97bd
00000200: 0bc2 ebbe 8107 dabe 811d 2e3d 22ef 7e3e
00000210: b0bf 853e 545f a23e 6f71 b93c 0c7f 803c
00000220: 1715 28bc 2d29 093c b697 c53a dcc2 183c
00000230: 09b5 4bbd 3dea a83a 7869 293c aaea 473c
00000240: 7907 743b 4053 94bb b9c0 323c e327 bdbc
00000250: baaf 0bbb cdb7 3bbb 479f 093c 84e9 0dbc
00000260: 08e6 7fba cca6 97ba 1d63 fdbb 0a10 23bc
00000270: 9dba 53bc 1d4d 08bd b3fa 433b 62f2 843a
00000280: 0365 3dbb d72e 18bc 453a 4c3b d433 513b
00000290: 97ad 403b 26b2 b339 32df a0bb 1eda 713c
000002a0: a5ec 8cba c72f 563c 7760 39bc 70fc f33a
000002b0: 34cc ec3b 56ae 023b aea2 2c3c 7f29 13bc
000002c0: 434e 8abc ae4e dbbc c3b1 14bb 9100 b93b
000002d0: 90af 843a 3aed cebc caa2 d9bb e993 9e3c
000002e0: fb91 853a 3ac3 ecba 987a 0b3d ac61 4c3b
000002f0: 9640 4c3c 8e2b 083b 1ce3 3e3c cb5e 6dbc
00000300: 29f0 75bb b5d0 d43b e4e5 c039 b304 363c
00000310: 4920 89bb f48d 0cba 5476 7cbb affd 5a3b
00000320: a133 eebc 2e31 21bc f7de a13c c8e8 98b9
00000330: 419e ee3a c8fc e53a 7552 1cbc b2cb 4abc
00000340: b135 cebb fc82 9abb 2590 f0bb 527d 8abb
00000350: e3ab 203c 0eab bdbb db55 173d a298 063b
00000360: 42e3 c3bc f145 0c3d b452 713b 926a ad3a
00000370: e66a 093c ec34 dabb 6586 083c 9c7b 38b9
00000380: 6a79 d23b ed76 0f3b 7575 403c d894 873b
00000390: 7743 b2bb d9d3 a5bc 5388 e9bb 9ad4 d23b
000003a0: f1ed e83b 27c4 abbb fe99 36bc 747b cfbc
000003b0: 3145 73bd ba52 0c3b 3bde 73bc 38f1 d6bc
000003c0: 74ed 0e3b 821c 343c 7fcd df3b 76ad 0ebb
000003d0: 1e1d d3ba 946d 5cb9 6e8c db3a a313 3bbc
000003e0: 975c 8b3b 0ef0 19ba 6c60 c4bc 06e9 9c3b
000003f0: aa41 063b 2220 5ebc cff5 d7bc 212f ccbb

conv2.bias f4 [16]
0.23063092 0.2574381 -0.054896552 0.16563578 0.20253713 0.17553976 0.17213278 0.21325268
0.20885395 0.05952648 0.17759608 -0.16770063 0.0910672 0.16826703 -0.058303572 -0.17631865
00000000: 832a 6c3e edce 833e 35db 60bd 6d9c 293e
00000010: e565 4f3e b2c0 333e 9343 303e e95e 5a3e
00000020: cfdd 553e 0ad2 733d bfdb 353e b7b9 2bbe
00000030: 7181 ba3d 314e 2c3e bacf 6ebd e08c 34be

conv2.lin.weight f4 [16, 16]
-0.107261315 0.36038372 0.35169396 4.9838436e-06 0.1141666 0.20745023 1.1912109e-05 1.6941118e-05
-1.292037e-05 0.029281538 -9.13722e-06 0.45250797 -3.134463e-06 -0.10108076 -0.51674426 -0.06415952
0.2159412 0.36295694 0.9890192 -1.8382373e-06 -0.106991075 -0.43152073 1.2812852e-05 -4.1049952e-06
-0.0047302432 0.118113466 -3.1351992e-06 0.13937739 3.371183e-06 -0.07435429 -0.7409993 -0.07276447
0.0029446278 -3.990088e-05 -6.2084487e-06 1.0247578e-05 9.180024e-05 -2.0410285e-05 1.1236877e-05 1.6518366e-05
0.0020014723 3.1681961e-06 7.942198e-06 -1.7130686e-05 -1.4681288e-05 2.0501966e-06 -1.7369888e-05 2.3957053e-05
0.30236757 -0.011251568 -0.0067769354 -7.1479926e-06 0.09914886 0.45176712 8.776561e-06 9.770663e-07
0.009368594 0.21930963 4.1473436e-07 0.7245065 0.053674042 -0.1290111 -0.46970087 0.05183109
0.05484701 0.31949583 0.8566834 0.006932321 0.20024866 -0.2565419 -0.035432886 -2.3317345e-06
0.31452262 0.12896456 0.008917676 -0.004903266 0.005160645 -0.040718034 -0.753989 0.17829862
0.36038956 0.42033127 0.59306306 -0.030377796 0.42632884 -0.4882914 -0.0020663377 -5.056135e-06
0.025640102 0.028086282 0.00039154617 0.19340229 0.07158068 -0.11338143 -0.7273779 0.24637176
0.45023236 0.02501482 0.8993692 1.1328759e-05 0.470994 -0.26965743 1.4963133e-05 -1.6231994e-05
5.053333e-05 -0.075832464 -5.8333007e-06 -0.17606969 1.0488007e-05 -0.12183773 -0.56558365 0.0434712
0.48525736 0.31698266 0.2756911 0.00010999839 0.35923904 0.3723204 -1.0371435e-06 -1.1219844e-05
0.009769887 -0.17528911 -3.767345e-06 0.55384225 -0.017778551 -0.122240394 0.13922897 -0.04177046
0.17838515 0.20469801 0.504202 -1.6272419e-05 0.15448101 0.3360231 9.018299e-06 5.9798726e-06
-2.4859271e-05 -0.14015567 4.061727e-06 0.5348982 2.327435e-06 -0.16310012 -0.2854278 0.044168048
-0.15405126 -0.18991737 -0.5628187 -5.550922e-06 -0.19669923 0.7009761 0.005165205 7.1452964e-06
-0.04707881 -0.0016018269 0.0023148204 0.039015684 0.0014953822 0.0774135 1.2020959 -0.0023097578
0.37958372 0.023457995 0.34713972 5.633935e-06 0.37900987 -0.3644171 -1.9605238e-07 -8.315961e-06
-1.0654962e-05 -0.1095593 -1.0455769e-06 0.1947798 -8.409553e-06 -0.093434475 -0.595781 -0.041997615
0.08598665 -0.105948515 0.09949539 0.025471667 -0.1967295 -0.05689362 -0.014936363 2.5676316e-05
0.122983664 -0.27845964 5.3937347e-05 -0.06222025 -0.016522165 7.931276e-06 0.0011079835 -0.41963676
-0.32616934 -0.50991744 -0.56719154 -2.6527805e-06 -0.18897764 0.7815681 -8.24277e-05 -5.5071305e-06
-6.5940934e-05 0.00010628845 6.2095573e-06 0.25490388 -2.7765884e-06 0.0556302 1.1111665 0.00014138714
0.4558591 0.2575408 0.5803621 -1.1184919e-05 -0.05654432 -0.3715289 0.0016348191 -2.9569642e-06
-0.05747155 0.38788745 -6.2500985e-06 0.23342374 -0.022939479 -0.076425 -0.61436063 0.120219186
-0.16162416 0.013577137 1.1612731e-05 0.0056561683 -3.9179595e-05 8.352115e-06 -0.0016328092 5.7101756e-06
0.145381 0.00082648307 -4.843894e-07 3.5764402e-05 -0.009249815 -6.108882e-06 3.3071006e-05 -0.04050309
-0.10398849 -0.053870812 -5.451036e-05 1.5681999e-05 0.122669436 -0.08773503 -1.659461e-05 -1.0031766e-05
-2.936086e-07 -0.044677697 3.9964902e-07 -0.09765778 -1.560501e-05 1.138933e-05 3.054095e-06 -0.15004174
00000000: d2ab dbbd 3784 b83e 3b11 b43e e43a a736
00000010: 2ed0 e93d d56d 543e 1eda 4737 c61c 8e37
00000020: 91c4 58b7 d6df ef3c 104c 19b7 20af e73e
00000030: aa59 52b6 6e03 cfbd 5a49 04bf 1166 83bd
00000040: b11f 5d3e 7ed5 b93e 5d30 7d3f 5ab9 f6b5
00000050: 231e dbbd 49f0 dcbe c8f6 5637 a4bd 89b6
00000060: 2800 9bbb 79e5 f13d 5066 52b6 f2b8 0e3e
00000070: 7c3c 6236 1047 98bd 21b2 3dbf 8a05 95bd
00000080: a8fa 403b 3e5b 27b8 2b52 d0b6 03ed 2b37
00000090: e184 c038 c136 abb7 0586 3c37 ec90 8a37
000000a0: 222b 033b 329d 5436 7b3f 0537 deb3 8fb7
000000b0: a74f 76b7 1c96 0936 8db5 91b7 61f7 c837
000000c0: eccf 9a3e 7f58 38bc 0e11 debb cad8 efb6
000000d0: 8f0e cb3d 054e e73e 0b3f 1337 be23 8335
000000e0: bb7e 193c b492 603e a8a8 de34 4279 393f
000000f0: 50d9 5b3d 7c1b 04be a27c f0be d64c 543d
00000100: 42a7 603d f594 a33e 9a4f 5b3f 8628 e33b
00000110: fc0d 4d3e 7659 83be 1322 11bd e57a 1cb6
00000120: 1c09 a13e 490f 043e 721b 123c 94ab a0bb
00000130: a11a a93b f4c7 26bd 6c05 41bf ea93 363e
00000140: fb84 b83e a935 d73e fbd2 173f dbda f8bc
00000150: c647 da3e 5501 fabe 656b 07bb dea7 a9b6
00000160: 310b d23c 3415 e63c 7048 cd39 400b 463e
00000170: e498 923d 8634 e8bd 7035 3abf e148 7c3e
00000180: db84 e63e e1eb cc3c 0f3d 663f a610 3e37
00000190: 2026 f13e 8a10 8abe 2b0a 7b37 f129 88b7
000001a0: c0f3 5338 0d4e 9bbd acbb c3b6 9d4b 34be
000001b0: a6f5 2f37 0f86 f9bd 17ca 10bf db0e 323d
000001c0: a773 f83e 8d4b a23e 6227 8d3e f0ae e638
000001d0: 2eee b73e c8a0 be3e fb33 8bb5 dd3c 3cb7
000001e0: e011 203c fd7e 33be 7fd2 7cb6 9bc8 0d3f
000001f0: 53a4 91bc 2c59 fabd 0a92 0e3e 8017 2bbd
00000200: 99aa 363e 5b9c 513e 6213 013f c180 88b7
00000210: 4530 1e3e 380b ac3e 4d4d 1737 b7a6 c836
00000220: e188 d0b7 f884 0fbe f849 8836 17ef 083f
00000230: 0731 1c36 b803 27be 9823 92be 8ee9 343d
00000240: 9dbf 1dbe b379 42be e314 10bf 0f42 bab6
00000250: 866b 49be 2b73 333f e140 a93b a1c1 ef36
00000260: b6d5 40bd 64f4 d1ba 3eb4 173b e9ce 1f3d
00000270: b300 c43a f88a 9e3d 47de 993f 4e5f 17bb
00000280: cc58 c23e fb2a c03c 4cbc b13e 220b bd36
00000290: 950d c23e e194 babe 7882 52b4 c884 0bb7
000002a0: b7c2 32b7 a060 e0bd c055 8cb5 5b74 473e
000002b0: c116 0db7 935a bfbd 1b85 18bf b105 2cbd
000002c0: c519 b03d 89fb d8bd 3dc4 cb3d f5a9 d03c
000002d0: 7573 49be 4909 69bd a6b7 74bc 7863 d737
000002e0: dcde fb3d 4392 8ebe c93a 6238 a9da 7ebd
000002f0: 7e59 87bc 9210 0537 c239 913a a1da d6be
00000300: abff a6be f389 02bf 7733 11bf 6c06 32b6
00000310: 5b83 41be d914 483f 09dd acb8 e4c9 b8b6
00000320: c549 8ab8 2de7 de38 b15b d036 c382 823e
00000330: 6d55 3ab6 7edc 633d b43a 8e3f 5241 1439
00000340: 5d66 e93e 63dc 833e 9c92 143f dca6 3bb7
00000350: 049b 67bd 0939 bebe 6d47 d63a 4270 46b6
00000360: 4a67 6bbd 2f99 c63e f0b7 d1b6 a206 6f3e
00000370: 93eb bbbc b684 9cbd bd46 1dbf 7a35 f63d
00000380: ce80 25be a472 5e3c 4dd4 4237 6157 b93b
00000390: c554 24b8 1020 0c37 fc03 d6ba 099a bf36
000003a0: c2de 143e 57a8 583a fc06 02b5 bc01 1638
000003b0: 898c 17bc e6fa ccb6 b9b5 0a38 91e6 25bd
000003c0: ebf7 d4bd a4a7 5cbd 0ea2 64b8 d68c 8337
000003d0: 1d3a fb3d 6cae b3bd a734 8bb7 1b4e 28b7
000003e0: 42a1 9db4 f6ff 36bd 588f d634 cd00 c8bd
000003f0: 81e7 82b7 cd14 3f37 f4f4 4c36 8ba4 19be

conv3.bias f4 [5]
0.2916728 -0.28247356 -0.26527056 -0.29827112 -0.26005557
00000000: 2356 953e 60a0 90be 8bd1 87be feb6 98be
00000010: 0126 85be

conv3.lin.weight f4 [5, 16]
0.41134602 0.83373064 0.07442989 0.10462115 1.1354207 0.5281153 0.36515498 0.38783976
0.50223863 -0.71328783 0.66467065 -0.1497943 -1.0478765 0.56249243 -0.041807435 -0.09094408
0.534954 -0.7176211 0.00061383465 0.57405335 -0.64437836 -0.4274344 -0.43737322 0.28574893
0.5633706 0.61305493 -0.3489274 -0.15090397 0.60245407 -0.30790317 -1.4860457e-05 -0.06947482
-0.48995328 -0.58203566 0.014443714 -0.7590712 -0.41943982 -0.082769364 0.08986693 -0.82097113
-0.7369871 -0.6535397 -0.2911207 0.014830307 -0.705587 0.111092895 6.925171e-05 -0.2066606
-0.53853554 -0.3159034 0.004521889 -0.036852594 -0.001464847 -0.44807163 -0.5004047 -0.35482794
-0.18700384 -0.17287707 -0.07185146 0.043939143 -0.24397843 -0.08290926 -1.2017566e-05 -0.049395707
-0.2683557 -0.46539992 -0.0036898223 -0.34631068 -0.61973155 -0.5832953 -0.2973907 0.4118648
0.25027516 1.0268611 -0.29779476 -0.21295373 0.9042865 -0.34790835 3.2542142e-05 -0.32987264
00000000: f29b d23e 5f6f 553f b36e 983d 9d43 d63d
00000010: 7755 913f 9032 073f 98f5 ba3e ef92 c63e
00000020: b692 003f 089a 36bf db27 2a3f ad63 19be
00000030: d120 86bf 81ff 0f3f 463e 2bbd e440 babd
00000040: bff2 083f 04b6 37bf bfe9 203a 29f5 123f
00000050: fbf5 24bf afd8 dabe 62ef dfbe af4d 923e
00000060: 0e39 103f 2bf1 1c3f 9da6 b2be 9286 1abe
00000070: 6e3a 1a3f 7ca5 9dbe 2d51 79b7 d048 8ebd
00000080: 28db fabe 4a00 15bf 54a5 6c3c 7d52 42bf
00000090: d1c0 d6be fc82 a9bd 270c b83d 2a2b 52bf
000000a0: 30ab 3cbf 614e 27bf c60d 95be d1fa 723c
000000b0: 5aa1 34bf ac84 e33d 3b3b 9138 d69e 53be
000000c0: 77dd 09bf 17be a1be 5b2c 943b bff2 16bd
000000d0: 1c00 c0ba a569 e5be 861a 00bf 02ac b5be
000000e0: ef7d 3fbe b006 31be dc26 93bd 88f9 333d
000000f0: 7bd5 79be 55cc a9bd 0e9f 49b7 2753 4abd
00000100: eb65 89be e648 eebe f2d0 71bb a24f b1be
00000110: baa6 1ebf d752 15bf 9843 98be f1df d23e
00000120: 1124 803e 2f70 833f 8e78 98be 8b10 5abe
00000130: 527f 673f 0b21 b2be dc7d 0838 11e5 a8be
