models/german_gcn_model.pth (torch, 5602 bytes, 6 tensors)

conv1.bias f4 [16]
000000 3e f8 cc bd 17 d6 b4 3d c0 94 fd 37 01 d7 6e 3c
       -0.10008286 0.08829897 3.0229217e-05 0.014577628
000010 20 a3 12 3d bb 52 29 3d be 21 ff ba 35 b0 8f 3c
       0.0358001 0.041338664 -0.0019465012 0.017540077
000020 c7 55 d1 3d 6e 77 55 b9 85 4a c2 3d 3e ba 85 bd
       0.10221439 -0.00020357754 0.0948687 -0.065296635
000030 44 57 da 3c 35 b0 e2 bb b4 58 45 3a 96 42 06 3d
       0.02665294 -0.006917978 0.00075281714 0.032778345

conv1.lin.weight f4 [16, 22]
000000 3e 70 b6 3d 3d 63 c0 3c 2c c2 1b bd fd 21 00 38
       0.08908127 0.02348482 -0.038026974 3.0549232e-05
000010 20 7d d8 36 a6 53 81 35 42 bd 17 be 96 a3 31 3d
       6.451868e-06 9.635594e-07 -0.1481829 0.0433689
000020 f6 b2 2a b9 f9 d8 93 37 27 e9 62 37 5c bd 68 34
       -0.00016279132 1.7624801e-05 1.3524935e-05 2.1675572e-07
000030 f3 e0 8b 3b 17 08 f7 bb c0 2a 7f bb 78 c0 c7 38
       0.0042687594 -0.007538806 -0.0038935393 9.5249095e-05
000040 d8 59 8b b8 68 4b 5e b7 25 8d c5 37 5c cc e2 34
       -6.644771e-05 -1.3249788e-05 2.3549956e-05 4.224447e-07
000050 b9 f4 b4 35 6e 4b a9 37 d8 12 12 3d 9f 09 1d 3e
       1.3482269e-06 2.0181495e-05 0.035662502 0.15335701
000060 03 9b 65 3d 46 3e a1 3e 0c b4 ad 3e 22 9d 04 3c
       0.056056034 0.31492823 0.33926427 0.008094104
000070 36 d7 57 3c 54 0b aa bd 19 42 ea be f1 47 d3 be
       0.013173869 -0.08302942 -0.45753554 -0.41265824
000080 2b b6 b4 be 29 e8 bf bb 75 0a 94 bd b1 e2 cc 3d
       -0.35295233 -0.005856533 -0.07228557 0.100041755
000090 a5 84 be 3e 2c f7 dc bd 20 49 1d 3c 72 ee 84 bd
       0.37210575 -0.10789332 0.009599954 -0.06490792
0000a0 86 42 63 be 08 7c c4 3d 8f 42 c9 3c 0d f4 cb bd
       -0.22193345 0.095939696 0.02456787 -0.09958658
0000b0 19 48 02 3b 7d e7 b8 ba c8 c2 f9 39 82 c7 02 3a
       0.00198794 -0.0014107075 0.00047638104 0.00049888354
0000c0 38 ff 94 b9 c6 4c b9 b7 03 08 4e ba 1a a7 10 ba
       -0.00028418913 -2.2089469e-05 -0.000785947 -0.0005518064
0000d0 2a 81 26 3a 96 9d 5f b8 18 ed 86 b7 bc b9 d6 36
       0.00063516444 -5.3314106e-05 -1.608445e-05 6.3993193e-06
0000e0 27 e6 ba ba 1f 32 7e 39 f0 36 4f 37 56 c1 11 39
       -0.0014259265 0.00024241999 1.2350953e-05 0.00013900301
0000f0 92 34 47 38 91 aa e7 b9 b1 65 3b b9 cc 66 2a 39
       4.7494257e-05 -0.00044186835 -0.00017871593 0.00016250758
000100 b7 52 18 b8 4c 28 96 b9 95 ab 42 be 48 eb 77 be
       -3.631666e-05 -0.00028640253 -0.19010766 -0.24210846
000110 8f 1b 9c 3c 01 03 1e be 97 30 de be a5 10 11 bd
       0.01905611 -0.15430833 -0.43396446 -0.035416264
000120 f5 49 83 3e e4 ec 9b 3e f9 55 3a 3f 91 13 0f 3f
       0.25642362 0.3045417 0.72787434 0.5588923
000130 2f a4 2b 3f 1e 4e 6b 3b cd f4 b3 3e 4f 43 d0 bc
       0.670474 0.0035904716 0.35147706 -0.02542272
000140 07 aa fa be ca 67 e5 3d 4d 10 53 be b6 61 65 3e
       -0.48957846 0.11201437 -0.20611687 0.22400555
000150 42 06 ef 3e 8a 27 76 be ac 3a 0c be 11 c2 77 3e
       0.46684462 -0.2403852 -0.13694257 0.24195124
000160 c4 1c 85 bd 7f 3d ba 3d 00 6f 1f 3e f6 34 3f 3c
       -0.06499627 0.09093761 0.15569687 0.011670342
000170 c7 1f 54 3e 92 33 36 3d 30 af 96 be 94 a4 51 3e
       0.20715247 0.044482775 -0.29430532 0.20472938
000180 d3 72 f3 3e 0f 77 ad 3e 8b 0b a1 3e ff e5 a1 3b
       0.4754854 0.33879897 0.3145412 0.0049407477
000190 6b de 85 be b1 ee af bc 66 dd 14 be 10 2a 2b 3e
       -0.26146254 -0.021476122 -0.14537582 0.16715264
0001a0 c8 c5 15 3e 63 63 84 3e 02 fe c4 3e 3a 12 1c bd
       0.14626229 0.25857076 0.38475043 -0.03810332
0001b0 ba 0f 8d bd 71 84 23 3e d8 42 4f 3e fc d6 19 be
       -0.06887765 0.15968491 0.20240343 -0.15023416
0001c0 a1 df 20 3e 6a 6b 64 bd c6 39 4c 3c 28 ab d6 ba
       0.15710308 -0.0557665 0.012464946 -0.0016377913
0001d0 21 8e b5 3e 75 c8 35 3e 87 09 25 bd 19 83 0f be
       0.35459998 0.1775225 -0.04029229 -0.14014854
0001e0 0a 0b d8 bd 40 bb 08 3a f3 76 92 be 15 ea 4e 3e
       -0.105489805 0.00052158907 -0.28606376 0.20206483
0001f0 ad 20 ec 3d 67 ce 1d be 4e a8 51 3b 4c f8 12 bc
       0.1152967 -0.15410767 0.0031991187 -0.008970331
000200 c2 93 93 bd 33 b3 34 3d bb bf 5b 3c 2e 22 23 bd
       -0.07205917 0.04411621 0.013412411 -0.03982752
000210 24 90 30 b8 00 56 d5 32 be db cf 36 83 f6 d1 36
       -4.209591e-05 2.4835572e-08 6.194662e-06 6.257383e-06
000220 cd c5 07 37 c8 36 85 37 e1 eb 5e 36 fa 3d ca b4
       8.092681e-06 1.5880345e-05 3.3217877e-06 -3.7670526e-07
000230 04 bf 61 34 db 53 73 b5 1e 52 1a b5 10 13 7e 33
       2.1024249e-07 -9.064658e-07 -5.7488967e-07 5.915632e-08
000240 f4 6f 29 36 05 d6 f2 b6 15 99 20 b6 a1 a7 ba b6
       2.5248128e-06 -7.237077e-06 -2.3930963e-06 -5.5627465e-06
000250 50 07 37 b6 c4 3b 52 36 40 23 e8 b1 68 23 dd b6
       -2.7273381e-06 3.1327227e-06 -6.756096e-09 -6.590435e-06
000260 4e 22 35 b7 01 59 07 36 fd de 95 bd f2 c8 8a bd
       -1.0796428e-05 2.0168375e-06 -0.07317922 -0.067766085
000270 ed d5 17 be ba 85 f3 be 45 33 9a be 03 e1 09 bc
       -0.148277 -0.47562963 -0.3011724 -0.008415463
000280 42 60 51 3e af e0 46 bd 34 09 9b 3e 76 6e f7 3c
       0.20446876 -0.04855412 0.3028046 0.030204039
000290 46 5d a6 3d 97 9a f4 3b eb a6 aa 3e 92 82 c5 bb
       0.08123259 0.0074647176 0.33330473 -0.006027528
0002a0 b9 2d 7e be 36 67 11 3e d3 c8 06 bd 6d d1 4d be
       -0.2482213 0.14199528 -0.032906365 -0.20099421
0002b0 c9 03 87 bd 7a cf c1 bd 57 8b 83 bd c9 5b 3d be
       -0.06592519 -0.09463401 -0.06423061 -0.18492045
0002c0 d2 1a 4e 3e d2 9c 79 3e 7e be 31 3e 1b 1d 00 3d
       0.20127419 0.24376228 0.17357823 0.031277757
0002d0 be 43 c4 3e c3 5f 46 3d f9 75 8f 3e 32 6e 56 be
       0.38332933 0.04843117 0.28019693 -0.20940474
0002e0 4b 4e 63 bf d8 7e 20 bf ca b6 28 bf 3f ea b4 3c
       -0.8879134 -0.6269355 -0.65903914 0.022084353
0002f0 73 df b4 be f2 67 93 3d ee 0f ea 3e b1 81 85 bc
       -0.35326728 0.0719756 0.45715278 -0.016297193
000300 3c b8 a6 3e 18 9a 04 be 93 ac 8e be 64 a9 8e 3e
       0.32562435 -0.12949407 -0.2786604 0.2786361
000310 00 53 a5 3d 1b fe 8d be 3e f2 ef b6 50 95 8a b6
       0.080724716 -0.2773293 -7.1509558e-06 -4.1301028e-06
000320 be c2 e4 36 27 aa 9b 36 7a 6e cd 35 f4 ed 19 b7
       6.8176005e-06 4.6391683e-06 1.5305843e-06 -9.174913e-06
000330 77 c1 e0 36 ab bb 2b 36 bd 48 25 b6 c4 f7 61 37
       6.6982425e-06 2.5590223e-06 -2.4629255e-06 1.34687325e-05
000340 3d 07 12 37 34 00 85 37 0b 76 f9 36 05 c0 92 b7
       8.703963e-06 1.585493e-05 7.4345203e-06 -1.7493972e-05
000350 5f 19 a6 36 ff 3e ad 36 c4 b6 75 36 34 80 ac b6
       4.950139e-06 5.1631355e-06 3.6614229e-06 -5.1409243e-06
000360 da c9 f6 b6 9b 9e 41 b7 df 30 b8 36 3f a4 88 b7
       -7.35487e-06 -1.1540625e-05 5.4893167e-06 -1.6288946e-05
000370 e6 af 95 3d 20 ee 01 3e ec 93 9d 3d 9a 30 a3 3e
       0.073089406 0.12688494 0.076942295 0.31873018
000380 bd ed c2 3e e8 f0 70 3c 7e ec f5 3c 21 65 cc bd
       0.38072005 0.014705874 0.030019995 -0.09980226
000390 ad 6e f4 be da f4 e2 be 32 fd cf be 73 84 4c 3b
       -0.4774069 -0.44327432 -0.4062286 0.0031206876
0003a0 09 0d 7c bd 38 60 a8 3d 3b 80 ce 3e 01 95 fd bd
       -0.06153587 0.08221477 0.40332207 -0.12381936
0003b0 cf e3 c2 3c dd 20 bb bd f1 47 86 be 3a da d7 3d
       0.023790268 -0.091371275 -0.26226762 0.1053967
0003c0 eb 4b ac 3c 42 f8 02 be 85 2f 23 bd cc ef 0a bc
       0.021032294 -0.12790015 -0.03984024 -0.008480024
0003d0 84 a3 9e 3c 14 3f 3c ba e3 c8 cd 3a 38 24 6b b9
       0.01936508 -0.000718103 0.0015700128 -0.00022424839
0003e0 94 ef b8 bc c0 96 a0 3b 24 19 49 bb 0c 0f 36 3b
       -0.022575177 0.0049007833 -0.003068515 0.0027779965
0003f0 66 14 36 ba 5e 7b 1c 37 06 d3 e7 bb 37 e4 a0 3c
       -0.00069457886 9.327048e-06 -0.0070747165 0.019640071

conv2.bias f4 [16]
000000 7a d9 9c 3d 43 50 24 b9 62 d1 7d bd 14 f9 d7 bb
       0.07658668 -0.00015670159 -0.06196726 -0.0065909717
000010 78 39 08 3e 84 52 95 3d 70 65 4d 3d 3d 40 96 3d
       0.13303173 0.07291129 0.050145566 0.07336471
000020 b8 f8 27 bc 9f ff 9c 3d 21 a2 cb 3d a5 f2 f7 3d
       -0.01025217 0.07665943 0.09943033 0.12106828
000030 7c 5e e3 3d cc bf 86 ba 6b ee c5 3d f7 fa 0f 3e
       0.11102006 -0.0010280549 0.09664615 0.14060579

conv2.lin.weight f4 [16, 16]
000000 a9 05 1b be 6d d6 81 3e a0 0b d8 38 bb 19 fb be
       -0.15138878 0.25358906 0.00010301848 -0.49043068
000010 9a c1 45 be 0e 64 a5 3e 05 32 49 3b 10 dd 89 be
       -0.19312134 0.32302898 0.003069998 -0.2692647
000020 72 13 9c 3e 74 06 35 b5 55 0a 85 3e c5 41 e7 ba
       0.30483586 -6.7437145e-07 0.25984445 -0.0017643502
000030 6e f0 bf be ea 12 89 38 cb d1 04 3e f8 ef f4 be
       -0.3748812 6.536192e-05 0.12970655 -0.47839332
000040 55 92 9f 36 b2 51 ba 37 f5 bf 5c 36 fd 0b 28 b8
       4.7556046e-06 2.221097e-05 3.2894288e-06 -4.0065486e-05
000050 7e df 29 38 ad 6e b8 38 25 70 a8 b6 d7 0b f6 36
       4.0500883e-05 8.794419e-05 -5.0198455e-06 7.3327496e-06
000060 5f ea 24 b8 d3 8e b4 b5 a8 1a 22 35 f0 24 51 b4
       -3.9318922e-05 -1.3452612e-06 6.038849e-07 -1.947808e-07
000070 91 28 b8 37 60 8a ab b4 af a1 1f 38 ec 61 ad 37
       2.19534e-05 -3.1951913e-07 3.8059134e-05 2.0668806e-05
000080 99 af f7 bc 88 cb 21 b7 bd 4a 9f b5 f2 2d 23 b6
       -0.030235099 -9.643736e-06 -1.1868175e-06 -2.4315636e-06
000090 00 a9 83 37 2e 8a 18 bc d0 71 b2 36 aa 28 2f b7
       1.5695114e-05 -0.009310288 5.318063e-06 -1.0440281e-05
0000a0 ce c4 a1 3b 9c 3b bc b6 7b 37 d7 36 c8 46 36 b6
       0.004936791 -5.609776e-06 6.413958e-06 -2.7161313e-06
0000b0 2e e9 eb 36 cd 21 c1 b6 6a 79 41 37 3c 8f b0 b5
       7.0306914e-06 -5.755783e-06 1.1531965e-05 -1.3154709e-06
0000c0 68 df b5 35 7a 0b 74 37 d1 8d 71 b7 ec 07 0b 39
       1.3550571e-06 1.4546205e-05 -1.4397739e-05 0.00013259024
0000d0 b9 13 4b b7 50 3d d9 b5 aa 68 ff b4 b1 9b 34 b6
       -1.2104335e-05 -1.6185604e-06 -4.7573604e-07 -2.6912714e-06
0000e0 98 77 bd b5 e0 a7 bf b5 d4 cb f9 36 f4 cc 83 b6
       -1.4116404e-06 -1.4279467e-06 7.444507e-06 -3.927964e-06
0000f0 cd 45 c4 37 bf b1 6d 36 ae 95 1b 39 37 da 3b 38
       2.3397524e-05 3.5419214e-06 0.00014837712 4.4787503e-05
000100 35 0c ec 37 93 b4 9f 3e af 58 15 3a c1 50 76 be
       2.8139077e-05 0.31192455 0.0005697114 -0.24054243
000110 22 f2 48 be 9a 49 c2 bd 94 91 5e b6 1c a4 62 be
       -0.19623616 -0.09486695 -3.3165315e-06 -0.22132915
000120 86 bf ad 3e 08 20 85 b7 ce 04 ab 3e 7a 52 b1 ba
       0.33935183 -1.5869751e-05 0.33402103 -0.0013528608
000130 86 a9 92 be ac fe 5a 39 c6 e5 2d be f7 cd 94 be
       -0.2864496 0.00020884973 -0.16982183 -0.2906339
000140 ce 93 cc b7 eb 02 94 be d1 59 37 b9 57 43 f6 3e
       -2.4387522e-05 -0.28908476 -0.00017485699 0.4809825
000150 76 a7 76 3e c9 af 21 bd e4 c9 ea b7 f1 d2 69 3e
       0.24087319 -0.039474282 -2.7988986e-05 0.22834374
000160 3e 9b fc bd a9 67 8d b5 3e 7d 82 be 41 2d 49 3b
       -0.123342976 -1.0535488e-06 -0.25486177 0.003069714
000170 04 2b d4 3e 09 29 c4 b9 9a 7e 18 3f 28 11 f0 3e
       0.41439068 -0.00037414607 0.5956818 0.4688809
000180 b9 55 83 3c 3c 51 53 bd 00 94 d4 b8 24 8e ec 3c
       0.016032087 -0.051591143 -0.00010136515 0.028876372
000190 97 10 8d bd 1d d0 1a 3e 76 6a 81 37 eb 74 da 3c
       -0.0688793 0.15118451 1.5427573e-05 0.026667079
0001a0 fe a8 e6 bd ee 34 b6 b6 07 b8 65 bd f1 a9 82 39
       -0.112627015 -5.4301845e-06 -0.056083705 0.00024922148
0001b0 c8 3a 6c 3d 48 78 de b6 11 4e d7 3d 0a 5c 19 3d
       0.057673246 -6.630118e-06 0.10512937 0.03744129
0001c0 48 dc 04 b5 13 43 73 be d8 91 bc b9 ab 86 f3 3e
       -4.9494383e-07 -0.23756056 -0.00035966816 0.4756368
0001d0 a1 c4 a5 3e 9d 67 cc 3d 5c 33 6f 37 6f cc 64 3e
       0.32376578 0.099807 1.4257468e-05 0.2234361
0001e0 58 2a b2 be 6a ab e4 35 b9 3f 7e be 6d b6 a3 3a
       -0.3479793 1.7037212e-06 -0.24828996 0.001249028
0001f0 5b 45 f2 3e 3a 11 2b 39 25 87 0b 3f 8f 50 03 3f
       0.4731854 0.00016314248 0.5450309 0.512948
000200 af be c5 36 8e 3a f1 39 b9 bc 4b b6 7a c7 8f ba
       5.893256e-06 0.0004601073 -3.0359208e-06 -0.0010969483
000210 3b 31 91 b9 ed e0 c4 3a 7b eb 51 37 f6 99 ed 39
       -0.00027693235 0.0015020646 1.2512198e-05 0.00045318872
000220 20 86 d5 39 b3 20 9f 36 14 d6 35 b8 1a ad 4e 36
       0.00040726457 4.742376e-06 -4.335314e-05 3.079715e-06
000230 0f 0d 1f ba 2a 52 54 36 b6 6d 28 ba e4 3b 20 3a
       -0.00060673145 3.1638288e-06 -0.00064250396 0.000611244
000240 c6 42 97 b6 66 b1 6c be d9 76 fb b9 f6 4c db 3e
       -4.507924e-06 -0.23114547 -0.00047963 0.42832154
000250 13 13 a9 3e d3 df 82 3e 52 6a de 36 de b7 65 3e
       0.33022365 0.2556139 6.628493e-06 0.22433421
000260 a6 19 96 be 97 68 59 b6 e5 f1 7b be 6b 4e 0f 3b
       -0.29316443 -3.23964e-06 -0.24603994 0.002186681
000270 ff c6 e4 3e 69 77 22 39 e7 13 e0 3e 7f cc d5 3e
       0.44683072 0.00015494008 0.43765184 0.4175758
000280 80 8a 41 37 f0 59 53 be f0 8e 9b b9 c3 ff bc 3e
       1.15359435e-05 -0.20639777 -0.000296704 0.3691388
000290 7d 7f f6 3e 45 0e 47 be b7 95 00 b8 d1 2a 8f 3e
       0.4814414 -0.19439037 -3.065701e-05 0.27962354
0002a0 81 ff 86 bc ca 30 8b 36 ba b1 94 be 45 04 07 3b
       -0.016479256 4.1482026e-06 -0.29041845 0.002060191
0002b0 f9 08 ed 3e d7 99 26 b9 92 8b 14 3f fc ea f9 3e
       0.46295908 -0.00015888303 0.5802547 0.4881209
0002c0 b0 c4 36 b1 27 ef a2 3e 92 ba b3 39 96 0f 6d be
       -2.659629e-09 0.31823084 0.00034280546 -0.23150477
0002d0 d0 ca 90 be d8 0f 21 3d ae 22 1c b5 ce 3c 5a be
       -0.28279734 0.03932175 -5.8164994e-07 -0.21312258
0002e0 a8 dd b0 3e 87 e6 b1 b6 be 69 c2 3e c2 dc f2 39
       0.3454411 -5.301848e-06 0.379713 0.00046322314
0002f0 94 37 a0 be d2 7f 27 3a 27 d5 53 be 96 eb 93 be
       -0.31292403 0.0006389591 -0.2068678 -0.28890675
000300 07 f2 0e 3e 09 bd 8f 3e 2e 2b a1 38 3f 02 a3 be
       0.13959514 0.2807391 7.685121e-05 -0.3183765
000310 bf e5 94 3d 14 3d 8a 3e b9 c0 df 38 77 33 1a be
       0.07270383 0.26999724 0.00010669366 -0.15058695
000320 3f 96 9d 3e ca f7 03 b6 f7 d5 a7 3e 4f 00 17 ba
       0.3077869 -1.9664753e-06 0.3278043 -0.0005760239
000330 a1 c3 ab be c3 70 e2 38 98 e6 c3 be ed 41 c7 be
       -0.3354769 0.00010797523 -0.38261867 -0.38917485
000340 a1 9e fc b6 c6 a6 ea 39 e2 93 4d 34 18 c0 ec b8
       -7.528652e-06 0.00044756214 1.9145912e-07 -0.00011289137
000350 41 7c 2e 39 28 9f dd b9 b2 41 a2 b7 e5 4d b5 b8
       0.00016640221 -0.00042270985 -1.9342497e-05 -8.6452616e-05
000360 2a d8 ea b9 4f 0c a0 b6 46 bf 97 b9 40 2b 1a 34
       -0.00044793013 -4.7698045e-06 -0.00028943474 1.4358102e-07
000370 a8 8c 6a 39 16 87 b6 34 c8 7a 8c b9 a6 97 3e b9
       0.00022368378 3.399843e-07 -0.0002679436 -0.00018176305
000380 3e 50 e4 3d b0 3f 96 3e 1d 38 4e 39 05 a1 ed be
       0.111481175 0.29345465 0.00019666595 -0.4641191
000390 d1 1b d3 bd e2 c7 80 3e d1 ca 32 b8 6d 36 3d be
       -0.1030804 0.25152498 -4.2627395e-05 -0.18477793
0003a0 3e a0 15 3f cd 67 6f b7 9b b3 95 3e da 39 aa bb
       0.58447635 -1.4269678e-05 0.2923859 -0.0051948847
0003b0 03 e9 ae be d3 22 12 39 ac 20 58 be 13 82 e3 be
       -0.3416215 0.00013936618 -0.21106213 -0.44435176
0003c0 f2 b8 eb b5 2a 65 98 3e f2 b8 6d 39 5f cd 41 be
       -1.7562691e-06 0.29764682 0.00022670979 -0.18925999
0003d0 3f 7d 6e be 71 be 4e be 02 27 90 36 41 50 89 be
       -0.23289965 -0.20189835 4.2960755e-06 -0.2681904
0003e0 00 55 1e 3f 3b 96 18 37 9e fc be 3e c4 86 07 ba
       0.6184845 9.094884e-06 0.37302107 -0.0005169923
0003f0 f5 49 bc be 1e a5 e4 37 57 3b 9d be 94 c8 8c be
       -0.36775175 2.7256607e-05 -0.30709335 -0.2749678

conv3.bias f4 [2]
000000 d3 0b d4 be d3 0b d4 3e
       -0.4141527 0.4141527

conv3.lin.weight f4 [2, 16]
000000 f8 92 b2 be c9 1b ba 38 0e d5 74 37 f8 32 53 b8
       -0.34877753 8.8743465e-05 1.4593139e-05 -5.035379e-05
000010 1b f3 03 bf 73 17 91 3e db d6 92 bb 5d eb 61 3f
       -0.51542825 0.28338203 -0.004481179 0.8824976
000020 9d 4a fa 3b 0d 70 32 3f 54 14 da 3e d8 44 13 bf
       0.007638289 0.69702226 0.42593634 -0.5752692
000030 cf 2e 11 be 7b 0b 09 bb a6 b0 1c bf 88 4f 2f bf
       -0.14178012 -0.0020911384 -0.61207044 -0.6848073
000040 fe c9 1e 3f 0b 9c 2d b8 1a 90 fc b7 b1 8b b9 37
       0.62026966 -4.139174e-05 -3.0107843e-05 2.2118767e-05
000050 b2 da df 3e b9 d9 40 bf b7 a6 bb bd 06 1c e6 be
       0.4372154 -0.7533222 -0.09162658 -0.44943255
000060 fe 70 01 bc de f8 91 be 14 6c 32 bf 79 ed 08 3f
       -0.007900475 -0.28510183 -0.69696164 0.53487355
000070 ee a4 2f 3f b6 04 01 3b 90 25 b8 3e a6 e1 14 3f
       0.6861104 0.0019686646 0.35966158 0.5815681
