models/pubmed_gcn_model.pth (torch, 36258 bytes, 6 tensors)

conv1.bias f4 [16]
0	0x3dd99276	0.10623638
1	0x3d2267dd	0.039649833
2	0x3d3252db	0.04353605
3	0x3df84db2	0.12124194
4	0x3d24dbd1	0.040248696
5	0x3d0dbce6	0.034603976
6	0x3d778a7f	0.060434815
7	0x3d1f29e2	0.038858302
8	0x3d5331d2	0.051561184
9	0x3d25637a	0.04037807
10	0x3cf55003	0.02994538
11	0xbd1ea0b5	-0.03872748
12	0x3cd92f13	0.026511705
13	0x3dae7938	0.085192144
14	0x3d56186a	0.052269377
15	0x3d4b0ced	0.049572874

conv1.lin.weight f4 [16, 500]
0	0xbf42eeab	-0.7614543
1	0xbc178814	-0.009248752
2	0x3bb6814f	0.005569614
3	0xbdfd4e12	-0.12368406
4	0xbd1e38fa	-0.038628556
5	0xbd10e8e9	-0.03537837
6	0xbe617655	-0.22017796
7	0xbc9dc059	-0.019256758
8	0xbee9aaf7	-0.45638248
9	0xbe1d8cc3	-0.15385728
10	0x3b11c5ee	0.002224322
11	0x3d06e2c1	0.032931093
12	0x3c271e37	0.010200075
13	0xbdefe380	-0.11713314
14	0xbdcb2299	-0.09918708
15	0xbed2e116	-0.41187352
16	0xbec7a4e8	-0.38993
17	0x3cf47a1a	0.029843379
18	0xbcd917dc	-0.026500635
19	0x3cea3220	0.028588355
20	0xbd182fd5	-0.03715499
21	0xbe0e5836	-0.13900837
22	0xbdf2aacf	-0.118489854
23	0xbc53833b	-0.012909706
24	0xbe93b781	-0.2885094
25	0xbd8d4358	-0.068976104
26	0x3ce74c3f	0.0282346
27	0x3c6d39b8	0.014479093
28	0xbe12f983	-0.14352994
29	0xbe3a0b5d	-0.18168397
30	0xbc47e8b9	-0.0122014815
31	0xbdda959f	-0.10673069
32	0xbdcc2896	-0.09968679
33	0xbe1abea6	-0.15111789
34	0xbda49f57	-0.08038204
35	0x3d1f5a9b	0.038904767
36	0x3d375b7b	0.044764977
37	0xbda54b8a	-0.080710486
38	0xbe6f04a6	-0.23341617
39	0xbe198430	-0.14991832
40	0xbd3e88fe	-0.046517365
41	0xbd35d0b9	-0.044388507
42	0xbdcba049	-0.09942681
43	0xbe15ac45	-0.14616497
44	0xbd600425	-0.054691453
45	0x3ae6b97e	0.0017602888
46	0xbd374daa	-0.0447518
47	0xbca57220	-0.02019602
48	0x3bf1872d	0.0073708505
49	0x3cc4f4bb	0.024042478
50	0xbca5dc2e	-0.020246591
51	0xbc93a712	-0.018024001
52	0xbdff8bd9	-0.12477846
53	0xbc54378f	-0.012952699
54	0xbe41f01a	-0.18939248
55	0x3e1f225f	0.15540455
56	0x3dc1e1a9	0.094668694
57	0x3d96fec5	0.07372812
58	0xbe201791	-0.1563399
59	0x3d1f4f3d	0.038893927
60	0xbd8da1e4	-0.06915644
61	0xbdb2b468	-0.08725816
62	0x3c8e7771	0.017390938
63	0xbd627620	-0.055288434
64	0x3cba666a	0.022753913
65	0xbdaa0740	-0.08302164
66	0xbdf64756	-0.12025325
67	0xbc5e44ad	-0.013566178
68	0xbd73c0f8	-0.0595102
69	0xbdf4d005	-0.11953739
70	0x3ed1ed4d	0.4100136
71	0xbd17be55	-0.03704675
72	0x3ce4dd14	0.02793745
73	0xbd2be3b6	-0.04196521
74	0xbe13a9d4	-0.14420253
75	0xbd3be10c	-0.04586892
76	0xbd53e3b7	-0.051730838
77	0xbd1a7197	-0.037705984
78	0xbd9751fd	-0.07388685
79	0xbd162fd0	-0.03666669
80	0xbc8b022f	-0.016968815
81	0xbcadf7d4	-0.021236338
82	0xbe20452c	-0.15651387
83	0xbd180527	-0.03711429
84	0xbd4ce7c8	-0.05002573
85	0xbcf19e38	-0.02949439
86	0x3dc1695c	0.09443924
87	0xbcd9107e	-0.026497122
88	0x3db5f518	0.088846385
89	0x3f0ea24b	0.5571639
90	0x3d30ce34	0.0431654
91	0x3d6e4631	0.05817241
92	0xbd87678e	-0.06611548
93	0xbeb4874d	-0.35259476
94	0xbdd5a2b9	-0.104314275
95	0x3c95a1ce	0.018265631
96	0x3c9f0b18	0.01941447
97	0xbd4a5fc7	-0.049407747
98	0xbd4360be	-0.047699682
99	0xbd122b1a	-0.035685636
100	0xbd726ef5	-0.059187848
101	0xbd75c143	-0.05999876
102	0xbd9ab616	-0.075542614
103	0xbbabc2f0	-0.005241744
104	0x3cbdf4db	0.023188045
105	0xbd95de59	-0.073178
106	0xbd509c46	-0.050930284
107	0x3c9f5f5b	0.019454649
108	0x3d732bf1	0.059368078
109	0x3c906437	0.017625911
110	0xbe697226	-0.2279745
111	0x3d3a733d	0.045520056
112	0xbaf8c9f7	-0.0018981089
113	0x3d05aff6	0.032638513
114	0x3d566373	0.052340936
115	0xbd5f6801	-0.054542545
116	0xbd8cdf0c	-0.0687848
117	0xbd50e255	-0.050997097
118	0xbd9a6cc2	-0.07540275
119	0xbd987e05	-0.07445911
120	0x3d364a05	0.044504184
121	0x3e34e14d	0.1766407
122	0x3d966f45	0.07345442
123	0xbe3b149b	-0.18269579
124	0x3d5061c8	0.0508745
125	0x3cf741af	0.030182688
126	0x3d35f23b	0.044420462
127	0x3de96a54	0.113972336
128	0xb9efaf5c	-0.00045716285
129	0xbe05eef5	-0.13079436
130	0x3d7d32a4	0.061815873
131	0xbc22a92e	-0.009928031
132	0x3d8a0de5	0.067409314
133	0x3d510229	0.05102745
134	0x3d8ce338	0.06879276
135	0x3e07d448	0.13264573
136	0x3b20b256	0.002452036
137	0x3a652df0	0.0008742502
138	0xbd2dc80b	-0.042427104
139	0x3f07b56f	0.5301122
140	0xbc010d82	-0.007876756
141	0x3bab330d	0.0052245916
142	0x3c866922	0.016407553
143	0x3c6e6397	0.014550111
144	0x3d4ebfb9	0.05047581
145	0x3c97899a	0.01849823
146	0x3d10fa48	0.035394937
147	0xbd236265	-0.03988876
148	0xbd649453	-0.055805515
149	0xbc692115	-0.014229079
150	0xbda4928f	-0.08035766
151	0xbcc6a881	-0.02425027
152	0x3c0da804	0.008646015
153	0x3dfe2b2b	0.124105774
154	0x3d78f3db	0.060779434
155	0x3d8710d6	0.06595008
156	0xbdc661d1	-0.09686626
157	0xbdd2b2a7	-0.102879815
158	0x3def8227	0.116947465
159	0xbe892c31	-0.26791528
160	0xbb7413b7	-0.0037243196
161	0xbc4662f6	-0.012108555
162	0x3da2eb20	0.07955003
163	0x3d4c8a99	0.049936865
164	0xbda466b0	-0.080273986
165	0x3cf1ed13	0.029531991
166	0x3e04eac3	0.1298018
167	0x3dbec016	0.09313981
168	0xbdc2dd5d	-0.09514878
169	0xbe4af927	-0.19821607
170	0x3d3ee5ec	0.04660599
171	0x3c246c2d	0.010035557
172	0xbd5e7da7	-0.05431905
173	0xbe082ead	-0.13299055
174	0xbda50e0d	-0.080593206
175	0xbdc801ff	-0.09766006
176	0x3dd51b3e	0.10405587
177	0x3cf98aa5	0.030461619
178	0xbddeed52	-0.10885109
179	0xbe15490d	-0.14578648
180	0xbb4cf5a5	-0.0031274345
181	0xbc4cfa9f	-0.012510925
182	0x3baaf05f	0.0052166427
183	0xbda90bac	-0.08254179
184	0xbec20ced	-0.37900487
185	0xbd0691d7	-0.032853927
186	0x3ce3b589	0.027796524
187	0x3c7981f5	0.015228738
188	0x3cb46c67	0.022024347
189	0x3cb220bf	0.02174413
190	0x3d560197	0.05224761
191	0xbd544234	-0.05182095
192	0xbe3b0fd4	-0.18267757
193	0xbd9e94ed	-0.07743249
194	0xbd753ae2	-0.05987061
195	0x3d14caf0	0.03632635
196	0xbdfd6b51	-0.123739846
197	0x3d52e2c8	0.051485807
198	0xbe04c28e	-0.12964842
199	0x3ca9c561	0.020724
200	0xbe503e59	-0.20336284
201	0x3bed2fb5	0.007238353
202	0xbe31caf3	-0.17362575
203	0x3db95515	0.09049431
204	0xbdf706fd	-0.1206188
205	0x3db59e29	0.08868057
206	0x3d90d1f4	0.070712954
207	0x3c13c4b9	0.00901907
208	0xbc320db6	-0.010867527
209	0xbd8847a1	-0.06654287
210	0xbc098cfe	-0.008395432
211	0xbcc07b90	-0.02349642
212	0xbba840bb	-0.0051346696
213	0xbabf23f6	-0.0014582861
214	0xbc90a580	-0.017657042
215	0x3d58ce75	0.052931268
216	0x3c8d0c79	0.017217861
217	0x3d5c92b6	0.053850852
218	0xbb03ea86	-0.00201288
219	0xbdb59895	-0.08866993
220	0xbdc6a43e	-0.096992955
221	0x3d814a4a	0.06312998
222	0x3da25b7b	0.07927605
223	0x3d500779	0.050788376
224	0xbd4ce993	-0.05002744
225	0x3d53580f	0.05159765
226	0xbda7d870	-0.08195579
227	0xbd42fe43	-0.047605764
228	0xbd81e222	-0.063419595
229	0x3ba0181d	0.004885687
230	0xbd0e1b04	-0.034693733
231	0xbe196964	-0.1498161
232	0x3dd24ff6	0.102691576
233	0x3da6ae41	0.08138705
234	0x3d1c4c2d	0.038158584
235	0xbdb7d637	-0.08976405
236	0xbdbe7707	-0.093000464
237	0x3cc8cd64	0.024512
238	0x3df8a12b	0.12140115
239	0xbd214fdd	-0.039382804
240	0x3caa3f9b	0.020782283
241	0xbced8da1	-0.028998198
242	0xbd7b3f02	-0.061339386
243	0x3d305450	0.043049157
244	0xbcd7d42b	-0.026346287
245	0x3d5abab0	0.053400695
246	0x3d1cf100	0.038315773
247	0x3eb34110	0.35010576
248	0xbe8022de	-0.25026602
249	0xbd73aaf1	-0.059489194
250	0x3d5efd65	0.054440875
251	0x3ed47635	0.41496435
252	0xbd3b413f	-0.04571652
253	0xbd80806c	-0.062744945
254	0x3d9b942f	0.07596623
255	0x3b55e0a4	0.0032635117

conv2.bias f4 [16]
0	0x3e048541	0.12941457
1	0x3d993203	0.07480242
2	0xbcde985a	-0.027172256
3	0x3d69bd64	0.057065383
4	0x3d07edb8	0.03318569
5	0xbe0454cf	-0.12922977
6	0x3d9ef774	0.07762042
7	0x3d9b67ed	0.07588182
8	0x3dfee632	0.1244625
9	0x3e1a1932	0.15048674
10	0x3d775ae6	0.060389422
11	0xbca0e94b	-0.019642493
12	0x3d09808f	0.03356987
13	0x3e1202ea	0.14258924
14	0x3da7f1e8	0.08200437
15	0x3df29e11	0.11846555

conv2.lin.weight f4 [16, 16]
0	0x3f8788dd	1.0588642
1	0xbe89d7e5	-0.26922527
2	0xbf3db0db	-0.74097985
3	0x3f863204	1.0484014
4	0xbf400100	-0.75001526
5	0x3f4f175a	0.80895007
6	0x3ef0c364	0.4702407
7	0x3d2560a3	0.040375363
8	0x3f7fc5b3	0.9991104
9	0xbec7e85f	-0.39044473
10	0x3eda7df3	0.42674217
11	0xb71b699a	-9.263307e-06
12	0x3e44fecc	0.19237822
13	0x3f4543da	0.7705666
14	0xbf363ef4	-0.7118981
15	0x3eebc10f	0.4604573
16	0x3cc553fb	0.024087897
17	0xbf1113aa	-0.5667063
18	0xbec2ed03	-0.3807145
19	0x3ee247be	0.4419536
20	0xbed4e5a8	-0.41581464
21	0xbf0cd0a5	-0.55005866
22	0x3f48bbf1	0.78411776
23	0x3f58bce4	0.84663224
24	0xbeed68bb	-0.46368966
25	0x3f79083f	0.9727821
26	0xbf547d0a	-0.83003294
27	0x36af5520	5.2253163e-06
28	0xbf4a957a	-0.79134333
29	0x3f4af171	0.7927466
30	0x3efbcb52	0.4917856
31	0x3f20bf19	0.6279159
32	0x36e3a3d2	6.7841984e-06
33	0xb5bd7e18	-1.4118295e-06
34	0xb791a54e	-1.7362323e-05
35	0xb69e2376	-4.712895e-06
36	0xb68943d4	-4.0908144e-06
37	0xb6ccc9bf	-6.10316e-06
38	0xb6bc1a8a	-5.605926e-06
39	0xb6f6a9f6	-7.3511574e-06
40	0xb76e868b	-1.4217231e-05
41	0xb69b79f7	-4.6335585e-06
42	0xb5bb5fc4	-1.3960457e-06
43	0xb54246ad	-7.237348e-07
44	0xb77315b5	-1.4488983e-05
45	0xb6266ed8	-2.4800447e-06
46	0x36eafdf0	7.0033057e-06
47	0xb7314604	-1.0566324e-05
48	0x3e5c2410	0.21498132
49	0xbf3acda0	-0.7297001
50	0xbea5e203	-0.32398996
51	0x3ea0949c	0.3136338
52	0xbeb469d9	-0.35237005
53	0xbf234e27	-0.63791126
54	0x3f60cf47	0.8781628
55	0x3f84f945	1.0388571
56	0xbee1e691	-0.4412122
57	0x3f5dc23d	0.8662451
58	0xbf3d0765	-0.7383941
59	0x34a3a778	3.0482965e-07
60	0xbf613e3f	-0.87985605
61	0x3f17864d	0.591893
62	0x3ea92315	0.33034578
63	0x3f6a2b61	0.9147244
64	0x3f004e00	0.5011902
65	0x3f683539	0.9070621
66	0xbda486ad	-0.080335
67	0x3e868ec6	0.26280802
68	0xbe81020d	-0.25196877
69	0x3f6b198a	0.91835845
70	0xbedbddc8	-0.42942643
71	0xbf2f379c	-0.6844423
72	0x3f6afb33	0.9178955
73	0xbf1c3cfd	-0.6103056
74	0x3f89bcb9	1.0760719
75	0x362d86ed	2.5857546e-06
76	0x3f85d5d8	1.0455885
77	0xbd150650	-0.036382973
78	0xbf1bf70a	-0.60923827
79	0xbf2a94ba	-0.6663319
80	0xb7d1e728	-2.5022382e-05
81	0xb6e67a02	-6.8687377e-06
82	0xbc3cea5f	-0.011530488
83	0x37ac7211	2.0557114e-05
84	0x3ca4fb72	0.02013943
85	0x36b9d3b6	5.538076e-06
86	0xb89f3729	-7.591985e-05
87	0x37934582	1.7556133e-05
88	0x370e9984	8.499603e-06
89	0xbc0d8b8a	-0.008639226
90	0x37833a02	1.5643429e-05
91	0x3700bf7f	7.673981e-06
92	0x3797ed48	1.8111095e-05
93	0x379ddccb	1.8818673e-05
94	0x3cdb1f32	0.026748274
95	0x37c927f4	2.3979672e-05
96	0xbf178dea	-0.5920092
97	0x3f7078be	0.9393424
98	0x3f6a49bc	0.9151876
99	0xbf0250dd	-0.5090464
100	0x3f7c0968	0.9845185
101	0xbef60833	-0.4805313
102	0xbf177ad2	-0.59171784
103	0xbe7b14ce	-0.24519655
104	0xbf132e2f	-0.57492346
105	0x3e39fa33	0.1816185
106	0xbe97598a	-0.295605
107	0xb7af3060	-2.0884152e-05
108	0x3f188997	0.59584945
109	0xbefbfe79	-0.49217585
110	0x3f09184d	0.53552705
111	0xbf1be53f	-0.60896677
112	0x3ddaa68b	0.10676297
113	0x3faa42c1	1.3301622
114	0x3f576de6	0.84152067
115	0xbe476f36	-0.19476017
116	0x3f5c8978	0.8614726
117	0x3f6a0e95	0.914285
118	0xbf1a8706	-0.6036228
119	0xbf473f4e	-0.7783097
120	0x3f370513	0.7149212
121	0xbef5d790	-0.48016024
122	0x3f90c359	1.1309615
123	0xb68da459	-4.22126e-06
124	0x3f907d30	1.1288204
125	0xbef41813	-0.47674617
126	0x3eac13c2	0.33608824
127	0xbf227a17	-0.63467544
128	0xbed3b2da	-0.4134739
129	0x3e2d6a6b	0.16935126
130	0x3f8d55b8	1.1041784
131	0xbe7d8b94	-0.24760276
132	0x3f8acd63	1.0843929
133	0xbf1a2754	-0.6021626
134	0x3e870b3f	0.26375768
135	0x3f0f3e93	0.55954856
136	0xbf28b2be	-0.6589774
137	0x3f602596	0.8755735
138	0xbf1b11d3	-0.6057407
139	0xb58c39cd	-1.0447635e-06
140	0xbed69f85	-0.4191858
141	0x3d8cb833	0.06871071
142	0x3f931b77	1.1492757
143	0x3e2aedcf	0.1669228
144	0x3fad02c7	1.3516473
145	0xbf0176a7	-0.50571674
146	0xbf36958e	-0.7132195
147	0x3f4735e9	0.77816635
148	0xbf0330f4	-0.5124657
149	0x3f4034c3	0.7508051
150	0x3f4fa5c0	0.8111229
151	0x3f260f1a	0.64866793
152	0x3f5ee017	0.87060684
153	0xbe027d50	-0.12743115
154	0x3ea4b9bc	0.32172954
155	0x352c03cc	6.408052e-07
156	0xbe4a100d	-0.19732685
157	0x3f2a9ae8	0.6664262
158	0xbf37d5a7	-0.7181038
159	0x3f63e21a	0.8901688
160	0x3e316947	0.17325316
161	0xbf42c46b	-0.7608096
162	0xbea459f0	-0.32099867
163	0x3e6e2036	0.23254475
164	0xbebbf7f0	-0.367126
165	0xbf2c2866	-0.67249143
166	0x3f5ab02b	0.8542506
167	0x3f8a3a63	1.0799068
168	0xbeee70c1	-0.465704
169	0x3f674d1b	0.9035203
170	0xbf4186ba	-0.755962
171	0xb5c7e491	-1.4893177e-06
172	0xbf658e7b	-0.8967053
173	0x3f0f3417	0.5593886
174	0x3eacb080	0.3372841
175	0x3f6bae28	0.92062616
176	0xb54ca338	-7.6233437e-07
177	0x34770824	2.3006629e-07
178	0x36c4f802	5.870127e-06
179	0x35fe325b	1.893913e-06
180	0xb657aeae	-3.2139174e-06
181	0xb715b41c	-8.923027e-06
182	0x3616ac80	2.245215e-06
183	0x35ba41ec	1.3877266e-06
184	0xb613ac90	-2.2005152e-06
185	0xb60ec623	-2.127498e-06
186	0x36f54214	7.3092615e-06
187	0x35e4a1e4	1.703444e-06
188	0xb5c9f297	-1.504627e-06
189	0x36556360	3.1797317e-06
190	0x36aae8f5	5.0935146e-06
191	0xb74f4527	-1.2354262e-05
192	0x3f1569a5	0.58364326
193	0x3f4140af	0.75489324
194	0xbdedcbb6	-0.116111204
195	0x3e47a8ae	0.1949794
196	0xbe22d133	-0.15900116
197	0x3f942fc4	1.1577077
198	0xbeed75b3	-0.4637886
199	0xbf556a68	-0.8336549
200	0x3f714920	0.94252205
201	0xbf67e415	-0.905824
202	0x3f948659	1.16035
203	0x36d21a64	6.26156e-06
204	0x3f89d672	1.0768569
205	0xbdde46ad	-0.10853324
206	0xbeaf5c5e	-0.34250158
207	0xbef382ac	-0.47560632
208	0x3f99776f	1.1989573
209	0xbedb6e9b	-0.42857823
210	0xbf268831	-0.6505156
211	0x3f970c5d	1.1800648
212	0xbf3368fc	-0.7008207
213	0x3f3019f4	0.687896
214	0x3f483218	0.78201437
215	0x3f1fe98b	0.62465733
216	0x3f6e62de	0.9311961
217	0xbe172e64	-0.1476379
218	0x3eb63e3f	0.35594365
219	0xb5c358bc	-1.4554457e-06
220	0xbe40e49d	-0.18837209
221	0x3f43ea8d	0.7652977
222	0xbf0da42c	-0.5532863
223	0x3ea8b4aa	0.32950336
224	0x3e110577	0.14162241
225	0xbf343701	-0.7039643
226	0xbea8cef9	-0.32970408
227	0x3f266fa6	0.6501411
228	0xbed4d3f3	-0.41567954
229	0xbf1b5d7f	-0.6068954
230	0x3f6c4ea5	0.923075
231	0x3f4959f8	0.78652906
232	0xbed584d0	-0.4170289
233	0x3f2c8b23	0.67399806
234	0xbf3ac640	-0.72958755
235	0x358d3293	1.0520038e-06
236	0xbf4c4276	-0.7978891
237	0x3f16d37b	0.58916444
238	0x3ea96456	0.33084363
239	0x3f74e8aa	0.9566752
240	0xbe9d92a6	-0.30775946
241	0xbdd513de	-0.1040418
242	0x3f683d1e	0.9071826
243	0xbd28d335	-0.041217048
244	0x3f218956	0.63100183
245	0xbf6d7de6	-0.9277023
246	0x3ed6973c	0.41912258
247	0x3f049097	0.51783127
248	0xbf2295be	-0.6350974
249	0x3f87da66	1.0613525
250	0xbf3566b4	-0.7085984
251	0xb64e220a	-3.0716205e-06
252	0xbee6ecfa	-0.45102674
253	0x3db10f8b	0.08645543
254	0x3f889054	1.0669045
255	0x3ed70ce2	0.42002016

conv3.bias f4 [3]
0	0x3e98495e	0.29743475
1	0xbebe8328	-0.3720944
2	0xbc514304	-0.012772325

conv3.lin.weight f4 [3, 16]
0	0xbfb5cf79	-1.4203941
1	0xbf1b9fcd	-0.6079071
2	0x36d3ed0d	6.3158864e-06
3	0xbf94156d	-1.1569039
4	0xbe95a118	-0.29224467
5	0xbc37d52c	-0.011220258
6	0x3f94747a	1.1598046
7	0x3f9fad0a	1.2474682
8	0x3f4badbc	0.7956197
9	0xbfdcfebe	-1.7265241
10	0xbf903eae	-1.1269128
11	0x371c35d8	9.310861e-06
12	0xbdea2a19	-0.11433811
13	0xbf97e1a0	-1.186573
14	0xbf3ef3d1	-0.74590784
15	0x3fa2f493	1.2730888
16	0x3f30c6d5	0.69053394
17	0x3f93af4e	1.1537874
18	0xb720a62d	-9.575434e-06
19	0x3fab3265	1.3374754
20	0xbfb5518c	-1.4165511
21	0x3a5914d3	0.0008280996
22	0xbf809f02	-1.0048525
23	0xbf85618d	-1.0420395
24	0x3dc17a4d	0.09447155
25	0x3f32adf8	0.69796705
26	0x3fbe691c	1.4875827
27	0x383e3a46	4.53538e-05
28	0xbf981d87	-1.1884011
29	0x3f943a7f	1.1580352
30	0x3f98b415	1.1929957
31	0x3f5bdf9b	0.8588807
32	0x3f8b3a21	1.0877115
33	0xbf443de0	-0.76656914
34	0x3804de06	3.1678028e-05
35	0xbf84d438	-1.0377264
36	0x3f7ca421	0.9868794
37	0x3964d362	0.0002182252
38	0xbf1bc466	-0.60846555
39	0x3f888a68	1.0667238
40	0xbf8eef9f	-1.1166877
41	0x3f3ba70c	0.7330177
42	0xbf8a6ebc	-1.0815043
43	0x36aeb22c	5.206346e-06
44	0x3f8a8bc2	1.0823901
45	0x3f9ffb33	1.2498535
46	0xbf086f80	-0.53295135
47	0xbf818dad	-1.0121361
