models/PubMed_gin_model.pth (torch, 49082 bytes, 26 tensors)

conv1.nn.0.weight f4 [16, 500]
000000 62 d6 44 be 0f 2b c4 bd 61 dc 1e 3d 59 0d 49 3d
       -0.19222406 -0.09578525 0.03878439 0.049084995
000010 38 eb 12 be 07 00 cd bc f5 e0 6f bd 98 a4 e1 3d
       -0.14347541 -0.025024427 -0.058564145 0.11017722
000020 52 44 6d bd 7f 5b 14 3e 86 da 22 3e 38 8c 0c 3e
       -0.057926483 0.14488028 0.15903673 0.13725364
000030 6b c3 0c 3e 81 2d c9 3d 71 c0 3b 3e a2 92 c5 3b
       0.13746421 0.09823132 0.1833513 0.006029443
000040 2f 02 a0 be fd e3 32 3c 8f c1 8c bd 31 81 04 3e
       -0.31251666 0.010918614 -0.06872856 0.12939908
000050 58 d1 20 3d d7 ce db 3d 96 04 3f 3d da 06 9a bd
       0.039262146 0.10732811 0.046635233 -0.07520838
000060 7b a6 84 bd 3a 05 90 bc c3 77 09 3b 12 23 0f 3d
       -0.06477066 -0.017580617 0.0020975925 0.034945555
000070 40 f5 0b be 86 2d 34 bc cb 28 aa 3c f8 e6 88 3d
       -0.13667774 -0.010997182 0.020771405 0.06684679
000080 81 c5 80 bd ed 2b 35 3d e4 e0 b5 bd 8c c4 08 3e
       -0.06287671 0.044231344 -0.08880785 0.13356227
000090 40 96 5d bd 7a db 30 3e 0f d3 d4 bd 49 33 bd bc
       -0.054098368 0.17271224 -0.10391819 -0.023095744
0000a0 54 e3 e1 bd c4 9e 37 bd 7f 9f d3 3c 69 58 bb bd
       -0.110296875 -0.044829145 0.02583289 -0.09147722
0000b0 e3 48 49 bd a1 21 df 3d 63 ce d0 bd 73 9a a0 bd
       -0.049141776 0.10895086 -0.10195615 -0.07841959
0000c0 f7 cc a3 bc d6 88 74 3e f7 d3 a1 3d a7 bc 34 3c
       -0.019995196 0.23880324 0.07901757 0.011031306
0000d0 bb d7 a5 3d 16 3b f1 3d fa 1e 18 bc 58 dd 60 3e
       0.08097788 0.11778848 -0.009284729 0.21959436
0000e0 cf 3c 64 3e c6 d9 f0 3d 79 dd d5 bd 04 29 11 3e
       0.22288822 0.11760287 -0.10442633 0.14175802
0000f0 68 ce 88 3d 0f 83 9a 3c cb 1b 02 3e 9a a4 24 be
       0.06679994 0.018861322 0.12705915 -0.16078416
000100 c3 07 b1 bd e2 42 9e bd 20 f4 e8 39 84 5d 0e 3e
       -0.086440586 -0.07727601 0.00044432376 0.13902861
000110 60 bb 19 3d b4 8f 98 3d 42 c9 f5 3e 92 6d 68 3d
       0.03753221 0.07449284 0.4800511 0.05674512
000120 15 2d d6 3d b5 96 34 3c 61 91 88 be ad 73 c5 3d
       0.104578175 0.0110222595 -0.26673415 0.09641204
000130 60 f5 61 be f8 50 11 be 8f 17 7a 3d 5a 45 5d bb
       -0.2206626 -0.14191043 0.061057623 -0.003376326
000140 29 7a b1 3c 01 2b 07 bd 44 3d c6 bd 2b 3b 4a bd
       0.021664696 -0.032999996 -0.09679654 -0.049372833
000150 16 a6 8b bd c5 2c 1e 3d 04 33 09 3e 30 ef 28 3e
       -0.06818788 0.038616914 0.13398367 0.16497493
000160 a4 db 31 3e 01 d0 d7 3e 1f b6 d1 3d a3 5e 11 3e
       0.17368942 0.42150882 0.10239815 0.14196257
000170 48 34 14 3b 94 2f 4c bd 40 7c 69 bc 37 19 b1 3c
       0.002261417 -0.04985006 -0.014250815 0.021618469
000180 9a eb 0c 3e b2 de 79 3d 06 3e de 3b d8 19 ac bb
       0.1376175 0.061003394 0.006782296 -0.0052521043
000190 43 f9 cc bc 4d cc bd 3d 13 0d 86 3c 31 b2 86 3d
       -0.025021201 0.09267483 0.016363656 0.06576956
0001a0 54 36 d4 3d 47 49 ca 3d bb 47 28 3b 34 4b e2 3d
       0.10361925 0.09877258 0.002567752 0.110495
0001b0 27 27 f6 3d 2b 65 c9 3d c6 1b 1f bd 1f 75 1b 3d
       0.120191865 0.098337494 -0.038844846 0.037953492
0001c0 c3 02 08 3e ef 7a 0a 3e 9a ac 9a bd 50 e5 d0 bc
       0.13282304 0.13523458 -0.075524524 -0.02549997
0001d0 b6 bc 2f 3d 9f 10 b6 3c 2f 12 e1 3d 25 3b 3c bc
       0.04290458 0.022224722 0.10989796 -0.0114887105
0001e0 f3 49 c1 3d ef 91 be 3d 67 53 bb 3d c8 1c 67 bd
       0.09437933 0.093051784 0.09146767 -0.056423932
0001f0 d7 cd 12 be 8e 2c 45 3e ef be 12 3e ee 9b cc 3d
       -0.14336334 0.19255278 0.14330648 0.09990679
000200 97 ec e1 bc 22 a3 b6 bd e2 69 45 3e d6 78 9e 3d
       -0.027578635 -0.08917834 0.19278672 0.077378914
000210 34 f8 2f bd 7c eb 57 3e fb dd 57 3d c1 f7 2f 3e
       -0.042961314 0.21085924 0.05270193 0.17184354
000220 fd e3 07 bd 60 9f b4 3d 1f 4a 57 bd 21 b1 f1 3e
       -0.03317641 0.08819461 -0.05256092 0.4720545
000230 54 53 10 be f2 84 ea 3d f4 d5 6e 3d 5b be d2 3b
       -0.14094287 0.114511386 0.05830951 0.0064313835
000240 fb e4 93 3b 9c dd 71 bd 1e b7 27 3d 23 2b e7 bd
       0.0045133806 -0.059049234 0.04094612 -0.112875246
000250 f6 70 93 3d 2c 48 96 3c f4 c4 91 bc 71 b2 4b bd
       0.0719928 0.018344961 -0.01779411 -0.04973072
000260 25 61 f1 3d 94 83 d0 3e db 3a 27 3d e6 d3 78 3e
       0.11786107 0.40725386 0.040827613 0.24299583
000270 b4 1a da 3d a8 f2 3f 3c 52 a5 12 3d 2e c2 e5 bd
       0.106496245 0.011715569 0.035802193 -0.112186775
000280 5b 0e 84 3d 80 88 ef bc f8 54 13 3e c1 5e 68 3e
       0.064480506 -0.029239893 0.14387882 0.22692396
000290 4a 05 8d bd ed 4e 56 3d e1 f5 88 3d 70 f4 ed 3c
       -0.068857744 0.052321363 0.06687523 0.029047221
0002a0 39 73 1d 3d 24 91 37 be 0f 37 36 3e fc 5e 15 be
       0.038439963 -0.1792646 0.1779444 -0.14587015
0002b0 3c 10 42 3d 68 a8 ac bd 06 82 0d bd 62 3b 5e 3d
       0.047378764 -0.084305584 -0.03454783 0.05425585
0002c0 e7 97 d6 3d 51 c4 4c bd b3 1c 3c bb 3b c2 a5 3d
       0.10478192 -0.04999191 -0.002870363 0.08093687
0002d0 dc 25 63 bd b0 fc db bd 62 94 c7 bd 6c 18 1d 3d
       -0.055456027 -0.10741556 -0.09745099 0.03835337
0002e0 92 43 8a be 10 e5 e6 3d 4a 93 e6 bd f2 36 8c bb
       -0.27004677 0.11274159 -0.11258562 -0.004279011
0002f0 15 ce 51 3d 0f 76 84 3c 9b 70 18 3e 16 4a 46 3c
       0.051221926 0.016169576 0.14886706 0.012102624
000300 dc 9c ad 3d bb b1 a9 3d 3c 30 6e 3d 52 cd 8b 3d
       0.08477184 0.082858525 0.05815147 0.06826271
000310 52 8a 3e 3d 20 78 d0 3c 55 91 9c bd 3d b0 4d 3e
       0.04651863 0.025447905 -0.076449074 0.20086761
000320 99 05 42 3b 5f 00 d3 3d b7 e5 96 bb cd dc de 3d
       0.0029605387 0.10302805 -0.004605021 0.10881958
000330 c2 59 bd 3c e3 72 b2 3c 6a 47 71 3d 38 fd 37 bd
       0.023114089 0.021783298 0.058905996 -0.044919223
000340 4b 39 44 bd 32 eb be 3c 6b 85 40 3c b9 c6 01 bb
       -0.0479062 0.02330551 0.011750559 -0.0019802286
000350 c8 e9 d8 3d 42 7b 19 3d ce de 25 3b be 61 a1 3d
       0.10591465 0.037471063 0.0025309804 0.07879971
000360 7a 3c bc 3d c7 1e 0a bd 06 86 2b bd e4 62 08 3d
       0.091912225 -0.033720758 -0.04187586 0.033297434
000370 55 3f 1a be ca 44 30 3d b2 ad 29 3e 6c cd 06 bd
       -0.15063222 0.043034352 0.16570166 -0.03291075
000380 f9 87 ec bc 41 11 c6 3d 1a 6e 5c bd 26 df 95 bd
       -0.02887343 0.0967126 -0.05381594 -0.07317953
000390 18 74 77 3d 47 2d 81 bd 68 c1 7e 3d ba 3a 3d bd
       0.06041345 -0.06307464 0.062196165 -0.046198584
0003a0 3e 88 8f 3d a6 05 3d 3d 24 6d ae 3d f0 1a e0 bd
       0.07008408 0.046147965 0.08516911 -0.10942638
0003b0 47 a9 02 3d 00 4a 39 3d 18 41 1a bc f5 a2 45 bd
       0.031899717 0.045236588 -0.009414934 -0.04825111
0003c0 05 de 52 3e e5 ad e0 3d 09 f2 2d 3d 99 50 27 3e
       0.20592506 0.10970668 0.04246715 0.1633934
0003d0 85 5e 85 3d 38 3e c7 3d f3 e2 41 3e 01 23 28 3e
       0.06512169 0.09728664 0.1893423 0.16419603
0003e0 78 f3 12 3d 47 12 84 bd 24 dc 16 bb a4 96 02 3f
       0.03587672 -0.064487986 -0.0023019398 0.5101111
0003f0 09 50 39 3e 77 92 42 bd 3a a4 c0 3d 97 d9 dd 3d
       0.18096937 -0.04750296 0.09406324 0.108325176

conv1.nn.0.bias f4 [16]
000000 b2 c4 23 3d 89 fb b2 bd a1 d9 cb bd f4 9f 11 3d
       0.039982505 -0.08739383 -0.09953619 0.035552934
000010 1e 59 a4 3c cd 37 a7 bd c3 b5 8a bd d2 2e cf 3d
       0.020062026 -0.0816494 -0.067729495 0.10116352
000020 6e 73 8b bd e4 d8 9f bc 25 96 32 bd 4f 87 c7 bd
       -0.06809126 -0.019512601 -0.04360022 -0.09742605
000030 b1 cd be bd 3d 38 d2 3d 55 66 17 bd 6d 4e 1c bd
       -0.09316576 0.10264633 -0.036962826 -0.03816073

conv1.nn.2.weight f4 [16, 16]
000000 05 d0 3e 3e df 74 10 b7 c4 84 c3 bd 4c 0c 9a 3c
       0.1863404 -8.61028e-06 -0.095468074 0.018804692
000010 7c ff 7a be f0 73 e5 3d 73 5d 91 3d 66 84 9e bd
       -0.24511522 0.11203754 0.07097902 -0.07740097
000020 80 43 16 3d 1c 98 7c 3e 19 57 c6 bd 0f 03 fe 3d
       0.036685467 0.246674 -0.09684581 0.12402927
000030 7d 57 c3 3a 15 54 ac 3d 3e ec 74 be b7 e7 9c bd
       0.0014903393 0.08414475 -0.23918244 -0.076613836
000040 8a c4 ae be 71 eb e6 3c f1 94 31 3e ef 6d 8d 3d
       -0.34134322 0.02818844 0.17341973 0.06905734
000050 8c 4b 90 be ba ae 6d bd c7 72 b0 3d 43 ed 62 be
       -0.28182638 -0.05802796 0.08615642 -0.2216082
000060 c9 84 68 3e a0 a9 3b be 4b ea d3 be 82 37 83 bd
       0.22706904 -0.18326426 -0.4138969 -0.06407072
000070 5e d4 a3 3b 96 aa e6 3d 1a cc 60 3e 8a e4 73 3d
       0.0049996814 0.112630054 0.21952859 0.059544124
000080 e5 9d 7f bd cf 71 8e bd 92 ac c5 3d 12 c0 6e bd
       -0.06240644 -0.06955301 0.09652056 -0.05828864
000090 01 6d 57 3e 16 0c 83 be 6f 29 1b bc 4c 38 9a 3e
       0.21037675 -0.25595158 -0.009470328 0.30121076
0000a0 11 de 9c 3d 25 b2 b9 bd b5 e3 26 3e 07 15 05 3d
       0.07659543 -0.090671815 0.16297801 0.032490756
0000b0 a5 74 9e 35 e4 04 06 3d 05 b9 2b be 83 53 8d bc
       1.1805865e-06 0.032719508 -0.16769798 -0.017251736
0000c0 7d 0e 0a bd 25 0f bf bc cf b3 89 3d 92 cd e3 bb
       -0.033705223 -0.023322651 0.06723749 -0.006951996
0000d0 de e4 63 bd 60 b5 89 bc 9e 3f ff bc f2 f7 20 be
       -0.055638187 -0.01681012 -0.031158265 -0.15719584
0000e0 29 d0 dd bd 36 87 fe bb 86 0c f9 3d e5 17 a4 3d
       -0.10830719 -0.0077675832 0.12160592 0.0801237
0000f0 24 a5 0c ba f9 b9 0c 3b 76 a5 c3 bc 86 59 81 3c
       -0.0005365184 0.0021473153 -0.023882609 0.015789758
000100 63 2d 46 be a1 a2 81 3d 5c 38 fe bc 8c 0c 04 3e
       -0.19353251 0.06329847 -0.031032734 0.12895411
000110 74 bc a6 be 7e 86 8a 3b 63 11 42 3c 56 9f 73 bc
       -0.32565653 0.0042274585 0.011844966 -0.014869532
000120 d4 99 b7 bd 61 cc 11 3e da b2 3a 3c 02 14 b0 3b
       -0.08964887 0.1423812 0.011395181 0.005373479
000130 2e 11 c9 39 2d 8f b9 be 24 1f 9b 3e 6a 36 11 38
       0.00038350507 -0.36242047 0.30297196 3.462137e-05
000140 fc 7e 13 bd 4c e7 09 bd 92 b2 c4 3d f8 13 cd 3d
       -0.036009774 -0.033667848 0.09604372 0.10013574
000150 3f ee bb 3b 3c de e2 3d 6d 26 85 bd 68 3f 3f 3d
       0.0057351883 0.11077544 -0.0650147 0.04669133
000160 40 e8 dd 3d d2 a4 d7 3e 67 73 87 bd b2 f8 25 3d
       0.10835314 0.42117935 -0.06613808 0.040520377
000170 b8 59 60 bd 1f b7 0e 3e 27 a6 9b bc 51 33 d0 35
       -0.054773062 0.13937043 -0.019000126 1.5512143e-06
000180 3c a7 9f 3d e7 03 11 bc ac 1b 5c bd 5d 6d c4 bd
       0.07795569 -0.008851028 -0.053737327 -0.09591172
000190 b2 da 70 3e dc 36 e7 3d cc c9 e6 bd 2e ed 3c 3e
       0.23520926 0.112897605 -0.112689584 0.18449852
0001a0 c4 41 50 3e 88 73 91 be d5 75 94 3d c4 51 c8 3d
       0.20337588 -0.28408456 0.07249037 0.097812206
0001b0 fd c0 89 3d f2 cf 1b 3e d9 63 9f bc 19 c6 4d b9
       0.06726263 0.15216044 -0.01945679 -0.0001962412
0001c0 ee 71 52 3e a8 27 61 b8 23 93 64 3e a2 70 30 3e
       0.20551273 -5.3681113e-05 0.22321753 0.17230466
0001d0 0f 93 51 3e ba 91 2c 3e 5d 43 30 3d da 3c b8 bd
       0.20466255 0.16852465 0.043032993 -0.089959815
0001e0 5c 85 67 3e 48 f8 55 3e 79 ae 87 3d 6b 1f 8d bb
       0.22609466 0.20895493 0.06625075 -0.004306724
0001f0 a4 60 de bc 39 28 50 3e 58 4a 31 3e c8 9f 81 37
       -0.027145691 0.20327844 0.17313516 1.5452402e-05
000200 28 eb a9 be 9a 74 71 b7 88 82 97 3e e3 a5 d9 bd
       -0.33187222 -1.4391868e-05 0.29591775 -0.106273435
000210 69 88 de 3d 9d 30 12 be 1d ab df 3d 58 21 36 be
       0.10865862 -0.14276357 0.10921309 -0.17786157
000220 01 bd be 3c f8 d8 84 bd dc 89 be be 1a c2 32 bd
       0.023283483 -0.06486696 -0.37214553 -0.04364214
000230 5b 94 13 b8 76 45 8e be 45 ec 2b be 54 3a ec 3d
       -3.5185698e-05 -0.2778737 -0.16789348 0.11534563
000240 dc 11 92 be 92 16 ff 3d c4 0e 37 3e 50 7b 2b be
       -0.2852925 0.12455477 0.17876726 -0.16746259
000250 44 51 d6 3d 5e e5 45 be 02 1a d1 3c c4 21 c5 3c
       0.10464719 -0.19325778 0.025525097 0.024063952
000260 84 e8 70 be a0 cc 75 bd 0b 2d 37 3d 46 74 94 bd
       -0.23526198 -0.0600096 0.04472069 -0.0724874
000270 1e 16 a5 bd 85 53 20 3e 71 72 04 be 60 df 1f bc
       -0.08060859 0.1565686 -0.12934281 -0.009757847
000280 ce 44 8a 3e 86 ef b1 3d 19 cf df bc f9 34 74 be
       0.2700562 0.086882636 -0.027320432 -0.23848332
000290 23 10 82 be 99 4b 81 3d 5f 78 49 bd 60 70 7c 3e
       -0.25402936 0.06313247 -0.04918706 0.24652243
0002a0 40 91 2e 3e 9c f7 de 3d c5 ba ea 3d 80 85 76 3d
       0.17047596 0.108870715 0.11461405 0.06018591
0002b0 be 46 2a 3c e4 8b cc ba b4 38 2a bc 8a 13 a3 bd
       0.010392843 -0.0015605655 -0.010389496 -0.07962711
0002c0 c4 bf 36 bd 95 9c 7a 38 14 95 80 3e e6 62 83 be
       -0.044616476 5.9750473e-05 0.25113738 -0.2566139
0002d0 fc 25 09 be 5c ec bb 3d bd a2 c2 bd 52 6c 90 bd
       -0.13393396 0.09175941 -0.09503696 -0.070519105
0002e0 a2 01 b7 3d 95 71 ea 3d f4 a0 34 3e 9b b2 28 3e
       0.08935858 0.11447445 0.17639524 0.16474383
0002f0 39 14 a7 bc cd cf 1c be ef 46 67 3e 68 e0 4c bd
       -0.020395385 -0.15313645 0.22585653 -0.050018698
000300 f3 7d 9d 3d f0 66 2c 34 ec ea 8a bd 43 0d ca 3c
       0.076900385 1.6056197e-07 -0.06783089 0.024664527
000310 36 6e 5a be 65 5a d1 bd 7d 57 55 36 fb ac a7 3e
       -0.21331105 -0.102223195 3.1790398e-06 0.3274916
000320 6a 3b 8d 3d 36 ed 4c be 34 0b b7 3d d5 be 0d bd
       0.06896098 -0.20012364 0.08937684 -0.03460582
000330 54 fe 90 b5 2d d8 1c be 59 29 94 3d 13 8a 52 b6
       -1.0802855e-06 -0.1531684 0.07234449 -3.1372808e-06
000340 30 e6 28 3e f3 96 41 ba c7 04 c0 be 00 c3 cb bd
       0.1649406 -0.0007384859 -0.37503645 -0.09949303
000350 09 4a 27 be 3f 9f 92 3e c9 01 37 3e 2c 49 4b be
       -0.16336836 0.2863712 0.17871775 -0.19852132
000360 a3 a5 14 bd 16 b5 15 be 9f 00 48 3d c2 21 41 3e
       -0.036290776 -0.1461986 0.048828717 0.18860534
000370 7d ba 44 3d 17 e2 bc 3c 3d 0d 52 3e 40 18 1a 3e
       0.04802941 0.023057027 0.20512863 0.15048313
000380 e4 3d 7d bd f7 ea 0d 36 94 12 7d b6 c7 78 2c bd
       -0.0618266 2.1147405e-06 -3.7710752e-06 -0.04210737
000390 96 7b 18 36 18 a1 04 ba bc c3 e3 35 e0 7c bd 3d
       2.2721701e-06 -0.0005059405 1.6969784e-06 0.09252334
0003a0 ab 78 06 be f0 64 bd b4 fd f4 97 36 60 fb e4 32
       -0.13131969 -3.5277435e-07 4.528671e-06 2.6657005e-08
0003b0 18 d2 b9 35 37 6c 27 36 b8 db 94 bd a3 d4 87 b6
       1.384472e-06 2.4947929e-06 -0.072684705 -4.0480677e-06
0003c0 5c 7b da bd 58 a8 9a b9 fb 16 87 3e e4 99 e4 bd
       -0.1066806 -0.00029498595 0.2638472 -0.11162165
0003d0 a5 da 93 3e f4 54 9a 3d 6c 64 82 3c ac ae 49 be
       0.2887775 0.07535735 0.015917026 -0.19695538
0003e0 60 07 75 3d 53 53 41 3d 05 21 2b be 69 12 a9 3c
       0.059821486 0.047198605 -0.16711815 0.020638661
0003f0 66 72 ec 3c 46 9c 0d 3e 33 ff fa 3d 04 22 5a 37
       0.028863143 0.13829145 0.12255707 1.3001732e-05

conv1.nn.2.bias f4 [16]
000000 1f d1 af 3d b4 bb 03 3e 82 1c bf 3c e1 59 1c be
       0.085848086 0.12864572 0.023329023 -0.15268661
000010 a4 fb 00 3e 35 04 fe bd 19 c0 86 3c a9 ec 1f bd
       0.12595993 -0.12403146 0.016449021 -0.039044056
000020 24 5f 3e 3e 5a 41 d2 3d ca 01 b6 bd 6a 31 6b 3d
       0.18590981 0.10266371 -0.0888706 0.05742017
000030 d4 83 0c 3c 61 63 0a 3e 2e 6c 2b be 51 b2 cb bd
       0.008576352 0.13514473 -0.16740486 -0.099461205

conv1.nn.4.weight f4 [16]
000000 7c 20 5c 3f 7c 22 7b 3f 2e 2f 63 3f b3 72 23 3f
       0.8598707 0.98099494 0.88743865 0.6384689
000010 62 2a 7c 3f 1f 84 19 3f 53 92 56 3f f3 b0 73 3f
       0.9850217 0.59967226 0.83817023 0.9519188
000020 13 b9 75 3f 2f 67 62 3f 3f 07 64 3f f2 e5 3e 3f
       0.95985526 0.88438696 0.89073557 0.7456962
000030 e6 d2 3e 3f fd 32 78 3f 38 4a d1 3c 31 d1 4e 3f
       0.74540555 0.969528 0.025548086 0.8078795

conv1.nn.4.bias f4 [16]
000000 b6 d9 cf 3b ee 88 03 be 3c ad 9b bc fa 3c 65 bb
       0.006343092 -0.12845203 -0.019003503 -0.0034978972
000010 ea 66 05 3e 1e 35 c7 bc 09 ef 15 3e f8 a4 d3 3b
       0.1302754 -0.02431732 0.14641966 0.006458875
000020 a1 48 ea bc 63 17 22 be 4b ed ea 3d 1f 6b 18 be
       -0.028599085 -0.15829234 0.11471041 -0.14884613
000030 4e 68 f2 3d 6b 4d 4c 3e fa 1b 71 3e ea f2 82 bc
       0.11836301 0.19951408 0.23545828 -0.015984971

conv1.nn.4.running_mean f4 [16]
000000 0c 29 3f 3e a9 be 56 3c e8 71 21 3e 85 99 87 28
       0.18668002 0.01310698 0.15766108 1.505459e-14
000010 bf 49 27 3d 59 1d 61 3d 9d c8 48 3e 8f 39 58 3e
       0.040841814 0.05495963 0.19607778 0.21115707
000020 10 f5 16 3c f2 87 ab 3c f2 5a 66 3e c7 e9 78 3c
       0.009213701 0.020938847 0.2249563 0.015192456
000030 bd 9f 53 3e 3a 08 ba 3d be 2d c7 25 f4 9c e1 3a
       0.20666404 0.090836 3.4551993e-16 0.0017212913

conv1.nn.4.running_var f4 [16]
000000 23 c4 c6 3c 80 04 77 3a c6 f4 90 3c 80 ed 41 30
       0.024263447 0.0009422973 0.017694842 7.05505e-10
000010 41 8f f3 3a 22 f2 ef 3c 34 b0 5f 3d 5e 20 d5 3d
       0.0018582122 0.029290263 0.0546114 0.10406564
000020 7d 13 fc 39 9a 31 e8 3a b7 62 25 3e e5 19 81 3b
       0.00048079705 0.0017714978 0.16150938 0.0039398544
000030 d8 0c 72 3d 0d bb c8 3b 6d ed 41 30 16 d1 16 3a
       0.05909428 0.006125814 7.0550393e-10 0.0005753202

conv2.nn.0.weight f4 [16, 16]
000000 05 4d b3 bd 51 63 19 be 3d fb 6c 3d 3c 9c c2 3d
       -0.08754925 -0.14979292 0.057856787 0.095024556
000010 96 a2 1c 3e 2c 98 54 be 11 93 4d 3e 18 b0 87 bd
       0.15296397 -0.20761174 0.20075633 -0.06625384
000020 35 e6 85 3e a2 7d 8c 3d 67 03 c6 3d a5 4e 54 bd
       0.26152197 0.068599 0.09668618 -0.051832814
000030 e3 8c 95 3e 6c 19 7b bd a7 05 82 bd f2 0f 2f be
       0.2920905 -0.06130354 -0.06348734 -0.17095926
000040 fe fe e8 bc 8c ea 05 bf e4 63 ec bd be 12 62 bd
       -0.028441902 -0.52311015 -0.1154249 -0.055193655
000050 61 83 52 bd f0 60 9c 3c 03 c1 0e 3e 13 35 f5 3c
       -0.051394824 0.019089192 0.13940816 0.029932534
000060 fd a6 2f 3e 05 3f c0 be 5e 01 b6 bd 62 7c 84 be
       0.17153545 -0.3754808 -0.088869795 -0.25876147
000070 47 3d 4e be 63 17 69 3e 08 df 66 be bb 6e 97 be
       -0.20140563 0.22762828 -0.22546017 -0.29576668
000080 69 a2 76 be 64 72 ab be 68 0a 56 3e 89 84 1b 3d
       -0.24085392 -0.3348571 0.20902407 0.037968192
000090 50 87 1b be 27 f4 02 bc 9c f3 d5 3d 0d b1 62 be
       -0.15188336 -0.007992781 0.104468554 -0.22137852
0000a0 be b6 d6 be 0c a0 27 be 32 66 83 3b 22 96 34 3e
       -0.41936296 -0.16369647 0.0040099854 0.17635396
0000b0 f0 be 45 3e ae 48 73 3c 86 0a 8b 3d b9 b5 7a be
       0.19311118 0.014848871 0.067891166 -0.24483384
0000c0 f5 b6 c0 3c f2 a7 60 3e fc ab 00 bd bd 97 13 be
       0.02352474 0.21939066 -0.031414017 -0.14413352
0000d0 70 cc c3 be 99 2e 88 3d ad 65 53 be f5 c8 1b be
       -0.3824191 0.06649513 -0.20644255 -0.15213378
0000e0 1b 32 ad 3d 9e cb 8f 3d a6 3c 30 3e ef 85 6c bd
       0.084568225 0.07021259 0.17210636 -0.057744917
0000f0 69 5e 3d 3e 75 c5 fa bd dd e5 9c bd 73 8f 4d 3d
       0.18493046 -0.12244693 -0.076610304 0.050185632
000100 98 cf d9 3c b7 1e b2 3e 8e 54 a0 bd 45 a8 19 bc
       0.026588246 0.3478906 -0.078286275 -0.0093784975
000110 f6 fe 4c 3e 78 94 fb bb 32 30 2b 3d 57 34 eb bd
       0.20019135 -0.007677611 0.04179401 -0.114845924
000120 40 51 9a 3d 2f 25 ea bd b8 d8 32 3d b6 df 0e 3e
       0.075350285 -0.114328735 0.04366371 0.13952526
000130 79 22 11 bd fd 4e a1 bd 75 b7 76 be e6 7c 01 be
       -0.035433266 -0.07876394 -0.24093421 -0.12645301
000140 4d cc 0c 3e 9b 48 32 be 85 57 b1 3d 04 95 3b 3c
       0.1374981 -0.1741051 0.08659271 0.011449102
000150 04 93 8c 3e 5d 8e 65 bd 73 bf d8 bd fb 13 e1 bd
       0.27455914 -0.05604397 -0.10583391 -0.10990139
000160 49 23 d8 be 75 18 8d be 5a 5d e4 3d 8f 94 fa 3c
       -0.4221442 -0.27557722 0.11150618 0.030588416
000170 a9 aa 1a 3e 28 98 7f 3e 65 a5 c5 bc 2f 47 53 3c
       0.15104164 0.24960387 -0.024126718 0.012895389
000180 64 de 43 be 8e 7b 0e 3e 60 ae 4c 3e 4c 19 40 bd
       -0.19127804 0.1391432 0.19988394 -0.046899125
000190 49 2a 09 be 94 10 a5 3d 83 ba 00 3e 75 35 43 3e
       -0.13395037 0.08059803 0.12571149 0.19063361
0001a0 34 5c 54 be 82 36 a1 3e 99 ca 5e be db 7d 2c 3e
       -0.20738298 0.314869 -0.21756972 0.16844885
0001b0 98 6a ae 3d cf f6 6c 3e 2f e8 43 3e 60 3b b1 3c
       0.08516425 0.23141025 0.1913154 0.021634758
0001c0 dc ad 43 bc 9a 73 06 3c 95 40 7a be e7 aa b0 3d
       -0.011943307 0.0082062725 -0.24438699 0.08626347
0001d0 be da a9 3d 35 42 07 be 34 dc 4c be 8d ec 3d be
       0.08293675 -0.1320885 -0.20005876 -0.18547268
0001e0 3c 0c ff 3d fc d9 dd bd 26 37 1a be 36 d7 d1 3d
       0.124535054 -0.10832593 -0.150601 0.10246126
0001f0 97 95 1f 3e 70 12 78 be ff 6a 3f 3d 03 67 00 3e
       0.15584408 -0.24225783 0.0467329 0.12539296
000200 b6 02 f9 bd 76 0c 9c 3c 6c 37 9a be ff 61 e0 bb
       -0.1215872 0.01904891 -0.3012041 -0.0068476195
000210 29 41 2d be b4 1c 7a 3b c9 ad 33 be 8f de 8c bd
       -0.16919388 0.003816408 -0.17546763 -0.06878387
000220 85 fc 49 3e af 70 a3 bd e4 72 cb 3d 3a a8 c0 3d
       0.19725235 -0.07980477 0.09934023 0.09407087
000230 da 52 1b 3e 73 22 25 3e 1d 39 81 bd bc ee fa bd
       0.15168324 0.16126423 -0.063097216 -0.12252566
000240 d4 b0 49 3d de 2a f7 bb 94 40 48 be 18 05 6b 37
       0.049240902 -0.007542952 -0.19555885 1.40082775e-05
000250 bb a7 93 3d 06 e8 4f 3b 94 0a 27 be c6 f0 c4 bd
       0.072097264 0.003172399 -0.16312629 -0.096162364
000260 92 37 db ba e9 0c 80 bd 2f 0f 78 be 0f 03 3b 3e
       -0.0016724935 -0.062524624 -0.24224542 0.18262886
000270 ae 06 22 be 14 44 3f be d6 d2 05 be df ab 01 3e
       -0.1582286 -0.18678313 -0.13068709 0.1266322
000280 ad c4 c4 3d d8 e5 02 be 1d 6e 70 bd 93 2f 17 bd
       0.096078254 -0.12782991 -0.058698762 -0.036910605
000290 b7 ce db 3d 96 45 2e 3e ff 94 bc 3d 4c 48 98 be
       0.10732787 0.17018732 0.09208106 -0.29742658
0002a0 cb 11 99 3e 0b bf d8 bd 31 81 32 bd 50 ec 71 3e
       0.29896387 -0.105833136 -0.043580238 0.23625302
0002b0 49 05 16 3e 54 33 c8 bc b3 73 00 3e 84 d7 24 3d
       0.14650454 -0.024438538 0.12544136 0.040244594
0002c0 31 fc 84 3d 04 1b bd bd 50 aa 66 be 5e 71 e1 bc
       0.06493414 -0.092336684 -0.22525907 -0.027519878
0002d0 69 cc f8 bd ab 9e 3a 3d 43 5c c2 3d ba 8d 88 be
       -0.12148363 0.045561474 0.09490254 -0.2667063
0002e0 68 ca b1 bd 17 00 40 bd e8 32 1d be 2d 9c ba bd
       -0.08681184 -0.046875086 -0.1535145 -0.091118194
0002f0 3c 76 bf bd 7b b0 24 3d 23 eb d0 bd d9 ac b6 3e
       -0.09348723 0.040207367 -0.10201099 0.35678747
000300 0d 95 2b be 34 e3 28 3e 91 40 d0 3c a3 a3 ef 36
       -0.16756077 0.16492921 0.025421413 7.141805e-06
000310 ae 24 d5 bd 0c 83 8f 3d 24 92 06 3e 59 2b 23 be
       -0.10407387 0.07007417 0.13141686 -0.15934505
000320 65 7d bc be 02 cc 1f bf ac 6f db bd 5e 9c d6 3d
       -0.36814418 -0.62420666 -0.10714659 0.104790434
000330 4b 1c 2b 3e 59 43 0d 3e 0c 11 4f 3e 6e a9 c6 bd
       0.16710012 0.13795222 0.20221347 -0.09700285
000340 94 71 46 be 56 e1 db 3e 66 c5 51 bc 20 f7 10 3e
       -0.19379264 0.42945355 -0.012803411 0.1415677
000350 d1 01 95 3d bb a1 26 3e c4 c7 eb 3d f9 4f 23 3d
       0.07275737 0.16272633 0.11512712 0.03987119
000360 d4 a8 16 3e d9 52 c1 3d ed 29 0f 3e 5b 4a 28 bd
       0.1471284 0.0943963 0.13980837 -0.041086536
000370 b8 57 11 3c cf 76 00 be 2a 57 71 be f8 64 1b 3e
       0.008871011 -0.12545322 -0.23568407 0.15175235
000380 b3 93 07 3e 95 1b e6 3d 51 47 8e 3e 95 7c 5f 3a
       0.13239937 0.112357296 0.27788785 0.0008525339
000390 d4 70 80 3e 3e 19 69 3e 77 a7 30 be 5f e9 e2 bd
       0.2508608 0.22763535 -0.17251383 -0.11079668
0003a0 2a f0 72 3e 75 6e 20 3e 39 3d 84 be 24 84 be bc
       0.23724428 0.15667136 -0.2582796 -0.023256369
0003b0 39 13 74 3d 51 87 55 be 5d c0 40 3d ba ab 86 be
       0.059588645 -0.208524 0.047058452 -0.26302892
0003c0 01 f1 81 bc de b9 23 3d 67 7b 94 bd 3f 6d 1e 3d
       -0.01586199 0.03997218 -0.072501 0.038678404
0003d0 f3 8e ec 3d 91 ca 82 3e 85 a3 63 be b5 e6 4a 3e
       0.11550703 0.2554517 -0.22230347 0.1981457
0003e0 ae 63 80 3d 5b 10 74 bc 85 cd 13 be 53 0b 92 bd
       0.062690124 -0.014896478 -0.14433868 -0.07131066
0003f0 e9 2f 3f bd bf b4 8b 3e 47 94 73 bd e8 88 80 bd
       -0.04667655 0.27286336 -0.05946758 -0.06276113

conv2.nn.0.bias f4 [16]
000000 86 3a 40 3e f0 15 18 3f 0e 8f 59 3e 08 f4 06 3f
       0.18772325 0.59408474 0.21245977 0.5271611
000010 60 7e 95 bc b2 43 e1 3d 5a aa 22 be e7 09 fd 3c
       -0.018248737 0.1099924 -0.15885296 0.03088851
000020 30 9b b5 3e a4 50 4c bd a3 37 12 bf 1c bf 2b 3d
       0.3546996 -0.049881592 -0.57116145 0.041930303
000030 50 d0 7b 3e d7 a8 f0 bd 51 2b 2d 3e 90 b8 23 be
       0.24591184 -0.11750954 0.16911055 -0.15988374

conv2.nn.2.weight f4 [16, 16]
000000 c6 4a 67 3d 6a fe 9c be 57 7b 69 3e a5 2d 11 3e
       0.056467794 -0.30662853 0.22800957 0.14177568
000010 18 6e 0a 3d 35 85 26 be 76 0a 08 be e6 f2 53 be
       0.0337964 -0.16261752 -0.1328524 -0.20698127
000020 57 39 59 bc 1b ef 62 bd 7d 2e 8d 3e a7 83 96 bd
       -0.0132583 -0.05540381 0.2757453 -0.073493294
000030 f5 25 e2 3d 4a 8f 56 be 83 5d 0e be af 92 73 be
       0.11042396 -0.20953098 -0.1390286 -0.23786424
000040 95 d7 4c be b5 53 7b 3e a8 14 46 3e 10 42 86 3e
       -0.20004113 0.2454365 0.19343817 0.26222277
000050 a2 6a b5 3d 3a 60 e9 bc cb 4f 22 bd b1 87 62 bd
       0.08858229 -0.028488267 -0.039626878 -0.055305187
000060 f7 b1 7e be 42 fb 9c 3c 3b 88 05 be a6 47 75 3e
       -0.24872576 0.019162778 -0.13040249 0.23953113
000070 b9 75 2a 3e ea b6 0b be bd cc 85 be 01 86 1e bd
       0.1664647 -0.13643995 -0.26132765 -0.038702015
000080 71 7a 84 3e 3a fe 2a 3d f7 3d c3 3d ba bc 0b 3d
       0.25874665 0.041746356 0.09533303 0.03411553
000090 f9 b4 8a 3e a7 96 41 3e 43 3b 5c 3e 2a 33 1c 3d
       0.27091196 0.18905126 0.21506982 0.03813473
0000a0 18 87 77 bd 53 bd b4 bc e9 7f 2c be f1 e0 7d bd
       -0.06043157 -0.022062933 -0.16845669 -0.0619821
0000b0 2e 60 bb 3d f9 91 b2 3d 0c b6 14 be 72 1c d7 3d
       0.09149204 0.08719248 -0.1452257 0.105034724
0000c0 56 0d 24 bd 83 0a 03 bd 72 a1 53 b4 70 05 4f 3d
       -0.04005178 -0.031992447 -1.970964e-07 0.050542295
0000d0 59 5b 1b bc 30 04 de bc 61 af 1f bd 99 a1 4a 3d
       -0.009482228 -0.027101606 -0.038985614 0.049470518
0000e0 6e 94 21 bd c0 ed 9f 3c 5e 62 b9 3d f4 26 55 3e
       -0.039448194 0.019522548 0.09051965 0.2081564
0000f0 b0 b0 aa bd c6 8e 44 bd 33 f9 12 bd a2 ae 5e bc
       -0.08334482 -0.04798772 -0.035882186 -0.01359144
000100 97 f0 90 bd df 4c dd 3d 49 b9 3a 3e 6f c9 77 3e
       -0.07077139 0.108056776 0.18234743 0.24197935
000110 52 a4 67 be df c6 4c be 41 c8 71 3e fe 65 11 3b
       -0.22621277 -0.19997738 0.23611547 0.0022186036
000120 3f 4f d2 bd df 2c a4 bd 6c d4 dc bb 2b 59 01 3d
       -0.10269021 -0.08016371 -0.00673919 0.031579178
000130 f5 04 93 bd 6e 8e b1 3c 7c 7f ff bd f1 f8 4c be
       -0.0717868 0.021674361 -0.124754876 -0.20016839
000140 a5 9f 79 bd ea 70 b9 3e f7 04 9c be 4e 40 bd be
       -0.060943265 0.3621896 -0.30472538 -0.36963123
000150 e3 7d 86 3c 0c 19 f8 3c 57 41 36 be d2 f9 49 3b
       0.01641745 0.03028538 -0.17798363 0.003081907
000160 aa 24 8d be 36 3f 8c 3e 29 f2 31 be d0 4b e5 bd
       -0.27567035 0.27391976 -0.17377533 -0.11196101
000170 09 26 f1 be 78 35 2d 3d 07 49 ba 3d 5e 7a 06 be
       -0.4709933 0.04228732 0.0909596 -0.13132617
000180 0f 21 39 3d 0b 0a 36 bd 6d cb 08 3e 98 eb f3 bd
       0.045197543 -0.04444317 0.13358851 -0.1191017
000190 70 3c 87 3d 28 69 35 3e 39 25 62 3c ac 35 fc 3d
       0.066033244 0.17715895 0.01380282 0.123149246
0001a0 aa 43 fb 3d 86 92 85 3d 29 dc 6a bb fb 2d 41 3e
       0.12268765 0.06522088 -0.0035836792 0.18865196
0001b0 2e ba 0e be 12 b7 65 bd ec d1 9c be 66 60 d9 bd
       -0.1393821 -0.056082793 -0.30628908 -0.1061409
0001c0 a7 57 88 3e ce 82 b0 3d d1 1c 4f 3e 84 3b d0 be
       0.26629373 0.08618699 0.20225836 -0.40670407
0001d0 6a d7 1d bd cc a4 76 be a6 2e 87 3d 2e 55 c8 bc
       -0.038535513 -0.24086303 0.06600694 -0.02445468
0001e0 96 42 15 3e 65 05 5b 3c 53 ff bd 3d a0 ba ae bd
       0.14576182 0.013367985 0.09277215 -0.0853169
0001f0 d4 b1 60 3e d1 89 02 3e 37 ca 4a bd 42 e3 73 bd
       0.21942836 0.12747885 -0.049509253 -0.0595429
000200 93 e1 d8 39 54 36 83 36 6e 63 86 bc 6f 6a 98 bd
       0.00041366796 3.910429e-06 -0.016404834 -0.074421756
000210 62 93 bf bd b1 3f f6 bb 2c a1 fb bd c2 70 06 3e
       -0.09354283 -0.007514917 -0.122866005 0.13128951
000220 68 51 9f 3b 54 00 38 3d d2 53 56 bd 99 2f 62 3c
       0.0048619993 0.044922188 -0.05232603 0.0138052935
000230 6b 24 a7 37 c8 5e 80 3d 84 9f 26 bc aa e5 47 bd
       1.992491e-05 0.06268078 -0.010169867 -0.04880301
000240 b2 21 10 be 65 d6 a0 bd 61 dd cb bd fe bc 2a bc
       -0.14075354 -0.078533925 -0.09954334 -0.010421036
000250 fe 5c df 3d 16 68 4a 3c 33 d2 63 3e 26 c9 c2 3c
       0.10906409 0.012353918 0.22248153 0.023777556
000260 eb 97 8e 3e 22 77 2f 3c 06 46 f5 bd 20 07 8f 3c
       0.2785028 0.010709556 -0.119762465 0.017459452
000270 8a c6 e7 3d fd 37 cb bd 27 7e 33 3d 5c b4 ae 3d
       0.11317165 -0.09922788 0.04382148 0.085304946
000280 13 d2 9e be 0e d1 c9 bd 8e 0a 72 3d cd f5 59 be
       -0.3101965 -0.09854327 0.059092097 -0.21285172
000290 eb d4 d1 3d 88 d9 47 3e 32 22 75 be 6b 9a 4d 3d
       0.10245689 0.19516575 -0.23938826 0.050196093
0002a0 76 99 19 be cd 8d a2 bb 49 e9 e7 3d 0a fd 69 bc
       -0.14999947 -0.0049607516 0.113237925 -0.014281521
0002b0 54 e6 42 bd ce cd 21 be 72 40 de bd 01 bd 3f bd
       -0.04758294 -0.15801165 -0.10852136 -0.046811108
0002c0 d6 01 04 3e 94 a6 36 bf 7b c8 33 3e ad 14 78 bc
       0.12891325 -0.7134793 0.17556946 -0.015141648
0002d0 f4 73 90 3d 41 02 2a be 4f b6 e7 bd 77 c7 18 be
       0.07053366 -0.16602422 -0.113140695 -0.1491984
0002e0 46 75 1c 3e ca 60 18 3d a6 c8 8a bd 6f b2 80 3e
       0.15279111 0.03720168 -0.06776552 0.25136134
0002f0 33 0b 1a bd 83 aa 6e 3d 82 6a 1b 3e 28 88 c0 bd
       -0.037608337 0.05826808 0.15177348 -0.0940097
000300 1f d7 bf 3d 80 b6 cd be 60 b7 f1 bd 4d 88 3f 3e
       0.09367203 -0.401783 -0.11802554 0.18704338
000310 cc 98 ac bd 71 d6 a3 be 06 01 7c bd cc 37 7c 3e
       -0.08427581 -0.31999543 -0.061524414 0.2463066
000320 2c 01 10 3d 83 d0 0e bc 50 3e 78 be 54 c4 ed bc
       0.035157368 -0.008716705 -0.2424252 -0.02902428
000330 fa 2c 80 bc 70 fb 8f 3d 87 f0 47 be ce 6a 39 3e
       -0.015646446 0.0703038 -0.19525348 0.18107149
000340 0e 14 65 3e af b3 ee 3d 22 89 57 3e 36 9d 75 3e
       0.22370932 0.11655366 0.21048406 0.23985752
000350 d4 c3 7b be 69 e0 48 3e ec 3d db bd 25 c9 47 bd
       -0.24586421 0.19616856 -0.1070517 -0.04877581
000360 48 d2 9e 3e c4 f5 6e 3c 12 1a e3 3c 97 ce 91 bc
       0.31019807 0.014584962 0.027722392 -0.017798705
000370 89 01 ad 3d e1 e0 81 3c 93 e2 18 3e 0f 9b ee bd
       0.084475584 0.0158543 0.14930181 -0.11650669
000380 65 0f 2c bd 61 5a 2c 3e 8f 07 74 3e 2b 95 5d 3d
       -0.04200687 0.16831352 0.23831008 0.054097336
000390 2e 1f 0b be 85 3a 45 3e ad 4f 3b be e6 4e 98 3d
       -0.13586113 0.19260605 -0.18292113 0.07436924
0003a0 be f3 87 bc 53 6c bf bd 58 d5 78 3d a3 63 52 3d
       -0.016595718 -0.09346833 0.060750335 0.051364552
0003b0 89 e6 65 3d 1f 60 06 be e4 91 9a be b0 39 b2 bd
       0.05612806 -0.13122605 -0.3018943 -0.08702409
0003c0 23 a7 0d 3e 56 30 58 3d 1d 9f 23 3d 0e c7 0e 3d
       0.13833289 0.05278047 0.039946664 0.034857802
0003d0 41 dc 10 be b9 3c 8b 3e b8 8f b6 bd 74 a8 23 3d
       -0.1414652 0.27194765 -0.08914131 0.03995557
0003e0 8e f5 81 3d c0 12 28 3d 72 dd 1d 3e cf c8 4b be
       0.06345664 0.041033506 0.15416506 -0.19900821
0003f0 7e 9b 45 3e 88 bb a1 3d df 53 9e bd a4 80 e6 ba
       0.19297597 0.07897097 -0.07730841 -0.0017585945

conv2.nn.2.bias f4 [16]
000000 ba 61 8f 3e 05 8e 94 3d d5 fb e3 38 0c 92 43 be
       0.28004247 0.072536506 0.00010871111 -0.19098681
000010 a7 71 3c 3e ee c7 a3 3e d8 56 09 3f 61 ca 01 3e
       0.1840273 0.31988472 0.5364814 0.12674858
000020 d9 9b 84 bb 64 48 19 3c 84 12 e2 be bd cc 92 3e
       -0.004046899 0.009355638 -0.4415475 0.28671828
000030 d5 6e 61 3e 50 1d bf 3c bd 2d 1c bd fa f3 98 3c
       0.22014935 0.023329407 -0.038129557 0.018671025

conv2.nn.4.weight f4 [16]
000000 1e 96 71 3f 25 54 54 3f f4 c9 67 3f 38 32 79 3e
       0.94369686 0.82940894 0.9054253 0.24335563
000010 6f e7 36 3f 68 91 7d 3f 0c 04 45 3f e1 95 53 3f
       0.7144689 0.9905 0.769593 0.8265057
000020 2a 36 65 3e 37 84 3b 3f 8e 59 f3 3e d4 d5 1b 3f
       0.22383943 0.7324862 0.47529262 0.6087315
000030 f0 27 60 3f 4c ce 51 3f 63 b8 39 3f 32 47 57 3f
       0.8756094 0.8195541 0.72546977 0.8409301

conv2.nn.4.bias f4 [16]
000000 97 d0 9f 3e 7a f1 cf 3d c9 5c 2e bd d2 43 36 bd
       0.3121383 0.1015348 -0.042568956 -0.044498272
000010 1e 4d 66 3d 87 0b be 3e 62 2f d2 3e 58 b2 5d 3e
       0.05622589 0.3711817 0.41051775 0.21650064
000020 48 d9 b2 bd 63 5d 2c be ec cd 0a be 18 7c a2 3e
       -0.08732849 -0.16832499 -0.13555115 0.317353
000030 88 f5 0e 3e 7c 88 66 3e 8f dc 98 3c 66 a5 89 bd
       0.1396085 0.22513002 0.018659858 -0.067210004

conv2.nn.4.running_mean f4 [16]
000000 bb 1a 55 3d 55 6f ff 3c 33 03 09 40 38 80 10 3b
       0.052027445 0.031181017 2.1408203 0.002204908
000010 c4 08 f5 3e 1b 63 d0 3d 6a 13 32 3f a2 31 4a 3f
       0.4785825 0.10175153 0.69560874 0.78981984
000020 6e 37 75 37 58 d9 2b 3f 0b 6d bb 3a 7e d3 ab 3e
       1.4616044e-05 0.67128515 0.0014299465 0.33559793
000030 9e d0 fc 3c 56 52 bb 3f b4 e2 f5 3d 05 6f 96 3f
       0.030861195 1.4634502 0.12006131 1.175263

conv2.nn.4.running_var f4 [16]
000000 7d 92 5a 3c 70 81 d0 3b c3 3c b0 41 42 9f 38 3b
       0.01334059 0.0063630864 22.029669 0.0028171097
000010 04 36 03 40 49 8a cb 3c 85 77 cd 3f d7 80 78 40
       2.0501719 0.024846213 1.60521 3.8828638
000020 fb 89 01 36 f9 7c b9 40 fa aa b7 3a 3b c9 39 3e
       1.9302813e-06 5.7965055 0.0014012747 0.1814317
000030 c2 98 e0 3b 93 2f ae 40 74 cb d0 3d 05 1e b9 40
       0.0068541477 5.4433074 0.101950556 5.7849145

conv3.nn.0.weight f4 [16, 16]
000000 34 a3 71 3d c5 41 54 3e 7a 3e 64 be 2a 79 c0 bd
       0.058993533 0.20728214 -0.22289458 -0.0939811
000010 5c 41 05 3e 74 32 be 3d 18 f7 f4 bd 26 c5 45 be
       0.13013214 0.09286967 -0.11961192 -0.19313487
000020 bb 17 1d 3e 7d 1c a0 3d ab e1 b4 bd 56 d9 f8 3d
       0.15341084 0.07817934 -0.08832105 0.121508285
000030 de 94 e4 3d 8c 41 d1 3d ac cc 82 bd 89 db 04 bc
       0.11161207 0.1021758 -0.06386694 -0.008108982
000040 a8 e1 9e 3e e7 87 67 3e 09 1f 9e bd 1a 04 9e 3d
       0.31031537 0.22610436 -0.07720763 0.07715626
000050 37 a2 f3 3d 0c 6f a8 be d9 ec ca 3d 0c 84 f6 bb
       0.118961744 -0.32897222 0.09908456 -0.0075230654
000060 7b b2 10 be 9d bc 43 3c dd 88 13 be 79 b9 ce bd
       -0.14130585 0.011946824 -0.14407678 -0.1009397
000070 41 34 9e be eb f7 41 3d 87 44 ac bc 0d b5 84 3d
       -0.30899242 0.047355574 -0.02102877 0.06479845
000080 41 33 1e be 12 10 0e be 65 6b b1 be cd 20 91 3b
       -0.1544924 -0.13873318 -0.34652248 0.004428959
000090 ef 0f 79 be e9 85 7e 3e 45 76 7d bd 19 6e 98 3e
       -0.24322484 0.2485577 -0.06188037 0.29771498
0000a0 4b 1c 04 3e aa 14 60 bd 27 0e 49 be db 97 38 3d
       0.12901418 -0.054707207 -0.19634305 0.045066696
0000b0 58 89 8e be c9 35 04 3e df b7 0b be 74 fb d9 3d
       -0.2783916 0.12911142 -0.1364436 0.10643664
0000c0 eb 74 a4 3d b2 c9 25 3d 74 7a 55 3d d5 cd e6 3d
       0.08030113 0.040475555 0.052118734 0.11269728
0000d0 94 8f 49 3e ac b4 28 bd d3 00 f3 bd af 17 54 3e
       0.19683677 -0.041187927 -0.118653916 0.2071216
0000e0 b3 f2 87 bc d7 d0 bd bc 0e 43 45 3b e6 f5 c9 3d
       -0.01659522 -0.023170872 0.0030099782 0.098613545
0000f0 d6 ed af 3e 1f 5d 4c 3e 8a 70 fa bc 6a ac 0b be
       0.34361142 0.19957398 -0.030571241 -0.1363999
000100 36 9e de bd d3 3c 8d 3d d5 f6 15 3e 07 d8 d1 bd
       -0.1087002 0.06896367 0.1464494 -0.10246282
000110 0a d8 8d 3d 7a ff 08 3e 10 7d e2 bd 46 68 48 be
       0.06925972 0.13378707 -0.1105901 -0.19571027
000120 ee bd f7 b9 02 8d b2 bc 88 d9 15 3d 24 b8 01 bf
       -0.0004725302 -0.021795753 0.036584407 -0.506716
000130 ba 26 01 3d ca 81 93 3e 45 56 eb 3d f0 1b 76 bc
       0.031531073 0.2880996 0.11491064 -0.015021309
000140 1f 6e 02 be 18 2c 46 bb aa c9 62 be 69 ed c1 b6
       -0.1273732 -0.0030238684 -0.22147241 -5.7794864e-06
000150 8c e4 3d bb 7c 13 14 be 61 ea 24 be 44 c7 15 be
       -0.0028975336 -0.14460558 -0.16105033 -0.14626795
000160 7b 31 8e 3b 15 a3 0d 3e 36 0c ba 3d d2 0b 3e be
       0.0043393946 0.13831742 0.0908436 -0.18559197
000170 84 4c 0f be 2d 23 e5 3d 2b bd 6d bd fb 05 b8 bd
       -0.13994032 0.1118835 -0.058041733 -0.08985516
000180 2b b8 19 be c2 cb b7 3d 89 4c 08 ba b7 c7 88 bc
       -0.15011661 0.089744106 -0.0005199393 -0.016696794
000190 2d 40 85 be a0 ef 95 3e e9 36 d9 3d 0c 1d 0c 3c
       -0.26025525 0.29284382 0.106061764 0.008551847
0001a0 17 14 58 be 98 9c 04 3e 63 fc 5d 3e f1 d9 73 bd
       -0.21101414 0.12950361 0.21678309 -0.059534017
0001b0 0a 14 c4 ba 7b b4 88 3e e6 35 e1 3d e0 41 87 be
       -0.0014959585 0.26700196 0.109966084 -0.26417446
0001c0 25 1e 1d bf c0 a6 0d be 88 f7 38 bb 38 84 4e 3e
       -0.6137412 -0.13833141 -0.0028223712 0.20167625
0001d0 cb 74 dd 3c 99 cf 58 be 22 c1 89 be 63 d2 bf bd
       0.02703323 -0.21172942 -0.2690516 -0.093663
0001e0 76 d6 76 3d f0 62 03 3e cc 15 c0 3d 8a 5c 10 3e
       0.06026312 0.1283071 0.093791574 0.14097801
0001f0 a6 2a 6d 3d de ce 52 be 38 96 97 bc e4 0e d0 bd
       0.057902 -0.20586726 -0.018504247 -0.1015909
000200 18 14 1a 3d 0a 33 0b be e4 a0 31 bd d9 21 ca 3c
       0.03761682 -0.13593689 -0.043366328 0.024674343
000210 be c5 0b bd 4b d2 dd bc 46 da 3a bd 61 b7 b1 bd
       -0.03412413 -0.027077815 -0.045618318 -0.08677555
000220 0a 14 66 3d 2c 42 52 be 55 56 1b 3d 0d 00 e1 3d
       0.056171454 -0.20533055 0.03792413 0.10986338
000230 f3 b0 39 3e a9 7c ba 3d 64 3c df bd 7c 70 cd bc
       0.18133907 0.09105808 -0.109001905 -0.02507805
000240 9a 82 5c bc b3 3a a0 3d 5d e7 b1 bd 64 d0 22 3e
       -0.013458872 0.07823696 -0.08686707 0.15899807
000250 a1 64 03 3e e1 f2 da bd b2 44 fc bd 1a 00 9e be
       0.12831356 -0.10690857 -0.1231779 -0.30859452
000260 09 99 a3 bc 48 66 a0 3d ae a3 81 bd 38 6b 57 3d
       -0.019970434 0.078320086 -0.063300475 0.052592486
000270 fc 94 53 3e f2 9e 77 be 92 ec da bd cc 3e f5 3b
       0.20662302 -0.24181727 -0.106896535 0.0074842926
000280 91 a8 82 3e 29 18 05 3e c2 85 d8 3d 13 a0 8a 3d
       0.2551923 0.12997498 0.10572387 0.06768813
000290 60 55 fd 3d 12 8d 43 be 8c 22 cc bd 7d 2e 12 3e
       0.123697996 -0.19096783 -0.09967527 0.14275546
0002a0 c3 ec ae 3c 41 02 6d 3d 79 b6 ae 3d 86 26 e8 bd
       0.021353131 0.057863478 0.08530898 -0.11335473
0002b0 83 b4 b2 bc 4c b7 d0 bc 9b 42 85 3d 7b 98 4b be
       -0.02181459 -0.025478028 0.065068446 -0.19882385
0002c0 42 c8 0e 3d 08 2b 80 bd 2c 29 71 bd 35 43 cc bd
       0.03485895 -0.062582076 -0.058877155 -0.09973756
0002d0 9e eb 1e 3d 4f da 6f 3e f5 4f c1 3d 79 e2 3b bd
       0.03879892 0.23423122 0.09439079 -0.045870278
0002e0 ae e4 d7 3d 74 30 66 3e be 7f 01 bd 38 8a 3d 3e
       0.10541664 0.22479421 -0.031615965 0.18509758
0002f0 64 b1 a1 3d 4f 74 5b 3d 30 4a 83 bd a2 54 2d be
       0.07895163 0.053577717 -0.064106345 -0.16926816
000300 f2 46 3d 3e 50 1e 5c 3e 5e 68 68 be 58 55 93 3c
       0.18484095 0.21495938 -0.22696063 0.017985031
000310 da 93 00 3e b2 69 ae 3d 87 17 d9 bd 88 19 84 be
       0.12556401 0.085162535 -0.106001906 -0.2580073
000320 c5 87 18 38 13 b0 3b bd 29 3a 76 3c 89 4d 28 be
       3.636607e-05 -0.045822214 0.015028515 -0.16435827
000330 b2 91 2c be 4c 2c 29 3e d6 58 a9 bd 4a f2 0f be
       -0.16852453 0.16520804 -0.08268897 -0.1405727
000340 df 58 bf 3e f3 69 3a 3e d5 66 5d be 80 e0 8c 3d
       0.3737249 0.18204479 -0.21621259 0.068787575
000350 97 a2 83 be 0c ca 00 3e d0 cf c0 bd 28 f1 88 3c
       -0.25709984 0.12577075 -0.09414637 0.016716555
000360 55 c7 88 3d aa b0 48 3c 24 c7 91 3c 12 59 20 be
       0.066786446 0.012249151 0.017795153 -0.15658978
000370 0d ba 53 3d 8b ab 06 be f6 0b 9e bd 07 fc 0f 3d
       0.051691104 -0.13151376 -0.07717125 0.03515246
000380 ae 51 19 3d 52 4b d2 3e 8c 55 2b 3e af 8d fe bd
       0.03743141 0.4107309 0.16731852 -0.12429368
000390 0f d3 10 be bf b5 a1 be c9 6f e7 3d 25 87 f1 3d
       -0.14143012 -0.31583974 0.11300618 0.11793355
0003a0 01 c8 06 3e b0 fe 22 3d 2a c1 4f 3c ca 5a 7e bd
       0.13162233 0.03979367 0.012680331 -0.062098302
0003b0 6a 53 35 be 27 c9 ba 3b 9d 38 5d 3e 69 af 6f be
       -0.17707601 0.0057002488 0.21603628 -0.23406757
0003c0 83 5f 58 bd 7a 4e 5b 3e 38 e4 31 be 20 df d9 bd
       -0.052825462 0.21416655 -0.17372215 -0.10638261
0003d0 8f 17 f3 3c 5f 9a a2 3d 0d 86 96 3e f0 70 f2 bd
       0.02967432 0.079396 0.29399148 -0.11837947
0003e0 b1 65 40 3e 23 92 13 3e 7d c9 b8 3d 65 7a 93 bd
       0.18788792 0.14411215 0.09022806 -0.07201079
0003f0 d6 ab 22 bc aa 5e e6 3d da ed 41 be 0d 27 59 bd
       -0.009928664 0.112485245 -0.1893839 -0.053015757

conv3.nn.0.bias f4 [16]
000000 8c 68 9f be 51 c1 73 3d 30 82 15 3e 8e 4e a9 bd
       -0.3113445 0.059510533 0.14600444 -0.08266936
000010 6c e9 1d 3e 71 a9 59 3d 8d 66 bb bc 88 39 86 3e
       0.15421075 0.053140108 -0.022876048 0.26215768
000020 de be 1e 3d 39 cc c7 bc 34 76 e6 be 6a a3 06 bf
       0.038756244 -0.024389373 -0.45012057 -0.525931
000030 85 a2 cc 3e 93 c6 6e 3e ed 78 5b 3e 25 12 09 3d
       0.39967743 0.23317938 0.21432848 0.03346457

conv3.nn.2.weight f4 [16, 16]
000000 90 cc db 3d d1 c2 3e be cd c7 2d 3d 8b 8f 38 3d
       0.107323766 -0.18629004 0.042426873 0.04505877
000010 77 85 14 be 42 19 2f 3e ba 3e f8 ba 79 f1 e1 bd
       -0.14504038 0.17099479 -0.0018939592 -0.110323854
000020 e3 a3 23 be aa ac 08 be d1 9c 67 be 01 e9 dc bd
       -0.15980487 -0.13347116 -0.22618414 -0.107866295
000030 ad 14 31 bd 5a cc e3 bb 81 fb 01 be 14 01 7a 3e
       -0.04323261 -0.006951851 -0.12693597 0.24414474
000040 32 a0 88 bd 1f 4f 8f bd 43 a4 99 bd 86 7e 0a 3d
       -0.0667118 -0.06997513 -0.075020336 0.03381207
000050 25 ef 35 be 9b 1a 12 bc 0d 4f d6 bd 74 f6 71 3e
       -0.17767008 -0.008917476 -0.104642965 0.2362917
000060 24 b7 ca bd e5 25 8d bd 40 b9 22 bd 85 dd cc bd
       -0.098982126 -0.068919934 -0.03972745 -0.10003189
000070 82 48 0d bf 22 40 ce 3d 84 4a 21 3d 38 5f 73 3c
       -0.55188763 0.10070826 0.039377704 0.014854245
000080 ce c5 26 bd 8b 52 ad bd 4f 85 2c be 20 2f 0a 3e
       -0.040715985 -0.084630094 -0.16847728 0.1349454
000090 be 4f 84 be c1 4f 4a bb d3 79 07 3e 94 66 04 3d
       -0.25842088 -0.003087029 0.13230066 0.03232439
0000a0 99 66 bd 3d e6 c6 34 3e 82 3e 72 be 14 84 c7 bd
       0.092480846 0.17653999 -0.23656657 -0.09741989
0000b0 a5 c2 b5 bd 3b 90 9a 3d e9 b1 c2 bd bc f3 3b be
       -0.08875016 0.07547041 -0.0950659 -0.18354696
0000c0 e1 8c 89 be 05 06 27 3e 54 3e c6 be cb 51 8c bd
       -0.26865295 0.1631089 -0.38719428 -0.06851538
0000d0 d7 4f 85 bc f3 91 76 bd 01 5b af bd d7 7e 84 bd
       -0.016273422 -0.06019778 -0.085622795 -0.06469505
0000e0 5b ba 86 bd 2d 40 9c bd e8 eb 66 be d8 eb 33 be
       -0.06578513 -0.07629428 -0.22550929 -0.17570436
0000f0 aa 94 34 3d e8 27 59 3c 24 ba 24 3d 26 7e 05 3e
       0.04408709 0.013254143 0.04021658 0.13036403
000100 f3 c2 d4 bb d6 4e 5f 3d 85 e3 92 be 7e 9c e3 3c
       -0.0064929663 0.054518543 -0.2868921 0.027784582
000110 df 7e 30 bd 0f 73 24 3c c3 65 be bd 15 7c 83 be
       -0.043089744 0.010037198 -0.09296753 -0.25680605
000120 ff 5b 4a bd 16 e5 1d bd 41 a2 85 bd 40 79 32 3d
       -0.04940414 -0.03854855 -0.06525088 0.043572664
000130 8f 7a be 3c 07 2b 98 bd 48 9c 98 3d c3 5e 9d bd
       0.0232518 -0.07430082 0.07451683 -0.0768409
000140 64 8e 18 3d 89 c2 6a be 7a f6 3d 3e f0 f1 d7 3b
       0.03724517 -0.22925772 0.18551055 0.0065901205
000150 a8 8a c3 3d 59 53 ca 3d 45 14 37 be e0 37 56 3d
       0.09547931 0.098791786 -0.17878826 0.05229938
000160 76 c7 ec 3c 9d ab 1a be ab 4a 11 3e e4 33 f0 bd
       0.028903704 -0.15104528 0.1418864 -0.11728647
000170 e1 05 7a 3e 0b 1d 8b 3d b6 63 26 be b4 c0 82 be
       0.24416305 0.06792649 -0.16248974 -0.25537646
000180 55 11 b7 3d b1 23 2c 3d 56 d8 bb be 87 62 07 be
       0.08938853 0.042026225 -0.3668849 -0.13221179
000190 cc b4 d9 3d 47 9c d9 3b eb 0b 68 be 2c 4d 1b bf
       0.106301874 0.006640944 -0.22660796 -0.6066463
0001a0 a3 13 fe bd a6 46 52 3e f1 96 a0 bd 27 4a 2b be
       -0.12406089 0.20534763 -0.0784129 -0.16727506
0001b0 85 03 14 3d b3 26 e3 bd a4 1e e6 3d 0f 98 31 be
       0.03613617 -0.11091366 0.11236313 -0.17343162
0001c0 b4 2d 9b bd 67 35 ae 3d 4a 8f bc be c7 7d 18 3e
       -0.075770766 0.085062794 -0.3682807 0.1489173
0001d0 1d 06 cd 3d 98 82 93 bd 93 38 38 be e1 26 86 be
       0.10010932 -0.07202643 -0.17990331 -0.26201537
0001e0 fb f0 69 3c 46 00 bf bd 1c 45 26 be 79 6b 92 3c
       0.014278646 -0.09326224 -0.162373 0.017873513
0001f0 40 3e 0e 3d f2 94 27 3b d2 d9 35 3d 49 05 1a 3d
       0.034727335 0.0025570956 0.044397183 0.037602697
000200 da 19 89 be 26 3f 43 3e 1e 90 9a bc 72 26 b9 be
       -0.26777536 0.19067058 -0.018867549 -0.36162144
000210 30 71 8a bd 2f 7a 12 be dc 72 a7 3a 72 c9 ee bd
       -0.0675987 -0.14304422 0.001277532 -0.116595164
000220 f0 30 48 3e fc 0d 26 bd 65 df 23 be a3 d8 bb bc
       0.19549918 -0.04054068 -0.16003187 -0.022930449
000230 f3 59 c2 3c 8c ec 06 3e 47 07 02 be 44 6e f4 3d
       0.023724532 0.13176173 -0.12698089 0.11935094
000240 f4 db 4b bd 37 eb 16 3e 63 f1 73 bd 31 16 0d 3e
       -0.04977031 0.14738165 -0.059556376 0.13777997
000250 82 b3 12 3a e8 f6 45 3c 2a b1 6d be 88 9a 5e 3e
       0.0005596207 0.012082793 -0.23212114 0.21738636
000260 6f 7f 58 3d a3 ff dd 3d 4d a7 81 bd 0d 1c 8a be
       0.052855905 0.108397745 -0.06330738 -0.26974526
000270 02 bd ce be 8a 10 87 3c 80 cf 81 be cd c6 72 bd
       -0.40378577 0.016487379 -0.25353622 -0.059271622
000280 b2 a3 33 be 74 88 7f be 82 f6 9c 3c 20 cc 8b 3d
       -0.17542914 -0.24954396 0.019160513 0.06826043
000290 da 31 85 bc 26 fe 22 3e 34 63 89 be 51 54 39 3e
       -0.016259123 0.15917262 -0.26833498 0.1809857
0002a0 43 13 83 3d ee 6e 17 be 53 ed 19 be a5 d5 bd bd
       0.06400158 -0.1478841 -0.15031938 -0.09269265
0002b0 c3 cd 86 be a9 d2 72 3e 5a 15 65 be c7 20 cf bc
       -0.2632886 0.23713173 -0.22371426 -0.025284184
0002c0 ec 30 84 bd dd db 2c be 00 71 98 3d d3 85 23 be
       -0.064546436 -0.16880746 0.07443428 -0.15969019
0002d0 fa 85 15 3e f7 01 18 3e c8 54 5b bd 3f 14 10 be
       0.14601889 0.148445 -0.05354765 -0.14070223
0002e0 67 8a bb 3b 4c 69 b2 3d 10 38 b7 bd af 64 35 be
       0.005723286 0.0871149 -0.0894624 -0.17714189
0002f0 c5 3a 0d 3e e0 d5 87 3d 05 de 86 be 86 9f d4 bb
       0.1379195 0.0663259 -0.26341262 -0.0064887432
000300 72 d5 ac 3d 01 8a 5b be 20 fa 91 3d 53 03 0d 3e
       0.08439149 -0.21439363 0.07127786 0.137708
000310 46 5e 61 be 75 a4 bd 3c 78 3b de 3d 7d 0c a4 3d
       -0.22008619 0.023149708 0.108511865 0.080101945
000320 66 eb cd bd a5 b2 c0 bd c1 47 2c be d5 e4 1b be
       -0.10054664 -0.09409074 -0.16824247 -0.15224011
000330 82 af c5 3b a7 46 06 3e 18 9c 9f bc 36 19 cb bd
       0.006032885 0.13112889 -0.019483611 -0.09916918
000340 d6 b5 4f be 52 0a 76 bd 1d 15 c8 3d 0e 91 04 be
       -0.20284209 -0.060068436 0.09769652 -0.12945959
000350 e9 92 ce 3d 69 2f b2 3d 2a 4d b6 bd 48 78 57 bd
       0.10086615 0.08700449 -0.089014366 -0.052604944
000360 6d f9 ed bc db 20 41 3c e1 fa 35 3d 33 fd 0b be
       -0.0290496 0.0117876185 0.04442871 -0.13670807
000370 9f 72 52 3e 86 fd 56 3e 86 ea 80 be 9f 18 cb 3d
       0.20551537 0.20995149 -0.25178927 0.099168055
000380 88 43 6d ba 10 2b 82 be f6 31 1d 3d 7b e2 9f 3c
       -0.00090508955 -0.2542348 0.038377725 0.019517174
000390 c2 a2 01 be 0d 04 45 3d 99 49 38 3e df a5 55 3d
       -0.12659743 0.048099566 0.17996825 0.05216014
0003a0 50 cd 37 be cf f7 35 bd 87 f1 ce bd 55 9c 0b be
       -0.17949414 -0.04442578 -0.101046614 -0.13633855
0003b0 bc 22 fa bc e4 bb 89 3d 43 0f 6b 3c 38 0d 12 3e
       -0.03053414 0.067252904 0.0143469 0.14262855
0003c0 57 87 e4 bd b9 6f 15 be e0 42 fc 3d ca 85 c3 bd
       -0.111586265 -0.145934 0.12317443 -0.095470026
0003d0 0f d0 42 3d 32 e0 d2 3c aa cf a1 3d da 8a 3e 3e
       0.0475617 0.02574167 0.07900937 0.18607655
0003e0 0a 2a a8 be de 2f ec 3c 82 d4 8b bd 4e fa 23 bd
       -0.32844573 0.028831419 -0.06827642 -0.04003363
0003f0 24 bb 8f be 42 f2 19 be 4a d4 10 bb b8 b3 c7 bd
       -0.28072464 -0.1503382 -0.002209919 -0.097510755

conv3.nn.2.bias f4 [16]
000000 76 91 ac 3e 1c 5b a0 3e 67 15 cf bc 7a 5c cb 3e
       0.33704728 0.3131951 -0.02527876 0.39718992
000010 3b 45 c3 3e 1f 40 4c 3e be c8 15 3f 1e 29 bb 3e
       0.38138756 0.19946335 0.58509433 0.36554807
000020 40 da 67 3e 9f 22 a6 3e b2 14 39 3d 18 d1 61 3e
       0.2264185 0.3244829 0.045185752 0.22052419
000030 01 7b 83 3b 69 08 92 3e 5e 81 16 3e 7c 27 60 3e
       0.004012466 0.2852204 0.14697787 0.21890062

conv3.nn.4.weight f4 [16]
000000 40 a9 92 3f da 14 ab 3f 5f 48 97 3f d2 53 a6 3f
       1.1457901 1.3365738 1.1818961 1.299433
000010 d2 f5 51 3f d9 37 7e 3f 31 e3 cb 3f 8c b6 92 3f
       0.8201572 0.99303967 1.5928708 1.1461959
000020 63 0e 8c 3f 0d 09 b6 3f 7e b3 b5 3f 89 90 98 3f
       1.094189 1.4221512 1.4195402 1.1919109
000030 3e 55 55 3f 4b ca 8e 3f 37 04 40 3f af 36 96 3f
       0.83333194 1.1155485 0.7500643 1.1735438

conv3.nn.4.bias f4 [16]
000000 ec aa e8 3e 6f 7c d2 3e f7 e7 9b 3e 8a 8a d8 3e
       0.45442903 0.4111056 0.30450413 0.42293197
000010 f1 02 f3 3e fe 1e dc 3e 13 f4 f0 3e 84 bf 0d 3f
       0.47463182 0.42992395 0.47061214 0.55370355
000020 f0 74 cd 3e 4a 8c e7 3e e2 b5 e2 3e 63 56 9f 3e
       0.4012828 0.4522422 0.4427939 0.31120595
000030 a6 92 de 3e 8b c3 d5 3e 78 8c da 3e c6 00 ca 3e
       0.4347126 0.4175075 0.42685294 0.39453715

conv3.nn.4.running_mean f4 [16]
000000 a9 1b 56 3e 2f a6 bb 3d dd ea 00 3e f8 fa 70 3e
       0.20908989 0.091625564 0.12589593 0.23533237
000010 a2 50 a9 3e 9d 76 fb 3d 41 08 24 3e 92 a5 0f 3f
       0.3306933 0.12278483 0.16018774 0.56112015
000020 fa 86 e5 3d 48 b1 80 3e fa 56 f5 3c b1 fb 0d 3e
       0.11207385 0.25135255 0.0299487 0.13865544
000030 4e c1 e4 3d a5 08 7b 3e b2 23 93 3e e0 45 7e 3d
       0.111696824 0.24515016 0.2873817 0.062078357

conv3.nn.4.running_var f4 [16]
000000 c9 ef 3b 3d bb 88 b5 3c 9b ac e3 3d 7c 9f fa 3d
       0.045882974 0.022159925 0.11116906 0.122374505
000010 46 89 be 3e 71 b0 cf 3c 56 98 6f 3d 46 e4 b3 3f
       0.37214106 0.025352689 0.05849489 1.4054039
000020 6a b3 c6 3c 41 40 86 3e 52 6b aa 3b 74 55 71 3d
       0.024255473 0.26220897 0.005200782 0.058919385
000030 2e 7c fc 3c b2 1a a7 3d af 89 49 3e 8b 45 3a 3c
       0.030820932 0.081593886 0.19681428 0.011369119
