models/pubmed_gcn_model.pth (torch, 36258 bytes, 6 tensors)

conv1.bias f4 [16]
0	0x3d43616f	0.04770034
1	0x3d762247	0.060091283
2	0x3d6fa073	0.058502626
3	0x3de9e2a4	0.114201814
4	0x3d07e026	0.03317275
5	0x3e09b1c6	0.13446721
6	0xbc6de29a	-0.014519358
7	0x3d1d437f	0.038394447
8	0xbcfbd908	-0.030743137
9	0x3d127c2a	0.035762943
10	0x3d54dec7	0.05197027
11	0x3d3a5e52	0.045500107
12	0x3d89b3da	0.06723757
13	0x3d246d03	0.040143024
14	0x3d084f7d	0.03327893
15	0x3d244fe1	0.04011524

conv1.lin.weight f4 [16, 500]
0	0xbee02705	-0.4377977
1	0x3db1f53e	0.08689354
2	0xbd8ed0bc	-0.06973407
3	0xbde1c02d	-0.11022983
4	0x3cd0c8fc	0.025486462
5	0xbdd87b4c	-0.10570392
6	0x3d7555f4	0.059896424
7	0xbd1ad17f	-0.037797447
8	0xbe98ef29	-0.29869965
9	0x3af63d0e	0.0018786506
10	0x3cb385e5	0.021914432
11	0xbe05699f	-0.13028572
12	0x3dac7493	0.08420672
13	0xbe4a7c70	-0.19774032
14	0x3e0e523e	0.1389856
15	0xbec14f9d	-0.37756053
16	0x3f75e384	0.96050286
17	0xbe3d8e5f	-0.18511342
18	0xbdc24fb2	-0.09487857
19	0xbd618596	-0.055059038
20	0x3c783d70	0.015151367
21	0x3cd47e4a	0.025939126
22	0xbdd283b0	-0.10279024
23	0xbe64aefb	-0.22332375
24	0xbe778fdd	-0.24175973
25	0xbe21b5bf	-0.15791987
26	0x3e417855	0.1889356
27	0x3e4639c9	0.19357981
28	0xbcdcfc60	-0.02697581
29	0x3e3507e6	0.17678794
30	0x3e3ba730	0.18325496
31	0x3d8090d0	0.06277621
32	0xbde66ef5	-0.11251632
33	0x3b403a37	0.0029331574
34	0xbc159a9d	-0.009131101
35	0xbc588c3e	-0.01321703
36	0x3c35bb77	0.011092058
37	0xbc533b40	-0.012892544
38	0xbd9c8eac	-0.076444
39	0xbe74f05f	-0.2391982
40	0x3d45c897	0.048287
41	0xbcad16df	-0.02112907
42	0xbe4b4c6d	-0.19853373
43	0xbd0ad5e2	-0.03389538
44	0x3ba05925	0.0048934394
45	0x3dd20e7f	0.10256671
46	0x3dab798d	0.08372793
47	0x3cd4e6a7	0.02598889
48	0xbe181a95	-0.1485389
49	0xbcb6bc3f	-0.02230656
50	0x3cfb8c53	0.03070656
51	0xba62efb2	-0.0008656933
52	0xbcc20586	-0.023684274
53	0xbeae2f33	-0.34020385
54	0x3d8b5b1f	0.06804489
55	0xbe2253eb	-0.15852325
56	0xbe42b196	-0.19013056
57	0x3e14505b	0.14483778
58	0xbe268654	-0.1626218
59	0xbec2fe6f	-0.38084742
60	0x3d0394ac	0.032124206
61	0xbd29b1c5	-0.0414293
62	0xbd281e7b	-0.041044693
63	0xbd2b88c6	-0.041878484
64	0xbd04962f	-0.03236979
65	0xbe8342d2	-0.25636917
66	0x3d1e6da8	0.038678795
67	0x3dee9e6c	0.1165131
68	0x3d5fde66	0.054655455
69	0x3e877699	0.2645767
70	0x3d7c6d6f	0.0616278
71	0xbd8390d5	-0.06424109
72	0x3da475ea	0.08030303
73	0x3e3f802b	0.18701236
74	0xbdd3558a	-0.1031905
75	0xbd4f313c	-0.050584063
76	0xbe0e2985	-0.13883026
77	0xbdde416c	-0.10852322
78	0xbd79aca9	-0.060955677
79	0xbba1709e	-0.004926755
80	0x3e18788c	0.14889735
81	0x3e472bb9	0.19450273
82	0xbe29955e	-0.16560885
83	0xbe5533f1	-0.20820595
84	0xbd305c68	-0.043056875
85	0x3e1fa005	0.15588386
86	0xbe15fa4f	-0.14646266
87	0xba7d746b	-0.0009668532
88	0x3d6d1290	0.05787903
89	0x3db4e362	0.08832432
90	0xbd3c1c65	-0.045925517
91	0xbe03cd99	-0.12871398
92	0xbe4aead3	-0.19816141
93	0xbe39176b	-0.1807534
94	0xbcb9ef90	-0.02269724
95	0xbcef8e51	-0.029242666
96	0x3dd05feb	0.10174545
97	0xbda2670e	-0.07929812
98	0xbacbb53c	-0.0015541683
99	0xba866318	-0.0010252921
100	0xbd2f9e53	-0.0428756
101	0x3ccf6440	0.025316358
102	0x3d5e616e	0.054292135
103	0xbdc2da43	-0.09514286
104	0xbd8d5b11	-0.06902135
105	0xbde6df8b	-0.11273106
106	0x3d2a7012	0.041610785
107	0x3d89d8a9	0.06730778
108	0xbe1b5e9b	-0.15172808
109	0x3cc4a379	0.024003731
110	0x3ca6e1c0	0.020371318
111	0x3dc83b47	0.09776931
112	0xbe1d8b31	-0.15385129
113	0x3d07ec98	0.033184618
114	0x3daaef35	0.08346406
115	0x3cb53768	0.022121146
116	0xbcbbf113	-0.022942102
117	0xbbaad1e8	-0.005213011
118	0x3dff7813	0.12474074
119	0x3e5ec5d1	0.21755148
120	0x3c7f4665	0.015580748
121	0x3c31318b	0.010815035
122	0xbca05977	-0.01957391
123	0xbd9aae21	-0.07552744
124	0xbd2c3901	-0.04204655
125	0xbd9225e1	-0.07136131
126	0xbd8a0b31	-0.06740416
127	0xbdda5a55	-0.10661761
128	0xbcd58210	-0.026062995
129	0x3d727cda	0.0592011
130	0xbdfb7e26	-0.1227992
131	0xbdcd2ea7	-0.10018664
132	0x3e98594f	0.29755637
133	0xbe7c9d28	-0.24669325
134	0xbe0d19b4	-0.13779336
135	0xbcd463cf	-0.025926499
136	0x3d71b8ca	0.05901412
137	0x3e467302	0.1937981
138	0xbdb99343	-0.09061291
139	0xbf5f216f	-0.8716039
140	0xbc86eadd	-0.016469413
141	0xbe56bb76	-0.20969948
142	0xbd5b9a3c	-0.053613886
143	0x3e006fdd	0.12542672
144	0xbd8f8c42	-0.07009174
145	0xbd22fdf4	-0.03979297
146	0x3b7f0de3	0.003891819
147	0xbd52e519	-0.051488016
148	0x3e1eaa39	0.15494622
149	0xbdb3d854	-0.08781496
150	0xbd8cfd19	-0.06884212
151	0xbdbbde36	-0.09173243
152	0x3d984d09	0.07436568
153	0xbe298f91	-0.16558672
154	0xbdd6297b	-0.104571305
155	0x3e53c19a	0.20679322
156	0x3d9122c2	0.07086708
157	0xbdee7c4e	-0.11644803
158	0xbd75ed38	-0.060040683
159	0xbe5b3f65	-0.21410902
160	0xbd1073a0	-0.03526652
161	0xbdf3d895	-0.11906544
162	0xbd28c2c6	-0.041201375
163	0xbc5aabd8	-0.013346635
164	0x3dc3678f	0.095412366
165	0x3d80f34b	0.062964045
166	0xbcf143fd	-0.029451365
167	0x3eb65831	0.3561416
168	0xbd95e185	-0.07318405
169	0xbe080d13	-0.13286237
170	0xbd4178f4	-0.04723449
171	0x3dac9646	0.084271
172	0x3d041524	0.032246724
173	0x3e3512a2	0.17682889
174	0xbe7bee93	-0.24602728
175	0x3df9a38d	0.12189398
176	0x3cc950c2	0.024574641
177	0xbe8daeac	-0.27672327
178	0x3c3cb275	0.011517157
179	0xbd85c37c	-0.06531426
180	0x3e0d9088	0.13824666
181	0x3e5c9f37	0.2154511
182	0xbdbf6c22	-0.093467966
183	0xbb8b822a	-0.00425746
184	0xbea934b4	-0.33048022
185	0xbe80586f	-0.2506747
186	0xbb1c769c	-0.0023874408
187	0xbd7172ff	-0.05894756
188	0x3dadcd43	0.08486416
189	0x3ca916d4	0.020640768
190	0x3ddbd43c	0.1073384
191	0x3ceee8b2	0.029163692
192	0xbd84ce01	-0.064846046
193	0xbddfc03e	-0.10925339
194	0x3dbafba2	0.091300264
195	0x3d5b8069	0.05358926
196	0xbdbfbef2	-0.09362592
197	0x3daeb8e2	0.08531357
198	0xbd946a75	-0.072468676
199	0xbe327735	-0.17428286
200	0xbe079485	-0.1324025
201	0xbd25aa4f	-0.040445622
202	0xbdeb4d6e	-0.11489378
203	0x3a579284	0.00082234317
204	0xbe1029c4	-0.14078432
205	0xbdbbe71f	-0.09174942
206	0x3e78f2fe	0.24311444
207	0x3d9d3483	0.076760314
208	0xbd95c40b	-0.07312783
209	0x3d3209d0	0.04346639
210	0x3d7382b4	0.05945082
211	0x3e7f5ad4	0.24936992
212	0x3e226ac6	0.15861043
213	0x3dcc27e0	0.09968543
214	0xbdfa8e7c	-0.12234208
215	0x3d35003e	0.044189684
216	0x3e20b679	0.15694608
217	0x3ecd9ef2	0.40160328
218	0x3d9d01fd	0.07666395
219	0xbd3c0fac	-0.045913383
220	0xbc88af67	-0.0166852
221	0x3c853958	0.016262695
222	0xbe258242	-0.1616297
223	0x3c3630e0	0.011120051
224	0x3d8a3035	0.06747476
225	0x3e002915	0.12515672
226	0x3e383b3f	0.1799135
227	0x3cbd6243	0.023118144
228	0xbd05681b	-0.032569986
229	0x3d8bf44d	0.06833706
230	0x3bd623fa	0.0065350505
231	0x3db944ae	0.09046303
232	0xbd288f31	-0.041152183
233	0x3d824da1	0.06362463
234	0xbd68478e	-0.056708865
235	0x3ea52919	0.32257918
236	0x3e1c3b62	0.15257028
237	0x3eb88051	0.36035398
238	0x3c43b905	0.011945968
239	0x3f19e083	0.601082
240	0xbe01667b	-0.1263675
241	0x3d679d5c	0.056546554
242	0x3ddbebe2	0.107383505
243	0x3d24f5dc	0.040273532
244	0x3e5fc205	0.21851356
245	0xbd90d527	-0.070719056
246	0xbdac71c8	-0.084201396
247	0xbe085260	-0.13312674
248	0x3d44c4c4	0.048039213
249	0x3d925f8d	0.07147131
250	0xbe47e985	-0.19522674
251	0x3eb6f887	0.35736486
252	0xbe7238a5	-0.2365442
253	0x3e7a5255	0.2444547
254	0x3d81edc3	0.063441776
255	0x3e20667c	0.15664095

conv2.bias f4 [16]
0	0x3d15031f	0.03637993
1	0x3e121163	0.14264445
2	0x3dbfdcd8	0.093682945
3	0x3d361e1f	0.04446232
4	0x3e28cd62	0.16484597
5	0x3e3f0438	0.18653953
6	0x3e28e94e	0.16495249
7	0x3e1f148e	0.15535185
8	0x3e213342	0.1574221
9	0x3dd3ce46	0.10342078
10	0xbca0d09a	-0.019630719
11	0x3e3a7269	0.18207707
12	0x3e143941	0.14474966
13	0x3e589536	0.2115067
14	0xbc9fe227	-0.019517018
15	0x3d22a388	0.039706737

conv2.lin.weight f4 [16, 16]
0	0xbf418063	-0.7558653
1	0xbf0f1f81	-0.55907446
2	0xbf3e3684	-0.74301934
3	0x3db23207	0.08700948
4	0x3e9cc3a6	0.30618018
5	0x3ee2997b	0.4425772
6	0xb6955d87	-4.451434e-06
7	0x3ea6f290	0.32606936
8	0xb6a5fb3b	-4.9466303e-06
9	0xbf6455fe	-0.89193714
10	0x3f687cad	0.9081524
11	0x3f7960b3	0.97413176
12	0x3f5dd40c	0.8665168
13	0x3f783175	0.96950465
14	0xbf02dce4	-0.511183
15	0x3f90e338	1.1319342
16	0xbeec71ab	-0.46180472
17	0xbf15457c	-0.5830915
18	0x3f809aa1	1.0047189
19	0xbf3d7edc	-0.740217
20	0x3f47f6a4	0.7811072
21	0xbf261833	-0.64880675
22	0x3662aabf	3.3776012e-06
23	0x3f76562c	0.9622524
24	0xb5cf8232	-1.5460594e-06
25	0xbebe97bd	-0.37225142
26	0xbf0f0877	-0.5587229
27	0xbf0717a6	-0.5277046
28	0xbf235d0c	-0.63813853
29	0xbee335a7	-0.4437687
30	0x3f581e62	0.8442136
31	0xbf1abbe2	-0.60442936
32	0xbf588576	-0.84578645
33	0xbf4bb5c7	-0.79574245
34	0xbd663463	-0.056202304
35	0xbe8274e4	-0.25479805
36	0x3f977134	1.1831422
37	0xbdd52f86	-0.10409455
38	0xb720ca9d	-9.583918e-06
39	0x3fb9eeda	1.4526017
40	0x370e2c26	8.474139e-06
41	0xbf8903db	-1.0704302
42	0x3f27ed64	0.65596604
43	0x3f2ed7c9	0.6829801
44	0x3ecf7bf0	0.40524244
45	0x3f876e25	1.0580488
46	0x3f5104f6	0.81648195
47	0x3f53ff53	0.8281147
48	0xbf29fbab	-0.6639964
49	0xbef783e5	-0.48342815
50	0xbf49acae	-0.78779113
51	0x3e3e26f9	0.18569554
52	0x3e67ac56	0.22624335
53	0x3e9ad67e	0.3024177
54	0xb5b2cdad	-1.3321893e-06
55	0x3ecd3f46	0.40087336
56	0x366acc90	3.4987788e-06
57	0xbf661900	-0.89881897
58	0x3f457371	0.77129275
59	0x3f7a6f4b	0.9782607
60	0x3f350fd8	0.707273
61	0x3f79ff15	0.9765485
62	0xbf0db45d	-0.5535334
63	0x3f744b01	0.95426947
64	0x3f9292ee	1.1451089
65	0x3f49a09b	0.7876069
66	0x3f7f638b	0.99761266
67	0x3ec46a81	0.38362506
68	0xbedd48ca	-0.43219596
69	0xbb9b150d	-0.004732734
70	0xb626ab35	-2.4835583e-06
71	0xbef823b5	-0.48464742
72	0xb6a9103e	-5.0384833e-06
73	0x3f796b2d	0.9742916
74	0xbefe2cc4	-0.49643528
75	0xbf4ce3d6	-0.8003515
76	0xbf0949af	-0.5362806
77	0xbf419eab	-0.75632733
78	0x3e72c8d5	0.23709424
79	0xbf649b88	-0.8929982
80	0x3f51759e	0.81820095
81	0x3f40030a	0.7500464
82	0xbef3c388	-0.47610116
83	0x3f5273c8	0.8220792
84	0xbf1235a3	-0.57113093
85	0x3f81a39a	1.0128052
86	0xb4d6f2c8	-4.0037253e-07
87	0xbf371fb8	-0.71532774
88	0xb710039f	-8.583912e-06
89	0x3f1e0530	0.61726665
90	0x3f397304	0.72441125
91	0x3efbbfde	0.4916982
92	0x3f1e4915	0.61830264
93	0x3eaa56e5	0.3326942
94	0xbf5ed88a	-0.8704916
95	0x3f148df5	0.5802911
96	0xbf7721ca	-0.96535933
97	0xbf483610	-0.7820749
98	0x3ea88866	0.32916564
99	0xbf0f8d87	-0.5607533
100	0x3f8ecfcf	1.1157168
101	0xbe14c9e4	-0.1453014
102	0x37097d56	8.195018e-06
103	0x3f71dcc9	0.94477516
104	0xb72a6e79	-1.0158511e-05
105	0xbf68d93d	-0.9095648
106	0x3e71424f	0.23560451
107	0x3ec462f7	0.38356754
108	0x3e83b706	0.25725573
109	0x3f295311	0.66142374
110	0x3f5e89da	0.86929095
111	0x3ef5277d	0.4788169
112	0x3f467f38	0.7753787
113	0x3f4f8d3a	0.8107487
114	0xbeebdf53	-0.4606882
115	0x3f413d52	0.7548419
116	0xbf30fa1e	-0.6913165
117	0x3f720be7	0.9454941
118	0xb5ed0d40	-1.7661732e-06
119	0xbf1bc7fc	-0.60852027
120	0xb7aa341b	-2.0289843e-05
121	0x3f489f1e	0.78367794
122	0x3f2f4b7e	0.68474567
123	0x3f10d104	0.5656893
124	0x3f36a641	0.71347433
125	0x3ed37ae1	0.41304687
126	0xbf2c7d39	-0.67378575
127	0x3f076c15	0.52899295
128	0x3f1d253f	0.6138496
129	0x3f43d88f	0.7650232
130	0xbf192e60	-0.5983639
131	0x3f76c02a	0.9638697
132	0xbf0c450d	-0.54792863
133	0x3f94bf59	1.1620895
134	0xb778ce21	-1.4829945e-05
135	0xbeff3f8a	-0.49853164
136	0xb481f2b4	-2.4204712e-07
137	0x3e058708	0.13039792
138	0x3f29967f	0.66245264
139	0x3f2cf63c	0.67563224
140	0x3f1c142e	0.6096829
141	0x3f205bfa	0.62640345
142	0xbf4a3c93	-0.7899868
143	0x3f56c747	0.83897823
144	0x3f8370d8	1.0268812
145	0x3f7d76d3	0.99009436
146	0x3efdd2cc	0.49574888
147	0x3f2e6aa3	0.68131465
148	0xbf47eb49	-0.7809339
149	0x3f037770	0.5135412
150	0x368a1140	4.1147287e-06
151	0xbf618974	-0.8810036
152	0xb7247a77	-9.803675e-06
153	0x3f66277c	0.89904
154	0xbef577c1	-0.47942927
155	0xbf3b64f3	-0.7320091
156	0xbdf9c734	-0.12196198
157	0xbf24467a	-0.6417004
158	0xbed44f07	-0.41466543
159	0xbf29b4ff	-0.66291803
160	0xb697937d	-4.5173206e-06
161	0x36e3d728	6.7901747e-06
162	0x3491c3b4	2.7150747e-07
163	0x359efc67	1.1845376e-06
164	0xb5f2f25a	-1.8100939e-06
165	0xb4df64cc	-4.1610326e-07
166	0x36e8c796	6.9373737e-06
167	0xb78ae483	-1.6557291e-05
168	0x36f1e468	7.2089497e-06
169	0xb45b96d0	-2.045083e-07
170	0x354a87aa	7.544828e-07
171	0xb692abfe	-4.3711616e-06
172	0xb5ab79cc	-1.277594e-06
173	0xb78d582d	-1.684957e-05
174	0xb612bb1a	-2.1864603e-06
175	0xb70a8d07	-8.2582765e-06
176	0x3f50e7b3	0.81603545
177	0x3f713574	0.9422219
178	0x3f901ae8	1.1258211
179	0x3ea6681d	0.32501307
180	0xbeca6913	-0.3953329
181	0x3d99ba42	0.07506229
182	0xb73c293a	-1.1215272e-05
183	0xbee97466	-0.45596617
184	0x3695fea8	4.470192e-06
185	0x3f764da9	0.9621225
186	0xbf5155d0	-0.81771564
187	0xbf69312c	-0.91090655
188	0xbf22cfac	-0.6359813
189	0xbf7deed7	-0.99192566
190	0x3f01059b	0.5039918
191	0xbf68b24c	-0.9089706
192	0x3ef8ea5c	0.48616302
193	0x3eeb11fc	0.45912158
194	0xbefc3588	-0.4925959
195	0x3f816bab	1.0110983
196	0xbf14dc92	-0.58149064
197	0x3f89884a	1.0744717
198	0x35c345f2	1.4548989e-06
199	0xbf14c141	-0.5810738
200	0x3605c8bc	1.9935387e-06
201	0x3f2b689e	0.6695651
202	0x3f0d31f0	0.55154324
203	0x3f0279dd	0.509672
204	0x3f507899	0.8143402
205	0x3e8860d4	0.26636374
206	0xbf48c2ad	-0.7842205
207	0x3f22089d	0.6329439
208	0xbec8b755	-0.3920237
209	0xbf111232	-0.5666839
210	0x3f315bb3	0.69280547
211	0xbf4dd268	-0.8039918
212	0x3ed5ab54	0.41732275
213	0xbf51e2f9	-0.8198696
214	0xb789296e	-1.6350965e-05
215	0x3f30134b	0.6877944
216	0xb4e18ea1	-4.2013292e-07
217	0xbe23ad01	-0.15983965
218	0xbf528306	-0.82231176
219	0xbf2a6a5a	-0.6656853
220	0xbf522c6a	-0.8209902
221	0xbf11010f	-0.5664224
222	0x3f1e8314	0.6191876
223	0xbf45ecff	-0.7731475
224	0x35e0117d	1.669439e-06
225	0xb6718332	-3.5988164e-06
226	0xb5f3f1a7	-1.8175241e-06
227	0xb18a4900	-4.0246277e-09
228	0x36cbbd80	6.071932e-06
229	0x35f42143	1.8189097e-06
230	0xb6cfa6be	-6.188492e-06
231	0xb6a1f3dc	-4.826563e-06
232	0x372c2b39	1.02620625e-05
233	0x3746a966	1.1841161e-05
234	0xb5dcdcc0	-1.6455524e-06
235	0x36f96079	7.432009e-06
236	0xb625bbe0	-2.4696274e-06
237	0x37263ec0	9.908981e-06
238	0x36517c8c	3.1215923e-06
239	0xb697298a	-4.5049865e-06
240	0xbf44a142	-0.7680856
241	0xbf04432f	-0.51665014
242	0xbf4679d5	-0.7752965
243	0x3ceeb731	0.029140087
244	0x3e9a8bc4	0.30184758
245	0x3e35868c	0.17727107
246	0x3490b3d6	2.6952938e-07
247	0x3e8bb2ee	0.2728495
248	0x37093939	8.1791595e-06
249	0xbf3c39f5	-0.73525935
250	0x3f902b20	1.1263161
251	0x3f7cb01b	0.98706216
252	0x3f61b75d	0.88170415
253	0x3f9e4d3c	1.236732
254	0xbee45ddf	-0.44602868
255	0x3f92b942	1.1462786

conv3.bias f4 [3]
0	0x3eee9b59	0.46602896
1	0xbe876d21	-0.26450446
2	0xbef5bef1	-0.4799724

conv3.lin.weight f4 [3, 16]
0	0xbf3eeb83	-0.7457811
1	0x3f8172d5	1.0113169
2	0x3faae110	1.3349934
3	0xbf4be694	-0.7964871
4	0x3e7411b8	0.23834884
5	0xbf824a2f	-1.0178889
6	0x3f68fae6	0.9100784
7	0xbf718783	-0.943474
8	0xbfa9be99	-1.3261291
9	0xbf484540	-0.7823067
10	0x36c51c6a	5.8743653e-06
11	0x3f67c289	0.9053121
12	0xbf8f305d	-1.1186634
13	0x3f982fe5	1.1889616
14	0x36b1d191	5.299408e-06
15	0xbf7112ff	-0.9416961
16	0xbf8cd13a	-1.1001351
17	0xbf48bd04	-0.78413415
18	0xbfa4c4c1	-1.2872545
19	0xbf9ae367	-1.2100648
20	0x3f9c6e2d	1.2221123
21	0x3f8ed2af	1.1158046
22	0xbf8a16fb	-1.0788263
23	0x3fa21172	1.2661574
24	0x3f54aac6	0.8307308
25	0x3fa634aa	1.2984822
26	0x36b58a25	5.4103025e-06
27	0x3fc5371c	1.5407443
28	0x3f98fb3f	1.1951674
29	0xbf3c7a92	-0.7362453
30	0x37694fe8	1.3906487e-05
31	0xbfd23b47	-1.642434
32	0x3fa1b1de	1.2632406
33	0xbf1f6e9c	-0.6227815
34	0x3f989032	1.1919005
35	0x3faadc8b	1.3348554
36	0xbfc82260	-1.563549
37	0x3f521a0f	0.8207101
38	0x3ed635b4	0.41837847
39	0x3f76b4d5	0.9636968
40	0x3f551935	0.8324159
41	0xbf6da5fc	-0.928314
42	0xb6eda6b3	-7.0825567e-06
43	0xbf4b5e12	-0.79440415
44	0x3f72e5f2	0.9488212
45	0xbf79528f	-0.973916
46	0x37872776	1.611163e-05
47	0x3f9708e0	1.1799583
